node {
  name: "conv2d/kernel"
  op: "VarHandleOp"
  device: "/job:localhost/replica:0/task:0/device:GPU:0"
  attr {
    key: "container"
    value {
      s: ""
    }
  }
  attr {
    key: "dtype"
    value {
      type: DT_FLOAT
    }
  }
  attr {
    key: "shape"
    value {
      shape {
        dim {
          size: 3
        }
        dim {
          size: 3
        }
        dim {
          size: 3
        }
        dim {
          size: 32
        }
      }
    }
  }
  attr {
    key: "shared_name"
    value {
      s: "conv2d/kernel"
    }
  }
}
node {
  name: "batch_normalization_62/gamma"
  op: "VarHandleOp"
  device: "/job:localhost/replica:0/task:0/device:GPU:0"
  attr {
    key: "container"
    value {
      s: ""
    }
  }
  attr {
    key: "dtype"
    value {
      type: DT_FLOAT
    }
  }
  attr {
    key: "shape"
    value {
      shape {
        dim {
          size: 512
        }
      }
    }
  }
  attr {
    key: "shared_name"
    value {
      s: "batch_normalization_62/gamma"
    }
  }
}
node {
  name: "batch_normalization/gamma"
  op: "VarHandleOp"
  device: "/job:localhost/replica:0/task:0/device:GPU:0"
  attr {
    key: "container"
    value {
      s: ""
    }
  }
  attr {
    key: "dtype"
    value {
      type: DT_FLOAT
    }
  }
  attr {
    key: "shape"
    value {
      shape {
        dim {
          size: 32
        }
      }
    }
  }
  attr {
    key: "shared_name"
    value {
      s: "batch_normalization/gamma"
    }
  }
}
node {
  name: "batch_normalization_27/moving_mean"
  op: "VarHandleOp"
  device: "/job:localhost/replica:0/task:0/device:GPU:0"
  attr {
    key: "container"
    value {
      s: ""
    }
  }
  attr {
    key: "dtype"
    value {
      type: DT_FLOAT
    }
  }
  attr {
    key: "shape"
    value {
      shape {
        dim {
          size: 256
        }
      }
    }
  }
  attr {
    key: "shared_name"
    value {
      s: "batch_normalization_27/moving_mean"
    }
  }
}
node {
  name: "batch_normalization/beta"
  op: "VarHandleOp"
  device: "/job:localhost/replica:0/task:0/device:GPU:0"
  attr {
    key: "container"
    value {
      s: ""
    }
  }
  attr {
    key: "dtype"
    value {
      type: DT_FLOAT
    }
  }
  attr {
    key: "shape"
    value {
      shape {
        dim {
          size: 32
        }
      }
    }
  }
  attr {
    key: "shared_name"
    value {
      s: "batch_normalization/beta"
    }
  }
}
node {
  name: "batch_normalization_62/beta"
  op: "VarHandleOp"
  device: "/job:localhost/replica:0/task:0/device:GPU:0"
  attr {
    key: "container"
    value {
      s: ""
    }
  }
  attr {
    key: "dtype"
    value {
      type: DT_FLOAT
    }
  }
  attr {
    key: "shape"
    value {
      shape {
        dim {
          size: 512
        }
      }
    }
  }
  attr {
    key: "shared_name"
    value {
      s: "batch_normalization_62/beta"
    }
  }
}
node {
  name: "conv2d_1/kernel"
  op: "VarHandleOp"
  device: "/job:localhost/replica:0/task:0/device:GPU:0"
  attr {
    key: "container"
    value {
      s: ""
    }
  }
  attr {
    key: "dtype"
    value {
      type: DT_FLOAT
    }
  }
  attr {
    key: "shape"
    value {
      shape {
        dim {
          size: 3
        }
        dim {
          size: 3
        }
        dim {
          size: 32
        }
        dim {
          size: 64
        }
      }
    }
  }
  attr {
    key: "shared_name"
    value {
      s: "conv2d_1/kernel"
    }
  }
}
node {
  name: "batch_normalization_50/moving_mean"
  op: "VarHandleOp"
  device: "/job:localhost/replica:0/task:0/device:GPU:0"
  attr {
    key: "container"
    value {
      s: ""
    }
  }
  attr {
    key: "dtype"
    value {
      type: DT_FLOAT
    }
  }
  attr {
    key: "shape"
    value {
      shape {
        dim {
          size: 512
        }
      }
    }
  }
  attr {
    key: "shared_name"
    value {
      s: "batch_normalization_50/moving_mean"
    }
  }
}
node {
  name: "batch_normalization_1/gamma"
  op: "VarHandleOp"
  device: "/job:localhost/replica:0/task:0/device:GPU:0"
  attr {
    key: "container"
    value {
      s: ""
    }
  }
  attr {
    key: "dtype"
    value {
      type: DT_FLOAT
    }
  }
  attr {
    key: "shape"
    value {
      shape {
        dim {
          size: 64
        }
      }
    }
  }
  attr {
    key: "shared_name"
    value {
      s: "batch_normalization_1/gamma"
    }
  }
}
node {
  name: "conv2d_64/kernel"
  op: "VarHandleOp"
  device: "/job:localhost/replica:0/task:0/device:GPU:0"
  attr {
    key: "container"
    value {
      s: ""
    }
  }
  attr {
    key: "dtype"
    value {
      type: DT_FLOAT
    }
  }
  attr {
    key: "shape"
    value {
      shape {
        dim {
          size: 1
        }
        dim {
          size: 1
        }
        dim {
          size: 512
        }
        dim {
          size: 256
        }
      }
    }
  }
  attr {
    key: "shared_name"
    value {
      s: "conv2d_64/kernel"
    }
  }
}
node {
  name: "batch_normalization_1/beta"
  op: "VarHandleOp"
  device: "/job:localhost/replica:0/task:0/device:GPU:0"
  attr {
    key: "container"
    value {
      s: ""
    }
  }
  attr {
    key: "dtype"
    value {
      type: DT_FLOAT
    }
  }
  attr {
    key: "shape"
    value {
      shape {
        dim {
          size: 64
        }
      }
    }
  }
  attr {
    key: "shared_name"
    value {
      s: "batch_normalization_1/beta"
    }
  }
}
node {
  name: "batch_normalization_27/moving_variance"
  op: "VarHandleOp"
  device: "/job:localhost/replica:0/task:0/device:GPU:0"
  attr {
    key: "container"
    value {
      s: ""
    }
  }
  attr {
    key: "dtype"
    value {
      type: DT_FLOAT
    }
  }
  attr {
    key: "shape"
    value {
      shape {
        dim {
          size: 256
        }
      }
    }
  }
  attr {
    key: "shared_name"
    value {
      s: "batch_normalization_27/moving_variance"
    }
  }
}
node {
  name: "conv2d_2/kernel"
  op: "VarHandleOp"
  device: "/job:localhost/replica:0/task:0/device:GPU:0"
  attr {
    key: "container"
    value {
      s: ""
    }
  }
  attr {
    key: "dtype"
    value {
      type: DT_FLOAT
    }
  }
  attr {
    key: "shape"
    value {
      shape {
        dim {
          size: 1
        }
        dim {
          size: 1
        }
        dim {
          size: 64
        }
        dim {
          size: 32
        }
      }
    }
  }
  attr {
    key: "shared_name"
    value {
      s: "conv2d_2/kernel"
    }
  }
}
node {
  name: "batch_normalization_63/gamma"
  op: "VarHandleOp"
  device: "/job:localhost/replica:0/task:0/device:GPU:0"
  attr {
    key: "container"
    value {
      s: ""
    }
  }
  attr {
    key: "dtype"
    value {
      type: DT_FLOAT
    }
  }
  attr {
    key: "shape"
    value {
      shape {
        dim {
          size: 256
        }
      }
    }
  }
  attr {
    key: "shared_name"
    value {
      s: "batch_normalization_63/gamma"
    }
  }
}
node {
  name: "batch_normalization_2/gamma"
  op: "VarHandleOp"
  device: "/job:localhost/replica:0/task:0/device:GPU:0"
  attr {
    key: "container"
    value {
      s: ""
    }
  }
  attr {
    key: "dtype"
    value {
      type: DT_FLOAT
    }
  }
  attr {
    key: "shape"
    value {
      shape {
        dim {
          size: 32
        }
      }
    }
  }
  attr {
    key: "shared_name"
    value {
      s: "batch_normalization_2/gamma"
    }
  }
}
node {
  name: "batch_normalization_62/moving_variance"
  op: "VarHandleOp"
  device: "/job:localhost/replica:0/task:0/device:GPU:0"
  attr {
    key: "container"
    value {
      s: ""
    }
  }
  attr {
    key: "dtype"
    value {
      type: DT_FLOAT
    }
  }
  attr {
    key: "shape"
    value {
      shape {
        dim {
          size: 512
        }
      }
    }
  }
  attr {
    key: "shared_name"
    value {
      s: "batch_normalization_62/moving_variance"
    }
  }
}
node {
  name: "batch_normalization_2/beta"
  op: "VarHandleOp"
  device: "/job:localhost/replica:0/task:0/device:GPU:0"
  attr {
    key: "container"
    value {
      s: ""
    }
  }
  attr {
    key: "dtype"
    value {
      type: DT_FLOAT
    }
  }
  attr {
    key: "shape"
    value {
      shape {
        dim {
          size: 32
        }
      }
    }
  }
  attr {
    key: "shared_name"
    value {
      s: "batch_normalization_2/beta"
    }
  }
}
node {
  name: "batch_normalization_63/beta"
  op: "VarHandleOp"
  device: "/job:localhost/replica:0/task:0/device:GPU:0"
  attr {
    key: "container"
    value {
      s: ""
    }
  }
  attr {
    key: "dtype"
    value {
      type: DT_FLOAT
    }
  }
  attr {
    key: "shape"
    value {
      shape {
        dim {
          size: 256
        }
      }
    }
  }
  attr {
    key: "shared_name"
    value {
      s: "batch_normalization_63/beta"
    }
  }
}
node {
  name: "conv2d_3/kernel"
  op: "VarHandleOp"
  device: "/job:localhost/replica:0/task:0/device:GPU:0"
  attr {
    key: "container"
    value {
      s: ""
    }
  }
  attr {
    key: "dtype"
    value {
      type: DT_FLOAT
    }
  }
  attr {
    key: "shape"
    value {
      shape {
        dim {
          size: 3
        }
        dim {
          size: 3
        }
        dim {
          size: 32
        }
        dim {
          size: 64
        }
      }
    }
  }
  attr {
    key: "shared_name"
    value {
      s: "conv2d_3/kernel"
    }
  }
}
node {
  name: "batch_normalization_28/moving_mean"
  op: "VarHandleOp"
  device: "/job:localhost/replica:0/task:0/device:GPU:0"
  attr {
    key: "container"
    value {
      s: ""
    }
  }
  attr {
    key: "dtype"
    value {
      type: DT_FLOAT
    }
  }
  attr {
    key: "shape"
    value {
      shape {
        dim {
          size: 512
        }
      }
    }
  }
  attr {
    key: "shared_name"
    value {
      s: "batch_normalization_28/moving_mean"
    }
  }
}
node {
  name: "batch_normalization_3/gamma"
  op: "VarHandleOp"
  device: "/job:localhost/replica:0/task:0/device:GPU:0"
  attr {
    key: "container"
    value {
      s: ""
    }
  }
  attr {
    key: "dtype"
    value {
      type: DT_FLOAT
    }
  }
  attr {
    key: "shape"
    value {
      shape {
        dim {
          size: 64
        }
      }
    }
  }
  attr {
    key: "shared_name"
    value {
      s: "batch_normalization_3/gamma"
    }
  }
}
node {
  name: "conv2d_67/kernel"
  op: "VarHandleOp"
  device: "/job:localhost/replica:0/task:0/device:GPU:0"
  attr {
    key: "container"
    value {
      s: ""
    }
  }
  attr {
    key: "dtype"
    value {
      type: DT_FLOAT
    }
  }
  attr {
    key: "shape"
    value {
      shape {
        dim {
          size: 1
        }
        dim {
          size: 1
        }
        dim {
          size: 256
        }
        dim {
          size: 128
        }
      }
    }
  }
  attr {
    key: "shared_name"
    value {
      s: "conv2d_67/kernel"
    }
  }
}
node {
  name: "batch_normalization_3/beta"
  op: "VarHandleOp"
  device: "/job:localhost/replica:0/task:0/device:GPU:0"
  attr {
    key: "container"
    value {
      s: ""
    }
  }
  attr {
    key: "dtype"
    value {
      type: DT_FLOAT
    }
  }
  attr {
    key: "shape"
    value {
      shape {
        dim {
          size: 64
        }
      }
    }
  }
  attr {
    key: "shared_name"
    value {
      s: "batch_normalization_3/beta"
    }
  }
}
node {
  name: "batch_normalization_50/moving_variance"
  op: "VarHandleOp"
  device: "/job:localhost/replica:0/task:0/device:GPU:0"
  attr {
    key: "container"
    value {
      s: ""
    }
  }
  attr {
    key: "dtype"
    value {
      type: DT_FLOAT
    }
  }
  attr {
    key: "shape"
    value {
      shape {
        dim {
          size: 512
        }
      }
    }
  }
  attr {
    key: "shared_name"
    value {
      s: "batch_normalization_50/moving_variance"
    }
  }
}
node {
  name: "conv2d_4/kernel"
  op: "VarHandleOp"
  device: "/job:localhost/replica:0/task:0/device:GPU:0"
  attr {
    key: "container"
    value {
      s: ""
    }
  }
  attr {
    key: "dtype"
    value {
      type: DT_FLOAT
    }
  }
  attr {
    key: "shape"
    value {
      shape {
        dim {
          size: 3
        }
        dim {
          size: 3
        }
        dim {
          size: 64
        }
        dim {
          size: 128
        }
      }
    }
  }
  attr {
    key: "shared_name"
    value {
      s: "conv2d_4/kernel"
    }
  }
}
node {
  name: "batch_normalization_65/gamma"
  op: "VarHandleOp"
  device: "/job:localhost/replica:0/task:0/device:GPU:0"
  attr {
    key: "container"
    value {
      s: ""
    }
  }
  attr {
    key: "dtype"
    value {
      type: DT_FLOAT
    }
  }
  attr {
    key: "shape"
    value {
      shape {
        dim {
          size: 128
        }
      }
    }
  }
  attr {
    key: "shared_name"
    value {
      s: "batch_normalization_65/gamma"
    }
  }
}
node {
  name: "batch_normalization_4/gamma"
  op: "VarHandleOp"
  device: "/job:localhost/replica:0/task:0/device:GPU:0"
  attr {
    key: "container"
    value {
      s: ""
    }
  }
  attr {
    key: "dtype"
    value {
      type: DT_FLOAT
    }
  }
  attr {
    key: "shape"
    value {
      shape {
        dim {
          size: 128
        }
      }
    }
  }
  attr {
    key: "shared_name"
    value {
      s: "batch_normalization_4/gamma"
    }
  }
}
node {
  name: "batch_normalization_28/moving_variance"
  op: "VarHandleOp"
  device: "/job:localhost/replica:0/task:0/device:GPU:0"
  attr {
    key: "container"
    value {
      s: ""
    }
  }
  attr {
    key: "dtype"
    value {
      type: DT_FLOAT
    }
  }
  attr {
    key: "shape"
    value {
      shape {
        dim {
          size: 512
        }
      }
    }
  }
  attr {
    key: "shared_name"
    value {
      s: "batch_normalization_28/moving_variance"
    }
  }
}
node {
  name: "batch_normalization_4/beta"
  op: "VarHandleOp"
  device: "/job:localhost/replica:0/task:0/device:GPU:0"
  attr {
    key: "container"
    value {
      s: ""
    }
  }
  attr {
    key: "dtype"
    value {
      type: DT_FLOAT
    }
  }
  attr {
    key: "shape"
    value {
      shape {
        dim {
          size: 128
        }
      }
    }
  }
  attr {
    key: "shared_name"
    value {
      s: "batch_normalization_4/beta"
    }
  }
}
node {
  name: "batch_normalization_65/beta"
  op: "VarHandleOp"
  device: "/job:localhost/replica:0/task:0/device:GPU:0"
  attr {
    key: "container"
    value {
      s: ""
    }
  }
  attr {
    key: "dtype"
    value {
      type: DT_FLOAT
    }
  }
  attr {
    key: "shape"
    value {
      shape {
        dim {
          size: 128
        }
      }
    }
  }
  attr {
    key: "shared_name"
    value {
      s: "batch_normalization_65/beta"
    }
  }
}
node {
  name: "conv2d_5/kernel"
  op: "VarHandleOp"
  device: "/job:localhost/replica:0/task:0/device:GPU:0"
  attr {
    key: "container"
    value {
      s: ""
    }
  }
  attr {
    key: "dtype"
    value {
      type: DT_FLOAT
    }
  }
  attr {
    key: "shape"
    value {
      shape {
        dim {
          size: 1
        }
        dim {
          size: 1
        }
        dim {
          size: 128
        }
        dim {
          size: 64
        }
      }
    }
  }
  attr {
    key: "shared_name"
    value {
      s: "conv2d_5/kernel"
    }
  }
}
node {
  name: "batch_normalization_64/moving_mean"
  op: "VarHandleOp"
  device: "/job:localhost/replica:0/task:0/device:GPU:0"
  attr {
    key: "container"
    value {
      s: ""
    }
  }
  attr {
    key: "dtype"
    value {
      type: DT_FLOAT
    }
  }
  attr {
    key: "shape"
    value {
      shape {
        dim {
          size: 512
        }
      }
    }
  }
  attr {
    key: "shared_name"
    value {
      s: "batch_normalization_64/moving_mean"
    }
  }
}
node {
  name: "batch_normalization_5/gamma"
  op: "VarHandleOp"
  device: "/job:localhost/replica:0/task:0/device:GPU:0"
  attr {
    key: "container"
    value {
      s: ""
    }
  }
  attr {
    key: "dtype"
    value {
      type: DT_FLOAT
    }
  }
  attr {
    key: "shape"
    value {
      shape {
        dim {
          size: 64
        }
      }
    }
  }
  attr {
    key: "shared_name"
    value {
      s: "batch_normalization_5/gamma"
    }
  }
}
node {
  name: "conv2d_68/kernel"
  op: "VarHandleOp"
  device: "/job:localhost/replica:0/task:0/device:GPU:0"
  attr {
    key: "container"
    value {
      s: ""
    }
  }
  attr {
    key: "dtype"
    value {
      type: DT_FLOAT
    }
  }
  attr {
    key: "shape"
    value {
      shape {
        dim {
          size: 1
        }
        dim {
          size: 1
        }
        dim {
          size: 384
        }
        dim {
          size: 128
        }
      }
    }
  }
  attr {
    key: "shared_name"
    value {
      s: "conv2d_68/kernel"
    }
  }
}
node {
  name: "batch_normalization_5/beta"
  op: "VarHandleOp"
  device: "/job:localhost/replica:0/task:0/device:GPU:0"
  attr {
    key: "container"
    value {
      s: ""
    }
  }
  attr {
    key: "dtype"
    value {
      type: DT_FLOAT
    }
  }
  attr {
    key: "shape"
    value {
      shape {
        dim {
          size: 64
        }
      }
    }
  }
  attr {
    key: "shared_name"
    value {
      s: "batch_normalization_5/beta"
    }
  }
}
node {
  name: "batch_normalization_29/moving_mean"
  op: "VarHandleOp"
  device: "/job:localhost/replica:0/task:0/device:GPU:0"
  attr {
    key: "container"
    value {
      s: ""
    }
  }
  attr {
    key: "dtype"
    value {
      type: DT_FLOAT
    }
  }
  attr {
    key: "shape"
    value {
      shape {
        dim {
          size: 256
        }
      }
    }
  }
  attr {
    key: "shared_name"
    value {
      s: "batch_normalization_29/moving_mean"
    }
  }
}
node {
  name: "conv2d_6/kernel"
  op: "VarHandleOp"
  device: "/job:localhost/replica:0/task:0/device:GPU:0"
  attr {
    key: "container"
    value {
      s: ""
    }
  }
  attr {
    key: "dtype"
    value {
      type: DT_FLOAT
    }
  }
  attr {
    key: "shape"
    value {
      shape {
        dim {
          size: 3
        }
        dim {
          size: 3
        }
        dim {
          size: 64
        }
        dim {
          size: 128
        }
      }
    }
  }
  attr {
    key: "shared_name"
    value {
      s: "conv2d_6/kernel"
    }
  }
}
node {
  name: "batch_normalization_66/gamma"
  op: "VarHandleOp"
  device: "/job:localhost/replica:0/task:0/device:GPU:0"
  attr {
    key: "container"
    value {
      s: ""
    }
  }
  attr {
    key: "dtype"
    value {
      type: DT_FLOAT
    }
  }
  attr {
    key: "shape"
    value {
      shape {
        dim {
          size: 128
        }
      }
    }
  }
  attr {
    key: "shared_name"
    value {
      s: "batch_normalization_66/gamma"
    }
  }
}
node {
  name: "batch_normalization_6/gamma"
  op: "VarHandleOp"
  device: "/job:localhost/replica:0/task:0/device:GPU:0"
  attr {
    key: "container"
    value {
      s: ""
    }
  }
  attr {
    key: "dtype"
    value {
      type: DT_FLOAT
    }
  }
  attr {
    key: "shape"
    value {
      shape {
        dim {
          size: 128
        }
      }
    }
  }
  attr {
    key: "shared_name"
    value {
      s: "batch_normalization_6/gamma"
    }
  }
}
node {
  name: "batch_normalization_51/moving_mean"
  op: "VarHandleOp"
  device: "/job:localhost/replica:0/task:0/device:GPU:0"
  attr {
    key: "container"
    value {
      s: ""
    }
  }
  attr {
    key: "dtype"
    value {
      type: DT_FLOAT
    }
  }
  attr {
    key: "shape"
    value {
      shape {
        dim {
          size: 1024
        }
      }
    }
  }
  attr {
    key: "shared_name"
    value {
      s: "batch_normalization_51/moving_mean"
    }
  }
}
node {
  name: "batch_normalization_6/beta"
  op: "VarHandleOp"
  device: "/job:localhost/replica:0/task:0/device:GPU:0"
  attr {
    key: "container"
    value {
      s: ""
    }
  }
  attr {
    key: "dtype"
    value {
      type: DT_FLOAT
    }
  }
  attr {
    key: "shape"
    value {
      shape {
        dim {
          size: 128
        }
      }
    }
  }
  attr {
    key: "shared_name"
    value {
      s: "batch_normalization_6/beta"
    }
  }
}
node {
  name: "batch_normalization_66/beta"
  op: "VarHandleOp"
  device: "/job:localhost/replica:0/task:0/device:GPU:0"
  attr {
    key: "container"
    value {
      s: ""
    }
  }
  attr {
    key: "dtype"
    value {
      type: DT_FLOAT
    }
  }
  attr {
    key: "shape"
    value {
      shape {
        dim {
          size: 128
        }
      }
    }
  }
  attr {
    key: "shared_name"
    value {
      s: "batch_normalization_66/beta"
    }
  }
}
node {
  name: "conv2d_7/kernel"
  op: "VarHandleOp"
  device: "/job:localhost/replica:0/task:0/device:GPU:0"
  attr {
    key: "container"
    value {
      s: ""
    }
  }
  attr {
    key: "dtype"
    value {
      type: DT_FLOAT
    }
  }
  attr {
    key: "shape"
    value {
      shape {
        dim {
          size: 1
        }
        dim {
          size: 1
        }
        dim {
          size: 128
        }
        dim {
          size: 64
        }
      }
    }
  }
  attr {
    key: "shared_name"
    value {
      s: "conv2d_7/kernel"
    }
  }
}
node {
  name: "batch_normalization_29/moving_variance"
  op: "VarHandleOp"
  device: "/job:localhost/replica:0/task:0/device:GPU:0"
  attr {
    key: "container"
    value {
      s: ""
    }
  }
  attr {
    key: "dtype"
    value {
      type: DT_FLOAT
    }
  }
  attr {
    key: "shape"
    value {
      shape {
        dim {
          size: 256
        }
      }
    }
  }
  attr {
    key: "shared_name"
    value {
      s: "batch_normalization_29/moving_variance"
    }
  }
}
node {
  name: "batch_normalization_7/gamma"
  op: "VarHandleOp"
  device: "/job:localhost/replica:0/task:0/device:GPU:0"
  attr {
    key: "container"
    value {
      s: ""
    }
  }
  attr {
    key: "dtype"
    value {
      type: DT_FLOAT
    }
  }
  attr {
    key: "shape"
    value {
      shape {
        dim {
          size: 64
        }
      }
    }
  }
  attr {
    key: "shared_name"
    value {
      s: "batch_normalization_7/gamma"
    }
  }
}
node {
  name: "conv2d_69/kernel"
  op: "VarHandleOp"
  device: "/job:localhost/replica:0/task:0/device:GPU:0"
  attr {
    key: "container"
    value {
      s: ""
    }
  }
  attr {
    key: "dtype"
    value {
      type: DT_FLOAT
    }
  }
  attr {
    key: "shape"
    value {
      shape {
        dim {
          size: 3
        }
        dim {
          size: 3
        }
        dim {
          size: 128
        }
        dim {
          size: 256
        }
      }
    }
  }
  attr {
    key: "shared_name"
    value {
      s: "conv2d_69/kernel"
    }
  }
}
node {
  name: "batch_normalization_7/beta"
  op: "VarHandleOp"
  device: "/job:localhost/replica:0/task:0/device:GPU:0"
  attr {
    key: "container"
    value {
      s: ""
    }
  }
  attr {
    key: "dtype"
    value {
      type: DT_FLOAT
    }
  }
  attr {
    key: "shape"
    value {
      shape {
        dim {
          size: 64
        }
      }
    }
  }
  attr {
    key: "shared_name"
    value {
      s: "batch_normalization_7/beta"
    }
  }
}
node {
  name: "batch_normalization_63/moving_mean"
  op: "VarHandleOp"
  device: "/job:localhost/replica:0/task:0/device:GPU:0"
  attr {
    key: "container"
    value {
      s: ""
    }
  }
  attr {
    key: "dtype"
    value {
      type: DT_FLOAT
    }
  }
  attr {
    key: "shape"
    value {
      shape {
        dim {
          size: 256
        }
      }
    }
  }
  attr {
    key: "shared_name"
    value {
      s: "batch_normalization_63/moving_mean"
    }
  }
}
node {
  name: "conv2d_8/kernel"
  op: "VarHandleOp"
  device: "/job:localhost/replica:0/task:0/device:GPU:0"
  attr {
    key: "container"
    value {
      s: ""
    }
  }
  attr {
    key: "dtype"
    value {
      type: DT_FLOAT
    }
  }
  attr {
    key: "shape"
    value {
      shape {
        dim {
          size: 3
        }
        dim {
          size: 3
        }
        dim {
          size: 64
        }
        dim {
          size: 128
        }
      }
    }
  }
  attr {
    key: "shared_name"
    value {
      s: "conv2d_8/kernel"
    }
  }
}
node {
  name: "batch_normalization_67/gamma"
  op: "VarHandleOp"
  device: "/job:localhost/replica:0/task:0/device:GPU:0"
  attr {
    key: "container"
    value {
      s: ""
    }
  }
  attr {
    key: "dtype"
    value {
      type: DT_FLOAT
    }
  }
  attr {
    key: "shape"
    value {
      shape {
        dim {
          size: 256
        }
      }
    }
  }
  attr {
    key: "shared_name"
    value {
      s: "batch_normalization_67/gamma"
    }
  }
}
node {
  name: "batch_normalization_8/gamma"
  op: "VarHandleOp"
  device: "/job:localhost/replica:0/task:0/device:GPU:0"
  attr {
    key: "container"
    value {
      s: ""
    }
  }
  attr {
    key: "dtype"
    value {
      type: DT_FLOAT
    }
  }
  attr {
    key: "shape"
    value {
      shape {
        dim {
          size: 128
        }
      }
    }
  }
  attr {
    key: "shared_name"
    value {
      s: "batch_normalization_8/gamma"
    }
  }
}
node {
  name: "batch_normalization_30/moving_mean"
  op: "VarHandleOp"
  device: "/job:localhost/replica:0/task:0/device:GPU:0"
  attr {
    key: "container"
    value {
      s: ""
    }
  }
  attr {
    key: "dtype"
    value {
      type: DT_FLOAT
    }
  }
  attr {
    key: "shape"
    value {
      shape {
        dim {
          size: 512
        }
      }
    }
  }
  attr {
    key: "shared_name"
    value {
      s: "batch_normalization_30/moving_mean"
    }
  }
}
node {
  name: "batch_normalization_8/beta"
  op: "VarHandleOp"
  device: "/job:localhost/replica:0/task:0/device:GPU:0"
  attr {
    key: "container"
    value {
      s: ""
    }
  }
  attr {
    key: "dtype"
    value {
      type: DT_FLOAT
    }
  }
  attr {
    key: "shape"
    value {
      shape {
        dim {
          size: 128
        }
      }
    }
  }
  attr {
    key: "shared_name"
    value {
      s: "batch_normalization_8/beta"
    }
  }
}
node {
  name: "batch_normalization_67/beta"
  op: "VarHandleOp"
  device: "/job:localhost/replica:0/task:0/device:GPU:0"
  attr {
    key: "container"
    value {
      s: ""
    }
  }
  attr {
    key: "dtype"
    value {
      type: DT_FLOAT
    }
  }
  attr {
    key: "shape"
    value {
      shape {
        dim {
          size: 256
        }
      }
    }
  }
  attr {
    key: "shared_name"
    value {
      s: "batch_normalization_67/beta"
    }
  }
}
node {
  name: "conv2d_9/kernel"
  op: "VarHandleOp"
  device: "/job:localhost/replica:0/task:0/device:GPU:0"
  attr {
    key: "container"
    value {
      s: ""
    }
  }
  attr {
    key: "dtype"
    value {
      type: DT_FLOAT
    }
  }
  attr {
    key: "shape"
    value {
      shape {
        dim {
          size: 3
        }
        dim {
          size: 3
        }
        dim {
          size: 128
        }
        dim {
          size: 256
        }
      }
    }
  }
  attr {
    key: "shared_name"
    value {
      s: "conv2d_9/kernel"
    }
  }
}
node {
  name: "batch_normalization_51/moving_variance"
  op: "VarHandleOp"
  device: "/job:localhost/replica:0/task:0/device:GPU:0"
  attr {
    key: "container"
    value {
      s: ""
    }
  }
  attr {
    key: "dtype"
    value {
      type: DT_FLOAT
    }
  }
  attr {
    key: "shape"
    value {
      shape {
        dim {
          size: 1024
        }
      }
    }
  }
  attr {
    key: "shared_name"
    value {
      s: "batch_normalization_51/moving_variance"
    }
  }
}
node {
  name: "batch_normalization_9/gamma"
  op: "VarHandleOp"
  device: "/job:localhost/replica:0/task:0/device:GPU:0"
  attr {
    key: "container"
    value {
      s: ""
    }
  }
  attr {
    key: "dtype"
    value {
      type: DT_FLOAT
    }
  }
  attr {
    key: "shape"
    value {
      shape {
        dim {
          size: 256
        }
      }
    }
  }
  attr {
    key: "shared_name"
    value {
      s: "batch_normalization_9/gamma"
    }
  }
}
node {
  name: "conv2d_70/kernel"
  op: "VarHandleOp"
  device: "/job:localhost/replica:0/task:0/device:GPU:0"
  attr {
    key: "container"
    value {
      s: ""
    }
  }
  attr {
    key: "dtype"
    value {
      type: DT_FLOAT
    }
  }
  attr {
    key: "shape"
    value {
      shape {
        dim {
          size: 1
        }
        dim {
          size: 1
        }
        dim {
          size: 256
        }
        dim {
          size: 128
        }
      }
    }
  }
  attr {
    key: "shared_name"
    value {
      s: "conv2d_70/kernel"
    }
  }
}
node {
  name: "batch_normalization_9/beta"
  op: "VarHandleOp"
  device: "/job:localhost/replica:0/task:0/device:GPU:0"
  attr {
    key: "container"
    value {
      s: ""
    }
  }
  attr {
    key: "dtype"
    value {
      type: DT_FLOAT
    }
  }
  attr {
    key: "shape"
    value {
      shape {
        dim {
          size: 256
        }
      }
    }
  }
  attr {
    key: "shared_name"
    value {
      s: "batch_normalization_9/beta"
    }
  }
}
node {
  name: "batch_normalization_30/moving_variance"
  op: "VarHandleOp"
  device: "/job:localhost/replica:0/task:0/device:GPU:0"
  attr {
    key: "container"
    value {
      s: ""
    }
  }
  attr {
    key: "dtype"
    value {
      type: DT_FLOAT
    }
  }
  attr {
    key: "shape"
    value {
      shape {
        dim {
          size: 512
        }
      }
    }
  }
  attr {
    key: "shared_name"
    value {
      s: "batch_normalization_30/moving_variance"
    }
  }
}
node {
  name: "conv2d_10/kernel"
  op: "VarHandleOp"
  device: "/job:localhost/replica:0/task:0/device:GPU:0"
  attr {
    key: "container"
    value {
      s: ""
    }
  }
  attr {
    key: "dtype"
    value {
      type: DT_FLOAT
    }
  }
  attr {
    key: "shape"
    value {
      shape {
        dim {
          size: 1
        }
        dim {
          size: 1
        }
        dim {
          size: 256
        }
        dim {
          size: 128
        }
      }
    }
  }
  attr {
    key: "shared_name"
    value {
      s: "conv2d_10/kernel"
    }
  }
}
node {
  name: "batch_normalization_68/gamma"
  op: "VarHandleOp"
  device: "/job:localhost/replica:0/task:0/device:GPU:0"
  attr {
    key: "container"
    value {
      s: ""
    }
  }
  attr {
    key: "dtype"
    value {
      type: DT_FLOAT
    }
  }
  attr {
    key: "shape"
    value {
      shape {
        dim {
          size: 128
        }
      }
    }
  }
  attr {
    key: "shared_name"
    value {
      s: "batch_normalization_68/gamma"
    }
  }
}
node {
  name: "batch_normalization_10/gamma"
  op: "VarHandleOp"
  device: "/job:localhost/replica:0/task:0/device:GPU:0"
  attr {
    key: "container"
    value {
      s: ""
    }
  }
  attr {
    key: "dtype"
    value {
      type: DT_FLOAT
    }
  }
  attr {
    key: "shape"
    value {
      shape {
        dim {
          size: 128
        }
      }
    }
  }
  attr {
    key: "shared_name"
    value {
      s: "batch_normalization_10/gamma"
    }
  }
}
node {
  name: "batch_normalization_69/moving_variance"
  op: "VarHandleOp"
  device: "/job:localhost/replica:0/task:0/device:GPU:0"
  attr {
    key: "container"
    value {
      s: ""
    }
  }
  attr {
    key: "dtype"
    value {
      type: DT_FLOAT
    }
  }
  attr {
    key: "shape"
    value {
      shape {
        dim {
          size: 256
        }
      }
    }
  }
  attr {
    key: "shared_name"
    value {
      s: "batch_normalization_69/moving_variance"
    }
  }
}
node {
  name: "batch_normalization_10/beta"
  op: "VarHandleOp"
  device: "/job:localhost/replica:0/task:0/device:GPU:0"
  attr {
    key: "container"
    value {
      s: ""
    }
  }
  attr {
    key: "dtype"
    value {
      type: DT_FLOAT
    }
  }
  attr {
    key: "shape"
    value {
      shape {
        dim {
          size: 128
        }
      }
    }
  }
  attr {
    key: "shared_name"
    value {
      s: "batch_normalization_10/beta"
    }
  }
}
node {
  name: "batch_normalization_68/beta"
  op: "VarHandleOp"
  device: "/job:localhost/replica:0/task:0/device:GPU:0"
  attr {
    key: "container"
    value {
      s: ""
    }
  }
  attr {
    key: "dtype"
    value {
      type: DT_FLOAT
    }
  }
  attr {
    key: "shape"
    value {
      shape {
        dim {
          size: 128
        }
      }
    }
  }
  attr {
    key: "shared_name"
    value {
      s: "batch_normalization_68/beta"
    }
  }
}
node {
  name: "conv2d_11/kernel"
  op: "VarHandleOp"
  device: "/job:localhost/replica:0/task:0/device:GPU:0"
  attr {
    key: "container"
    value {
      s: ""
    }
  }
  attr {
    key: "dtype"
    value {
      type: DT_FLOAT
    }
  }
  attr {
    key: "shape"
    value {
      shape {
        dim {
          size: 3
        }
        dim {
          size: 3
        }
        dim {
          size: 128
        }
        dim {
          size: 256
        }
      }
    }
  }
  attr {
    key: "shared_name"
    value {
      s: "conv2d_11/kernel"
    }
  }
}
node {
  name: "batch_normalization_31/moving_mean"
  op: "VarHandleOp"
  device: "/job:localhost/replica:0/task:0/device:GPU:0"
  attr {
    key: "container"
    value {
      s: ""
    }
  }
  attr {
    key: "dtype"
    value {
      type: DT_FLOAT
    }
  }
  attr {
    key: "shape"
    value {
      shape {
        dim {
          size: 256
        }
      }
    }
  }
  attr {
    key: "shared_name"
    value {
      s: "batch_normalization_31/moving_mean"
    }
  }
}
node {
  name: "batch_normalization_11/gamma"
  op: "VarHandleOp"
  device: "/job:localhost/replica:0/task:0/device:GPU:0"
  attr {
    key: "container"
    value {
      s: ""
    }
  }
  attr {
    key: "dtype"
    value {
      type: DT_FLOAT
    }
  }
  attr {
    key: "shape"
    value {
      shape {
        dim {
          size: 256
        }
      }
    }
  }
  attr {
    key: "shared_name"
    value {
      s: "batch_normalization_11/gamma"
    }
  }
}
node {
  name: "conv2d_71/kernel"
  op: "VarHandleOp"
  device: "/job:localhost/replica:0/task:0/device:GPU:0"
  attr {
    key: "container"
    value {
      s: ""
    }
  }
  attr {
    key: "dtype"
    value {
      type: DT_FLOAT
    }
  }
  attr {
    key: "shape"
    value {
      shape {
        dim {
          size: 3
        }
        dim {
          size: 3
        }
        dim {
          size: 128
        }
        dim {
          size: 256
        }
      }
    }
  }
  attr {
    key: "shared_name"
    value {
      s: "conv2d_71/kernel"
    }
  }
}
node {
  name: "batch_normalization_11/beta"
  op: "VarHandleOp"
  device: "/job:localhost/replica:0/task:0/device:GPU:0"
  attr {
    key: "container"
    value {
      s: ""
    }
  }
  attr {
    key: "dtype"
    value {
      type: DT_FLOAT
    }
  }
  attr {
    key: "shape"
    value {
      shape {
        dim {
          size: 256
        }
      }
    }
  }
  attr {
    key: "shared_name"
    value {
      s: "batch_normalization_11/beta"
    }
  }
}
node {
  name: "batch_normalization_52/moving_mean"
  op: "VarHandleOp"
  device: "/job:localhost/replica:0/task:0/device:GPU:0"
  attr {
    key: "container"
    value {
      s: ""
    }
  }
  attr {
    key: "dtype"
    value {
      type: DT_FLOAT
    }
  }
  attr {
    key: "shape"
    value {
      shape {
        dim {
          size: 512
        }
      }
    }
  }
  attr {
    key: "shared_name"
    value {
      s: "batch_normalization_52/moving_mean"
    }
  }
}
node {
  name: "conv2d_12/kernel"
  op: "VarHandleOp"
  device: "/job:localhost/replica:0/task:0/device:GPU:0"
  attr {
    key: "container"
    value {
      s: ""
    }
  }
  attr {
    key: "dtype"
    value {
      type: DT_FLOAT
    }
  }
  attr {
    key: "shape"
    value {
      shape {
        dim {
          size: 1
        }
        dim {
          size: 1
        }
        dim {
          size: 256
        }
        dim {
          size: 128
        }
      }
    }
  }
  attr {
    key: "shared_name"
    value {
      s: "conv2d_12/kernel"
    }
  }
}
node {
  name: "batch_normalization_69/gamma"
  op: "VarHandleOp"
  device: "/job:localhost/replica:0/task:0/device:GPU:0"
  attr {
    key: "container"
    value {
      s: ""
    }
  }
  attr {
    key: "dtype"
    value {
      type: DT_FLOAT
    }
  }
  attr {
    key: "shape"
    value {
      shape {
        dim {
          size: 256
        }
      }
    }
  }
  attr {
    key: "shared_name"
    value {
      s: "batch_normalization_69/gamma"
    }
  }
}
node {
  name: "batch_normalization_12/gamma"
  op: "VarHandleOp"
  device: "/job:localhost/replica:0/task:0/device:GPU:0"
  attr {
    key: "container"
    value {
      s: ""
    }
  }
  attr {
    key: "dtype"
    value {
      type: DT_FLOAT
    }
  }
  attr {
    key: "shape"
    value {
      shape {
        dim {
          size: 128
        }
      }
    }
  }
  attr {
    key: "shared_name"
    value {
      s: "batch_normalization_12/gamma"
    }
  }
}
node {
  name: "batch_normalization_31/moving_variance"
  op: "VarHandleOp"
  device: "/job:localhost/replica:0/task:0/device:GPU:0"
  attr {
    key: "container"
    value {
      s: ""
    }
  }
  attr {
    key: "dtype"
    value {
      type: DT_FLOAT
    }
  }
  attr {
    key: "shape"
    value {
      shape {
        dim {
          size: 256
        }
      }
    }
  }
  attr {
    key: "shared_name"
    value {
      s: "batch_normalization_31/moving_variance"
    }
  }
}
node {
  name: "batch_normalization_12/beta"
  op: "VarHandleOp"
  device: "/job:localhost/replica:0/task:0/device:GPU:0"
  attr {
    key: "container"
    value {
      s: ""
    }
  }
  attr {
    key: "dtype"
    value {
      type: DT_FLOAT
    }
  }
  attr {
    key: "shape"
    value {
      shape {
        dim {
          size: 128
        }
      }
    }
  }
  attr {
    key: "shared_name"
    value {
      s: "batch_normalization_12/beta"
    }
  }
}
node {
  name: "batch_normalization_69/beta"
  op: "VarHandleOp"
  device: "/job:localhost/replica:0/task:0/device:GPU:0"
  attr {
    key: "container"
    value {
      s: ""
    }
  }
  attr {
    key: "dtype"
    value {
      type: DT_FLOAT
    }
  }
  attr {
    key: "shape"
    value {
      shape {
        dim {
          size: 256
        }
      }
    }
  }
  attr {
    key: "shared_name"
    value {
      s: "batch_normalization_69/beta"
    }
  }
}
node {
  name: "conv2d_13/kernel"
  op: "VarHandleOp"
  device: "/job:localhost/replica:0/task:0/device:GPU:0"
  attr {
    key: "container"
    value {
      s: ""
    }
  }
  attr {
    key: "dtype"
    value {
      type: DT_FLOAT
    }
  }
  attr {
    key: "shape"
    value {
      shape {
        dim {
          size: 3
        }
        dim {
          size: 3
        }
        dim {
          size: 128
        }
        dim {
          size: 256
        }
      }
    }
  }
  attr {
    key: "shared_name"
    value {
      s: "conv2d_13/kernel"
    }
  }
}
node {
  name: "batch_normalization_63/moving_variance"
  op: "VarHandleOp"
  device: "/job:localhost/replica:0/task:0/device:GPU:0"
  attr {
    key: "container"
    value {
      s: ""
    }
  }
  attr {
    key: "dtype"
    value {
      type: DT_FLOAT
    }
  }
  attr {
    key: "shape"
    value {
      shape {
        dim {
          size: 256
        }
      }
    }
  }
  attr {
    key: "shared_name"
    value {
      s: "batch_normalization_63/moving_variance"
    }
  }
}
node {
  name: "batch_normalization_13/gamma"
  op: "VarHandleOp"
  device: "/job:localhost/replica:0/task:0/device:GPU:0"
  attr {
    key: "container"
    value {
      s: ""
    }
  }
  attr {
    key: "dtype"
    value {
      type: DT_FLOAT
    }
  }
  attr {
    key: "shape"
    value {
      shape {
        dim {
          size: 256
        }
      }
    }
  }
  attr {
    key: "shared_name"
    value {
      s: "batch_normalization_13/gamma"
    }
  }
}
node {
  name: "conv2d_72/kernel"
  op: "VarHandleOp"
  device: "/job:localhost/replica:0/task:0/device:GPU:0"
  attr {
    key: "container"
    value {
      s: ""
    }
  }
  attr {
    key: "dtype"
    value {
      type: DT_FLOAT
    }
  }
  attr {
    key: "shape"
    value {
      shape {
        dim {
          size: 1
        }
        dim {
          size: 1
        }
        dim {
          size: 256
        }
        dim {
          size: 128
        }
      }
    }
  }
  attr {
    key: "shared_name"
    value {
      s: "conv2d_72/kernel"
    }
  }
}
node {
  name: "batch_normalization_13/beta"
  op: "VarHandleOp"
  device: "/job:localhost/replica:0/task:0/device:GPU:0"
  attr {
    key: "container"
    value {
      s: ""
    }
  }
  attr {
    key: "dtype"
    value {
      type: DT_FLOAT
    }
  }
  attr {
    key: "shape"
    value {
      shape {
        dim {
          size: 256
        }
      }
    }
  }
  attr {
    key: "shared_name"
    value {
      s: "batch_normalization_13/beta"
    }
  }
}
node {
  name: "batch_normalization_32/moving_mean"
  op: "VarHandleOp"
  device: "/job:localhost/replica:0/task:0/device:GPU:0"
  attr {
    key: "container"
    value {
      s: ""
    }
  }
  attr {
    key: "dtype"
    value {
      type: DT_FLOAT
    }
  }
  attr {
    key: "shape"
    value {
      shape {
        dim {
          size: 512
        }
      }
    }
  }
  attr {
    key: "shared_name"
    value {
      s: "batch_normalization_32/moving_mean"
    }
  }
}
node {
  name: "conv2d_14/kernel"
  op: "VarHandleOp"
  device: "/job:localhost/replica:0/task:0/device:GPU:0"
  attr {
    key: "container"
    value {
      s: ""
    }
  }
  attr {
    key: "dtype"
    value {
      type: DT_FLOAT
    }
  }
  attr {
    key: "shape"
    value {
      shape {
        dim {
          size: 1
        }
        dim {
          size: 1
        }
        dim {
          size: 256
        }
        dim {
          size: 128
        }
      }
    }
  }
  attr {
    key: "shared_name"
    value {
      s: "conv2d_14/kernel"
    }
  }
}
node {
  name: "batch_normalization_70/gamma"
  op: "VarHandleOp"
  device: "/job:localhost/replica:0/task:0/device:GPU:0"
  attr {
    key: "container"
    value {
      s: ""
    }
  }
  attr {
    key: "dtype"
    value {
      type: DT_FLOAT
    }
  }
  attr {
    key: "shape"
    value {
      shape {
        dim {
          size: 128
        }
      }
    }
  }
  attr {
    key: "shared_name"
    value {
      s: "batch_normalization_70/gamma"
    }
  }
}
node {
  name: "batch_normalization_14/gamma"
  op: "VarHandleOp"
  device: "/job:localhost/replica:0/task:0/device:GPU:0"
  attr {
    key: "container"
    value {
      s: ""
    }
  }
  attr {
    key: "dtype"
    value {
      type: DT_FLOAT
    }
  }
  attr {
    key: "shape"
    value {
      shape {
        dim {
          size: 128
        }
      }
    }
  }
  attr {
    key: "shared_name"
    value {
      s: "batch_normalization_14/gamma"
    }
  }
}
node {
  name: "batch_normalization_52/moving_variance"
  op: "VarHandleOp"
  device: "/job:localhost/replica:0/task:0/device:GPU:0"
  attr {
    key: "container"
    value {
      s: ""
    }
  }
  attr {
    key: "dtype"
    value {
      type: DT_FLOAT
    }
  }
  attr {
    key: "shape"
    value {
      shape {
        dim {
          size: 512
        }
      }
    }
  }
  attr {
    key: "shared_name"
    value {
      s: "batch_normalization_52/moving_variance"
    }
  }
}
node {
  name: "batch_normalization_14/beta"
  op: "VarHandleOp"
  device: "/job:localhost/replica:0/task:0/device:GPU:0"
  attr {
    key: "container"
    value {
      s: ""
    }
  }
  attr {
    key: "dtype"
    value {
      type: DT_FLOAT
    }
  }
  attr {
    key: "shape"
    value {
      shape {
        dim {
          size: 128
        }
      }
    }
  }
  attr {
    key: "shared_name"
    value {
      s: "batch_normalization_14/beta"
    }
  }
}
node {
  name: "batch_normalization_70/beta"
  op: "VarHandleOp"
  device: "/job:localhost/replica:0/task:0/device:GPU:0"
  attr {
    key: "container"
    value {
      s: ""
    }
  }
  attr {
    key: "dtype"
    value {
      type: DT_FLOAT
    }
  }
  attr {
    key: "shape"
    value {
      shape {
        dim {
          size: 128
        }
      }
    }
  }
  attr {
    key: "shared_name"
    value {
      s: "batch_normalization_70/beta"
    }
  }
}
node {
  name: "conv2d_15/kernel"
  op: "VarHandleOp"
  device: "/job:localhost/replica:0/task:0/device:GPU:0"
  attr {
    key: "container"
    value {
      s: ""
    }
  }
  attr {
    key: "dtype"
    value {
      type: DT_FLOAT
    }
  }
  attr {
    key: "shape"
    value {
      shape {
        dim {
          size: 3
        }
        dim {
          size: 3
        }
        dim {
          size: 128
        }
        dim {
          size: 256
        }
      }
    }
  }
  attr {
    key: "shared_name"
    value {
      s: "conv2d_15/kernel"
    }
  }
}
node {
  name: "batch_normalization_32/moving_variance"
  op: "VarHandleOp"
  device: "/job:localhost/replica:0/task:0/device:GPU:0"
  attr {
    key: "container"
    value {
      s: ""
    }
  }
  attr {
    key: "dtype"
    value {
      type: DT_FLOAT
    }
  }
  attr {
    key: "shape"
    value {
      shape {
        dim {
          size: 512
        }
      }
    }
  }
  attr {
    key: "shared_name"
    value {
      s: "batch_normalization_32/moving_variance"
    }
  }
}
node {
  name: "batch_normalization_15/gamma"
  op: "VarHandleOp"
  device: "/job:localhost/replica:0/task:0/device:GPU:0"
  attr {
    key: "container"
    value {
      s: ""
    }
  }
  attr {
    key: "dtype"
    value {
      type: DT_FLOAT
    }
  }
  attr {
    key: "shape"
    value {
      shape {
        dim {
          size: 256
        }
      }
    }
  }
  attr {
    key: "shared_name"
    value {
      s: "batch_normalization_15/gamma"
    }
  }
}
node {
  name: "conv2d_57/kernel"
  op: "VarHandleOp"
  device: "/job:localhost/replica:0/task:0/device:GPU:0"
  attr {
    key: "container"
    value {
      s: ""
    }
  }
  attr {
    key: "dtype"
    value {
      type: DT_FLOAT
    }
  }
  attr {
    key: "shape"
    value {
      shape {
        dim {
          size: 3
        }
        dim {
          size: 3
        }
        dim {
          size: 512
        }
        dim {
          size: 1024
        }
      }
    }
  }
  attr {
    key: "shared_name"
    value {
      s: "conv2d_57/kernel"
    }
  }
}
node {
  name: "batch_normalization_15/beta"
  op: "VarHandleOp"
  device: "/job:localhost/replica:0/task:0/device:GPU:0"
  attr {
    key: "container"
    value {
      s: ""
    }
  }
  attr {
    key: "dtype"
    value {
      type: DT_FLOAT
    }
  }
  attr {
    key: "shape"
    value {
      shape {
        dim {
          size: 256
        }
      }
    }
  }
  attr {
    key: "shared_name"
    value {
      s: "batch_normalization_15/beta"
    }
  }
}
node {
  name: "batch_normalization_71/moving_variance"
  op: "VarHandleOp"
  device: "/job:localhost/replica:0/task:0/device:GPU:0"
  attr {
    key: "container"
    value {
      s: ""
    }
  }
  attr {
    key: "dtype"
    value {
      type: DT_FLOAT
    }
  }
  attr {
    key: "shape"
    value {
      shape {
        dim {
          size: 256
        }
      }
    }
  }
  attr {
    key: "shared_name"
    value {
      s: "batch_normalization_71/moving_variance"
    }
  }
}
node {
  name: "conv2d_16/kernel"
  op: "VarHandleOp"
  device: "/job:localhost/replica:0/task:0/device:GPU:0"
  attr {
    key: "container"
    value {
      s: ""
    }
  }
  attr {
    key: "dtype"
    value {
      type: DT_FLOAT
    }
  }
  attr {
    key: "shape"
    value {
      shape {
        dim {
          size: 1
        }
        dim {
          size: 1
        }
        dim {
          size: 256
        }
        dim {
          size: 128
        }
      }
    }
  }
  attr {
    key: "shared_name"
    value {
      s: "conv2d_16/kernel"
    }
  }
}
node {
  name: "batch_normalization_57/gamma"
  op: "VarHandleOp"
  device: "/job:localhost/replica:0/task:0/device:GPU:0"
  attr {
    key: "container"
    value {
      s: ""
    }
  }
  attr {
    key: "dtype"
    value {
      type: DT_FLOAT
    }
  }
  attr {
    key: "shape"
    value {
      shape {
        dim {
          size: 1024
        }
      }
    }
  }
  attr {
    key: "shared_name"
    value {
      s: "batch_normalization_57/gamma"
    }
  }
}
node {
  name: "batch_normalization_16/gamma"
  op: "VarHandleOp"
  device: "/job:localhost/replica:0/task:0/device:GPU:0"
  attr {
    key: "container"
    value {
      s: ""
    }
  }
  attr {
    key: "dtype"
    value {
      type: DT_FLOAT
    }
  }
  attr {
    key: "shape"
    value {
      shape {
        dim {
          size: 128
        }
      }
    }
  }
  attr {
    key: "shared_name"
    value {
      s: "batch_normalization_16/gamma"
    }
  }
}
node {
  name: "batch_normalization_33/moving_mean"
  op: "VarHandleOp"
  device: "/job:localhost/replica:0/task:0/device:GPU:0"
  attr {
    key: "container"
    value {
      s: ""
    }
  }
  attr {
    key: "dtype"
    value {
      type: DT_FLOAT
    }
  }
  attr {
    key: "shape"
    value {
      shape {
        dim {
          size: 256
        }
      }
    }
  }
  attr {
    key: "shared_name"
    value {
      s: "batch_normalization_33/moving_mean"
    }
  }
}
node {
  name: "batch_normalization_16/beta"
  op: "VarHandleOp"
  device: "/job:localhost/replica:0/task:0/device:GPU:0"
  attr {
    key: "container"
    value {
      s: ""
    }
  }
  attr {
    key: "dtype"
    value {
      type: DT_FLOAT
    }
  }
  attr {
    key: "shape"
    value {
      shape {
        dim {
          size: 128
        }
      }
    }
  }
  attr {
    key: "shared_name"
    value {
      s: "batch_normalization_16/beta"
    }
  }
}
node {
  name: "batch_normalization_57/beta"
  op: "VarHandleOp"
  device: "/job:localhost/replica:0/task:0/device:GPU:0"
  attr {
    key: "container"
    value {
      s: ""
    }
  }
  attr {
    key: "dtype"
    value {
      type: DT_FLOAT
    }
  }
  attr {
    key: "shape"
    value {
      shape {
        dim {
          size: 1024
        }
      }
    }
  }
  attr {
    key: "shared_name"
    value {
      s: "batch_normalization_57/beta"
    }
  }
}
node {
  name: "conv2d_17/kernel"
  op: "VarHandleOp"
  device: "/job:localhost/replica:0/task:0/device:GPU:0"
  attr {
    key: "container"
    value {
      s: ""
    }
  }
  attr {
    key: "dtype"
    value {
      type: DT_FLOAT
    }
  }
  attr {
    key: "shape"
    value {
      shape {
        dim {
          size: 3
        }
        dim {
          size: 3
        }
        dim {
          size: 128
        }
        dim {
          size: 256
        }
      }
    }
  }
  attr {
    key: "shared_name"
    value {
      s: "conv2d_17/kernel"
    }
  }
}
node {
  name: "batch_normalization_53/moving_mean"
  op: "VarHandleOp"
  device: "/job:localhost/replica:0/task:0/device:GPU:0"
  attr {
    key: "container"
    value {
      s: ""
    }
  }
  attr {
    key: "dtype"
    value {
      type: DT_FLOAT
    }
  }
  attr {
    key: "shape"
    value {
      shape {
        dim {
          size: 1024
        }
      }
    }
  }
  attr {
    key: "shared_name"
    value {
      s: "batch_normalization_53/moving_mean"
    }
  }
}
node {
  name: "batch_normalization_17/gamma"
  op: "VarHandleOp"
  device: "/job:localhost/replica:0/task:0/device:GPU:0"
  attr {
    key: "container"
    value {
      s: ""
    }
  }
  attr {
    key: "dtype"
    value {
      type: DT_FLOAT
    }
  }
  attr {
    key: "shape"
    value {
      shape {
        dim {
          size: 256
        }
      }
    }
  }
  attr {
    key: "shared_name"
    value {
      s: "batch_normalization_17/gamma"
    }
  }
}
node {
  name: "conv2d_58/kernel"
  op: "VarHandleOp"
  device: "/job:localhost/replica:0/task:0/device:GPU:0"
  attr {
    key: "container"
    value {
      s: ""
    }
  }
  attr {
    key: "dtype"
    value {
      type: DT_FLOAT
    }
  }
  attr {
    key: "shape"
    value {
      shape {
        dim {
          size: 1
        }
        dim {
          size: 1
        }
        dim {
          size: 1024
        }
        dim {
          size: 255
        }
      }
    }
  }
  attr {
    key: "shared_name"
    value {
      s: "conv2d_58/kernel"
    }
  }
}
node {
  name: "batch_normalization_17/beta"
  op: "VarHandleOp"
  device: "/job:localhost/replica:0/task:0/device:GPU:0"
  attr {
    key: "container"
    value {
      s: ""
    }
  }
  attr {
    key: "dtype"
    value {
      type: DT_FLOAT
    }
  }
  attr {
    key: "shape"
    value {
      shape {
        dim {
          size: 256
        }
      }
    }
  }
  attr {
    key: "shared_name"
    value {
      s: "batch_normalization_17/beta"
    }
  }
}
node {
  name: "batch_normalization_33/moving_variance"
  op: "VarHandleOp"
  device: "/job:localhost/replica:0/task:0/device:GPU:0"
  attr {
    key: "container"
    value {
      s: ""
    }
  }
  attr {
    key: "dtype"
    value {
      type: DT_FLOAT
    }
  }
  attr {
    key: "shape"
    value {
      shape {
        dim {
          size: 256
        }
      }
    }
  }
  attr {
    key: "shared_name"
    value {
      s: "batch_normalization_33/moving_variance"
    }
  }
}
node {
  name: "conv2d_18/kernel"
  op: "VarHandleOp"
  device: "/job:localhost/replica:0/task:0/device:GPU:0"
  attr {
    key: "container"
    value {
      s: ""
    }
  }
  attr {
    key: "dtype"
    value {
      type: DT_FLOAT
    }
  }
  attr {
    key: "shape"
    value {
      shape {
        dim {
          size: 1
        }
        dim {
          size: 1
        }
        dim {
          size: 256
        }
        dim {
          size: 128
        }
      }
    }
  }
  attr {
    key: "shared_name"
    value {
      s: "conv2d_18/kernel"
    }
  }
}
node {
  name: "conv2d_58/bias"
  op: "VarHandleOp"
  device: "/job:localhost/replica:0/task:0/device:GPU:0"
  attr {
    key: "container"
    value {
      s: ""
    }
  }
  attr {
    key: "dtype"
    value {
      type: DT_FLOAT
    }
  }
  attr {
    key: "shape"
    value {
      shape {
        dim {
          size: 255
        }
      }
    }
  }
  attr {
    key: "shared_name"
    value {
      s: "conv2d_58/bias"
    }
  }
}
node {
  name: "batch_normalization_18/gamma"
  op: "VarHandleOp"
  device: "/job:localhost/replica:0/task:0/device:GPU:0"
  attr {
    key: "container"
    value {
      s: ""
    }
  }
  attr {
    key: "dtype"
    value {
      type: DT_FLOAT
    }
  }
  attr {
    key: "shape"
    value {
      shape {
        dim {
          size: 128
        }
      }
    }
  }
  attr {
    key: "shared_name"
    value {
      s: "batch_normalization_18/gamma"
    }
  }
}
node {
  name: "batch_normalization_65/moving_mean"
  op: "VarHandleOp"
  device: "/job:localhost/replica:0/task:0/device:GPU:0"
  attr {
    key: "container"
    value {
      s: ""
    }
  }
  attr {
    key: "dtype"
    value {
      type: DT_FLOAT
    }
  }
  attr {
    key: "shape"
    value {
      shape {
        dim {
          size: 128
        }
      }
    }
  }
  attr {
    key: "shared_name"
    value {
      s: "batch_normalization_65/moving_mean"
    }
  }
}
node {
  name: "batch_normalization_18/beta"
  op: "VarHandleOp"
  device: "/job:localhost/replica:0/task:0/device:GPU:0"
  attr {
    key: "container"
    value {
      s: ""
    }
  }
  attr {
    key: "dtype"
    value {
      type: DT_FLOAT
    }
  }
  attr {
    key: "shape"
    value {
      shape {
        dim {
          size: 128
        }
      }
    }
  }
  attr {
    key: "shared_name"
    value {
      s: "batch_normalization_18/beta"
    }
  }
}
node {
  name: "conv2d_65/kernel"
  op: "VarHandleOp"
  device: "/job:localhost/replica:0/task:0/device:GPU:0"
  attr {
    key: "container"
    value {
      s: ""
    }
  }
  attr {
    key: "dtype"
    value {
      type: DT_FLOAT
    }
  }
  attr {
    key: "shape"
    value {
      shape {
        dim {
          size: 3
        }
        dim {
          size: 3
        }
        dim {
          size: 256
        }
        dim {
          size: 512
        }
      }
    }
  }
  attr {
    key: "shared_name"
    value {
      s: "conv2d_65/kernel"
    }
  }
}
node {
  name: "conv2d_19/kernel"
  op: "VarHandleOp"
  device: "/job:localhost/replica:0/task:0/device:GPU:0"
  attr {
    key: "container"
    value {
      s: ""
    }
  }
  attr {
    key: "dtype"
    value {
      type: DT_FLOAT
    }
  }
  attr {
    key: "shape"
    value {
      shape {
        dim {
          size: 3
        }
        dim {
          size: 3
        }
        dim {
          size: 128
        }
        dim {
          size: 256
        }
      }
    }
  }
  attr {
    key: "shared_name"
    value {
      s: "conv2d_19/kernel"
    }
  }
}
node {
  name: "batch_normalization_34/moving_mean"
  op: "VarHandleOp"
  device: "/job:localhost/replica:0/task:0/device:GPU:0"
  attr {
    key: "container"
    value {
      s: ""
    }
  }
  attr {
    key: "dtype"
    value {
      type: DT_FLOAT
    }
  }
  attr {
    key: "shape"
    value {
      shape {
        dim {
          size: 512
        }
      }
    }
  }
  attr {
    key: "shared_name"
    value {
      s: "batch_normalization_34/moving_mean"
    }
  }
}
node {
  name: "batch_normalization_19/gamma"
  op: "VarHandleOp"
  device: "/job:localhost/replica:0/task:0/device:GPU:0"
  attr {
    key: "container"
    value {
      s: ""
    }
  }
  attr {
    key: "dtype"
    value {
      type: DT_FLOAT
    }
  }
  attr {
    key: "shape"
    value {
      shape {
        dim {
          size: 256
        }
      }
    }
  }
  attr {
    key: "shared_name"
    value {
      s: "batch_normalization_19/gamma"
    }
  }
}
node {
  name: "batch_normalization_64/gamma"
  op: "VarHandleOp"
  device: "/job:localhost/replica:0/task:0/device:GPU:0"
  attr {
    key: "container"
    value {
      s: ""
    }
  }
  attr {
    key: "dtype"
    value {
      type: DT_FLOAT
    }
  }
  attr {
    key: "shape"
    value {
      shape {
        dim {
          size: 512
        }
      }
    }
  }
  attr {
    key: "shared_name"
    value {
      s: "batch_normalization_64/gamma"
    }
  }
}
node {
  name: "batch_normalization_19/beta"
  op: "VarHandleOp"
  device: "/job:localhost/replica:0/task:0/device:GPU:0"
  attr {
    key: "container"
    value {
      s: ""
    }
  }
  attr {
    key: "dtype"
    value {
      type: DT_FLOAT
    }
  }
  attr {
    key: "shape"
    value {
      shape {
        dim {
          size: 256
        }
      }
    }
  }
  attr {
    key: "shared_name"
    value {
      s: "batch_normalization_19/beta"
    }
  }
}
node {
  name: "batch_normalization_53/moving_variance"
  op: "VarHandleOp"
  device: "/job:localhost/replica:0/task:0/device:GPU:0"
  attr {
    key: "container"
    value {
      s: ""
    }
  }
  attr {
    key: "dtype"
    value {
      type: DT_FLOAT
    }
  }
  attr {
    key: "shape"
    value {
      shape {
        dim {
          size: 1024
        }
      }
    }
  }
  attr {
    key: "shared_name"
    value {
      s: "batch_normalization_53/moving_variance"
    }
  }
}
node {
  name: "conv2d_20/kernel"
  op: "VarHandleOp"
  device: "/job:localhost/replica:0/task:0/device:GPU:0"
  attr {
    key: "container"
    value {
      s: ""
    }
  }
  attr {
    key: "dtype"
    value {
      type: DT_FLOAT
    }
  }
  attr {
    key: "shape"
    value {
      shape {
        dim {
          size: 1
        }
        dim {
          size: 1
        }
        dim {
          size: 256
        }
        dim {
          size: 128
        }
      }
    }
  }
  attr {
    key: "shared_name"
    value {
      s: "conv2d_20/kernel"
    }
  }
}
node {
  name: "batch_normalization_64/beta"
  op: "VarHandleOp"
  device: "/job:localhost/replica:0/task:0/device:GPU:0"
  attr {
    key: "container"
    value {
      s: ""
    }
  }
  attr {
    key: "dtype"
    value {
      type: DT_FLOAT
    }
  }
  attr {
    key: "shape"
    value {
      shape {
        dim {
          size: 512
        }
      }
    }
  }
  attr {
    key: "shared_name"
    value {
      s: "batch_normalization_64/beta"
    }
  }
}
node {
  name: "batch_normalization_20/gamma"
  op: "VarHandleOp"
  device: "/job:localhost/replica:0/task:0/device:GPU:0"
  attr {
    key: "container"
    value {
      s: ""
    }
  }
  attr {
    key: "dtype"
    value {
      type: DT_FLOAT
    }
  }
  attr {
    key: "shape"
    value {
      shape {
        dim {
          size: 128
        }
      }
    }
  }
  attr {
    key: "shared_name"
    value {
      s: "batch_normalization_20/gamma"
    }
  }
}
node {
  name: "batch_normalization_34/moving_variance"
  op: "VarHandleOp"
  device: "/job:localhost/replica:0/task:0/device:GPU:0"
  attr {
    key: "container"
    value {
      s: ""
    }
  }
  attr {
    key: "dtype"
    value {
      type: DT_FLOAT
    }
  }
  attr {
    key: "shape"
    value {
      shape {
        dim {
          size: 512
        }
      }
    }
  }
  attr {
    key: "shared_name"
    value {
      s: "batch_normalization_34/moving_variance"
    }
  }
}
node {
  name: "batch_normalization_20/beta"
  op: "VarHandleOp"
  device: "/job:localhost/replica:0/task:0/device:GPU:0"
  attr {
    key: "container"
    value {
      s: ""
    }
  }
  attr {
    key: "dtype"
    value {
      type: DT_FLOAT
    }
  }
  attr {
    key: "shape"
    value {
      shape {
        dim {
          size: 128
        }
      }
    }
  }
  attr {
    key: "shared_name"
    value {
      s: "batch_normalization_20/beta"
    }
  }
}
node {
  name: "conv2d_66/kernel"
  op: "VarHandleOp"
  device: "/job:localhost/replica:0/task:0/device:GPU:0"
  attr {
    key: "container"
    value {
      s: ""
    }
  }
  attr {
    key: "dtype"
    value {
      type: DT_FLOAT
    }
  }
  attr {
    key: "shape"
    value {
      shape {
        dim {
          size: 1
        }
        dim {
          size: 1
        }
        dim {
          size: 512
        }
        dim {
          size: 255
        }
      }
    }
  }
  attr {
    key: "shared_name"
    value {
      s: "conv2d_66/kernel"
    }
  }
}
node {
  name: "conv2d_21/kernel"
  op: "VarHandleOp"
  device: "/job:localhost/replica:0/task:0/device:GPU:0"
  attr {
    key: "container"
    value {
      s: ""
    }
  }
  attr {
    key: "dtype"
    value {
      type: DT_FLOAT
    }
  }
  attr {
    key: "shape"
    value {
      shape {
        dim {
          size: 3
        }
        dim {
          size: 3
        }
        dim {
          size: 128
        }
        dim {
          size: 256
        }
      }
    }
  }
  attr {
    key: "shared_name"
    value {
      s: "conv2d_21/kernel"
    }
  }
}
node {
  name: "batch_normalization_70/moving_mean"
  op: "VarHandleOp"
  device: "/job:localhost/replica:0/task:0/device:GPU:0"
  attr {
    key: "container"
    value {
      s: ""
    }
  }
  attr {
    key: "dtype"
    value {
      type: DT_FLOAT
    }
  }
  attr {
    key: "shape"
    value {
      shape {
        dim {
          size: 128
        }
      }
    }
  }
  attr {
    key: "shared_name"
    value {
      s: "batch_normalization_70/moving_mean"
    }
  }
}
node {
  name: "batch_normalization_21/gamma"
  op: "VarHandleOp"
  device: "/job:localhost/replica:0/task:0/device:GPU:0"
  attr {
    key: "container"
    value {
      s: ""
    }
  }
  attr {
    key: "dtype"
    value {
      type: DT_FLOAT
    }
  }
  attr {
    key: "shape"
    value {
      shape {
        dim {
          size: 256
        }
      }
    }
  }
  attr {
    key: "shared_name"
    value {
      s: "batch_normalization_21/gamma"
    }
  }
}
node {
  name: "conv2d_66/bias"
  op: "VarHandleOp"
  device: "/job:localhost/replica:0/task:0/device:GPU:0"
  attr {
    key: "container"
    value {
      s: ""
    }
  }
  attr {
    key: "dtype"
    value {
      type: DT_FLOAT
    }
  }
  attr {
    key: "shape"
    value {
      shape {
        dim {
          size: 255
        }
      }
    }
  }
  attr {
    key: "shared_name"
    value {
      s: "conv2d_66/bias"
    }
  }
}
node {
  name: "batch_normalization_21/beta"
  op: "VarHandleOp"
  device: "/job:localhost/replica:0/task:0/device:GPU:0"
  attr {
    key: "container"
    value {
      s: ""
    }
  }
  attr {
    key: "dtype"
    value {
      type: DT_FLOAT
    }
  }
  attr {
    key: "shape"
    value {
      shape {
        dim {
          size: 256
        }
      }
    }
  }
  attr {
    key: "shared_name"
    value {
      s: "batch_normalization_21/beta"
    }
  }
}
node {
  name: "batch_normalization_35/moving_mean"
  op: "VarHandleOp"
  device: "/job:localhost/replica:0/task:0/device:GPU:0"
  attr {
    key: "container"
    value {
      s: ""
    }
  }
  attr {
    key: "dtype"
    value {
      type: DT_FLOAT
    }
  }
  attr {
    key: "shape"
    value {
      shape {
        dim {
          size: 256
        }
      }
    }
  }
  attr {
    key: "shared_name"
    value {
      s: "batch_normalization_35/moving_mean"
    }
  }
}
node {
  name: "conv2d_22/kernel"
  op: "VarHandleOp"
  device: "/job:localhost/replica:0/task:0/device:GPU:0"
  attr {
    key: "container"
    value {
      s: ""
    }
  }
  attr {
    key: "dtype"
    value {
      type: DT_FLOAT
    }
  }
  attr {
    key: "shape"
    value {
      shape {
        dim {
          size: 1
        }
        dim {
          size: 1
        }
        dim {
          size: 256
        }
        dim {
          size: 128
        }
      }
    }
  }
  attr {
    key: "shared_name"
    value {
      s: "conv2d_22/kernel"
    }
  }
}
node {
  name: "conv2d_73/kernel"
  op: "VarHandleOp"
  device: "/job:localhost/replica:0/task:0/device:GPU:0"
  attr {
    key: "container"
    value {
      s: ""
    }
  }
  attr {
    key: "dtype"
    value {
      type: DT_FLOAT
    }
  }
  attr {
    key: "shape"
    value {
      shape {
        dim {
          size: 3
        }
        dim {
          size: 3
        }
        dim {
          size: 128
        }
        dim {
          size: 256
        }
      }
    }
  }
  attr {
    key: "shared_name"
    value {
      s: "conv2d_73/kernel"
    }
  }
}
node {
  name: "batch_normalization_22/gamma"
  op: "VarHandleOp"
  device: "/job:localhost/replica:0/task:0/device:GPU:0"
  attr {
    key: "container"
    value {
      s: ""
    }
  }
  attr {
    key: "dtype"
    value {
      type: DT_FLOAT
    }
  }
  attr {
    key: "shape"
    value {
      shape {
        dim {
          size: 128
        }
      }
    }
  }
  attr {
    key: "shared_name"
    value {
      s: "batch_normalization_22/gamma"
    }
  }
}
node {
  name: "batch_normalization_54/moving_mean"
  op: "VarHandleOp"
  device: "/job:localhost/replica:0/task:0/device:GPU:0"
  attr {
    key: "container"
    value {
      s: ""
    }
  }
  attr {
    key: "dtype"
    value {
      type: DT_FLOAT
    }
  }
  attr {
    key: "shape"
    value {
      shape {
        dim {
          size: 512
        }
      }
    }
  }
  attr {
    key: "shared_name"
    value {
      s: "batch_normalization_54/moving_mean"
    }
  }
}
node {
  name: "batch_normalization_22/beta"
  op: "VarHandleOp"
  device: "/job:localhost/replica:0/task:0/device:GPU:0"
  attr {
    key: "container"
    value {
      s: ""
    }
  }
  attr {
    key: "dtype"
    value {
      type: DT_FLOAT
    }
  }
  attr {
    key: "shape"
    value {
      shape {
        dim {
          size: 128
        }
      }
    }
  }
  attr {
    key: "shared_name"
    value {
      s: "batch_normalization_22/beta"
    }
  }
}
node {
  name: "batch_normalization_71/gamma"
  op: "VarHandleOp"
  device: "/job:localhost/replica:0/task:0/device:GPU:0"
  attr {
    key: "container"
    value {
      s: ""
    }
  }
  attr {
    key: "dtype"
    value {
      type: DT_FLOAT
    }
  }
  attr {
    key: "shape"
    value {
      shape {
        dim {
          size: 256
        }
      }
    }
  }
  attr {
    key: "shared_name"
    value {
      s: "batch_normalization_71/gamma"
    }
  }
}
node {
  name: "conv2d_23/kernel"
  op: "VarHandleOp"
  device: "/job:localhost/replica:0/task:0/device:GPU:0"
  attr {
    key: "container"
    value {
      s: ""
    }
  }
  attr {
    key: "dtype"
    value {
      type: DT_FLOAT
    }
  }
  attr {
    key: "shape"
    value {
      shape {
        dim {
          size: 3
        }
        dim {
          size: 3
        }
        dim {
          size: 128
        }
        dim {
          size: 256
        }
      }
    }
  }
  attr {
    key: "shared_name"
    value {
      s: "conv2d_23/kernel"
    }
  }
}
node {
  name: "batch_normalization_35/moving_variance"
  op: "VarHandleOp"
  device: "/job:localhost/replica:0/task:0/device:GPU:0"
  attr {
    key: "container"
    value {
      s: ""
    }
  }
  attr {
    key: "dtype"
    value {
      type: DT_FLOAT
    }
  }
  attr {
    key: "shape"
    value {
      shape {
        dim {
          size: 256
        }
      }
    }
  }
  attr {
    key: "shared_name"
    value {
      s: "batch_normalization_35/moving_variance"
    }
  }
}
node {
  name: "batch_normalization_23/gamma"
  op: "VarHandleOp"
  device: "/job:localhost/replica:0/task:0/device:GPU:0"
  attr {
    key: "container"
    value {
      s: ""
    }
  }
  attr {
    key: "dtype"
    value {
      type: DT_FLOAT
    }
  }
  attr {
    key: "shape"
    value {
      shape {
        dim {
          size: 256
        }
      }
    }
  }
  attr {
    key: "shared_name"
    value {
      s: "batch_normalization_23/gamma"
    }
  }
}
node {
  name: "batch_normalization_71/beta"
  op: "VarHandleOp"
  device: "/job:localhost/replica:0/task:0/device:GPU:0"
  attr {
    key: "container"
    value {
      s: ""
    }
  }
  attr {
    key: "dtype"
    value {
      type: DT_FLOAT
    }
  }
  attr {
    key: "shape"
    value {
      shape {
        dim {
          size: 256
        }
      }
    }
  }
  attr {
    key: "shared_name"
    value {
      s: "batch_normalization_71/beta"
    }
  }
}
node {
  name: "batch_normalization_23/beta"
  op: "VarHandleOp"
  device: "/job:localhost/replica:0/task:0/device:GPU:0"
  attr {
    key: "container"
    value {
      s: ""
    }
  }
  attr {
    key: "dtype"
    value {
      type: DT_FLOAT
    }
  }
  attr {
    key: "shape"
    value {
      shape {
        dim {
          size: 256
        }
      }
    }
  }
  attr {
    key: "shared_name"
    value {
      s: "batch_normalization_23/beta"
    }
  }
}
node {
  name: "batch_normalization_65/moving_variance"
  op: "VarHandleOp"
  device: "/job:localhost/replica:0/task:0/device:GPU:0"
  attr {
    key: "container"
    value {
      s: ""
    }
  }
  attr {
    key: "dtype"
    value {
      type: DT_FLOAT
    }
  }
  attr {
    key: "shape"
    value {
      shape {
        dim {
          size: 128
        }
      }
    }
  }
  attr {
    key: "shared_name"
    value {
      s: "batch_normalization_65/moving_variance"
    }
  }
}
node {
  name: "conv2d_24/kernel"
  op: "VarHandleOp"
  device: "/job:localhost/replica:0/task:0/device:GPU:0"
  attr {
    key: "container"
    value {
      s: ""
    }
  }
  attr {
    key: "dtype"
    value {
      type: DT_FLOAT
    }
  }
  attr {
    key: "shape"
    value {
      shape {
        dim {
          size: 1
        }
        dim {
          size: 1
        }
        dim {
          size: 256
        }
        dim {
          size: 128
        }
      }
    }
  }
  attr {
    key: "shared_name"
    value {
      s: "conv2d_24/kernel"
    }
  }
}
node {
  name: "conv2d_74/kernel"
  op: "VarHandleOp"
  device: "/job:localhost/replica:0/task:0/device:GPU:0"
  attr {
    key: "container"
    value {
      s: ""
    }
  }
  attr {
    key: "dtype"
    value {
      type: DT_FLOAT
    }
  }
  attr {
    key: "shape"
    value {
      shape {
        dim {
          size: 1
        }
        dim {
          size: 1
        }
        dim {
          size: 256
        }
        dim {
          size: 255
        }
      }
    }
  }
  attr {
    key: "shared_name"
    value {
      s: "conv2d_74/kernel"
    }
  }
}
node {
  name: "batch_normalization_24/gamma"
  op: "VarHandleOp"
  device: "/job:localhost/replica:0/task:0/device:GPU:0"
  attr {
    key: "container"
    value {
      s: ""
    }
  }
  attr {
    key: "dtype"
    value {
      type: DT_FLOAT
    }
  }
  attr {
    key: "shape"
    value {
      shape {
        dim {
          size: 128
        }
      }
    }
  }
  attr {
    key: "shared_name"
    value {
      s: "batch_normalization_24/gamma"
    }
  }
}
node {
  name: "batch_normalization_36/moving_mean"
  op: "VarHandleOp"
  device: "/job:localhost/replica:0/task:0/device:GPU:0"
  attr {
    key: "container"
    value {
      s: ""
    }
  }
  attr {
    key: "dtype"
    value {
      type: DT_FLOAT
    }
  }
  attr {
    key: "shape"
    value {
      shape {
        dim {
          size: 512
        }
      }
    }
  }
  attr {
    key: "shared_name"
    value {
      s: "batch_normalization_36/moving_mean"
    }
  }
}
node {
  name: "batch_normalization_24/beta"
  op: "VarHandleOp"
  device: "/job:localhost/replica:0/task:0/device:GPU:0"
  attr {
    key: "container"
    value {
      s: ""
    }
  }
  attr {
    key: "dtype"
    value {
      type: DT_FLOAT
    }
  }
  attr {
    key: "shape"
    value {
      shape {
        dim {
          size: 128
        }
      }
    }
  }
  attr {
    key: "shared_name"
    value {
      s: "batch_normalization_24/beta"
    }
  }
}
node {
  name: "conv2d_74/bias"
  op: "VarHandleOp"
  device: "/job:localhost/replica:0/task:0/device:GPU:0"
  attr {
    key: "container"
    value {
      s: ""
    }
  }
  attr {
    key: "dtype"
    value {
      type: DT_FLOAT
    }
  }
  attr {
    key: "shape"
    value {
      shape {
        dim {
          size: 255
        }
      }
    }
  }
  attr {
    key: "shared_name"
    value {
      s: "conv2d_74/bias"
    }
  }
}
node {
  name: "conv2d_25/kernel"
  op: "VarHandleOp"
  device: "/job:localhost/replica:0/task:0/device:GPU:0"
  attr {
    key: "container"
    value {
      s: ""
    }
  }
  attr {
    key: "dtype"
    value {
      type: DT_FLOAT
    }
  }
  attr {
    key: "shape"
    value {
      shape {
        dim {
          size: 3
        }
        dim {
          size: 3
        }
        dim {
          size: 128
        }
        dim {
          size: 256
        }
      }
    }
  }
  attr {
    key: "shared_name"
    value {
      s: "conv2d_25/kernel"
    }
  }
}
node {
  name: "batch_normalization_54/moving_variance"
  op: "VarHandleOp"
  device: "/job:localhost/replica:0/task:0/device:GPU:0"
  attr {
    key: "container"
    value {
      s: ""
    }
  }
  attr {
    key: "dtype"
    value {
      type: DT_FLOAT
    }
  }
  attr {
    key: "shape"
    value {
      shape {
        dim {
          size: 512
        }
      }
    }
  }
  attr {
    key: "shared_name"
    value {
      s: "batch_normalization_54/moving_variance"
    }
  }
}
node {
  name: "batch_normalization_25/gamma"
  op: "VarHandleOp"
  device: "/job:localhost/replica:0/task:0/device:GPU:0"
  attr {
    key: "container"
    value {
      s: ""
    }
  }
  attr {
    key: "dtype"
    value {
      type: DT_FLOAT
    }
  }
  attr {
    key: "shape"
    value {
      shape {
        dim {
          size: 256
        }
      }
    }
  }
  attr {
    key: "shared_name"
    value {
      s: "batch_normalization_25/gamma"
    }
  }
}
node {
  name: "batch_normalization/moving_mean"
  op: "VarHandleOp"
  device: "/job:localhost/replica:0/task:0/device:GPU:0"
  attr {
    key: "container"
    value {
      s: ""
    }
  }
  attr {
    key: "dtype"
    value {
      type: DT_FLOAT
    }
  }
  attr {
    key: "shape"
    value {
      shape {
        dim {
          size: 32
        }
      }
    }
  }
  attr {
    key: "shared_name"
    value {
      s: "batch_normalization/moving_mean"
    }
  }
}
node {
  name: "batch_normalization_25/beta"
  op: "VarHandleOp"
  device: "/job:localhost/replica:0/task:0/device:GPU:0"
  attr {
    key: "container"
    value {
      s: ""
    }
  }
  attr {
    key: "dtype"
    value {
      type: DT_FLOAT
    }
  }
  attr {
    key: "shape"
    value {
      shape {
        dim {
          size: 256
        }
      }
    }
  }
  attr {
    key: "shared_name"
    value {
      s: "batch_normalization_25/beta"
    }
  }
}
node {
  name: "batch_normalization_36/moving_variance"
  op: "VarHandleOp"
  device: "/job:localhost/replica:0/task:0/device:GPU:0"
  attr {
    key: "container"
    value {
      s: ""
    }
  }
  attr {
    key: "dtype"
    value {
      type: DT_FLOAT
    }
  }
  attr {
    key: "shape"
    value {
      shape {
        dim {
          size: 512
        }
      }
    }
  }
  attr {
    key: "shared_name"
    value {
      s: "batch_normalization_36/moving_variance"
    }
  }
}
node {
  name: "conv2d_26/kernel"
  op: "VarHandleOp"
  device: "/job:localhost/replica:0/task:0/device:GPU:0"
  attr {
    key: "container"
    value {
      s: ""
    }
  }
  attr {
    key: "dtype"
    value {
      type: DT_FLOAT
    }
  }
  attr {
    key: "shape"
    value {
      shape {
        dim {
          size: 3
        }
        dim {
          size: 3
        }
        dim {
          size: 256
        }
        dim {
          size: 512
        }
      }
    }
  }
  attr {
    key: "shared_name"
    value {
      s: "conv2d_26/kernel"
    }
  }
}
node {
  name: "batch_normalization/moving_variance"
  op: "VarHandleOp"
  device: "/job:localhost/replica:0/task:0/device:GPU:0"
  attr {
    key: "container"
    value {
      s: ""
    }
  }
  attr {
    key: "dtype"
    value {
      type: DT_FLOAT
    }
  }
  attr {
    key: "shape"
    value {
      shape {
        dim {
          size: 32
        }
      }
    }
  }
  attr {
    key: "shared_name"
    value {
      s: "batch_normalization/moving_variance"
    }
  }
}
node {
  name: "batch_normalization_26/gamma"
  op: "VarHandleOp"
  device: "/job:localhost/replica:0/task:0/device:GPU:0"
  attr {
    key: "container"
    value {
      s: ""
    }
  }
  attr {
    key: "dtype"
    value {
      type: DT_FLOAT
    }
  }
  attr {
    key: "shape"
    value {
      shape {
        dim {
          size: 512
        }
      }
    }
  }
  attr {
    key: "shared_name"
    value {
      s: "batch_normalization_26/gamma"
    }
  }
}
node {
  name: "batch_normalization_64/moving_variance"
  op: "VarHandleOp"
  device: "/job:localhost/replica:0/task:0/device:GPU:0"
  attr {
    key: "container"
    value {
      s: ""
    }
  }
  attr {
    key: "dtype"
    value {
      type: DT_FLOAT
    }
  }
  attr {
    key: "shape"
    value {
      shape {
        dim {
          size: 512
        }
      }
    }
  }
  attr {
    key: "shared_name"
    value {
      s: "batch_normalization_64/moving_variance"
    }
  }
}
node {
  name: "batch_normalization_26/beta"
  op: "VarHandleOp"
  device: "/job:localhost/replica:0/task:0/device:GPU:0"
  attr {
    key: "container"
    value {
      s: ""
    }
  }
  attr {
    key: "dtype"
    value {
      type: DT_FLOAT
    }
  }
  attr {
    key: "shape"
    value {
      shape {
        dim {
          size: 512
        }
      }
    }
  }
  attr {
    key: "shared_name"
    value {
      s: "batch_normalization_26/beta"
    }
  }
}
node {
  name: "batch_normalization_1/moving_mean"
  op: "VarHandleOp"
  device: "/job:localhost/replica:0/task:0/device:GPU:0"
  attr {
    key: "container"
    value {
      s: ""
    }
  }
  attr {
    key: "dtype"
    value {
      type: DT_FLOAT
    }
  }
  attr {
    key: "shape"
    value {
      shape {
        dim {
          size: 64
        }
      }
    }
  }
  attr {
    key: "shared_name"
    value {
      s: "batch_normalization_1/moving_mean"
    }
  }
}
node {
  name: "conv2d_27/kernel"
  op: "VarHandleOp"
  device: "/job:localhost/replica:0/task:0/device:GPU:0"
  attr {
    key: "container"
    value {
      s: ""
    }
  }
  attr {
    key: "dtype"
    value {
      type: DT_FLOAT
    }
  }
  attr {
    key: "shape"
    value {
      shape {
        dim {
          size: 1
        }
        dim {
          size: 1
        }
        dim {
          size: 512
        }
        dim {
          size: 256
        }
      }
    }
  }
  attr {
    key: "shared_name"
    value {
      s: "conv2d_27/kernel"
    }
  }
}
node {
  name: "batch_normalization_37/moving_mean"
  op: "VarHandleOp"
  device: "/job:localhost/replica:0/task:0/device:GPU:0"
  attr {
    key: "container"
    value {
      s: ""
    }
  }
  attr {
    key: "dtype"
    value {
      type: DT_FLOAT
    }
  }
  attr {
    key: "shape"
    value {
      shape {
        dim {
          size: 256
        }
      }
    }
  }
  attr {
    key: "shared_name"
    value {
      s: "batch_normalization_37/moving_mean"
    }
  }
}
node {
  name: "batch_normalization_27/gamma"
  op: "VarHandleOp"
  device: "/job:localhost/replica:0/task:0/device:GPU:0"
  attr {
    key: "container"
    value {
      s: ""
    }
  }
  attr {
    key: "dtype"
    value {
      type: DT_FLOAT
    }
  }
  attr {
    key: "shape"
    value {
      shape {
        dim {
          size: 256
        }
      }
    }
  }
  attr {
    key: "shared_name"
    value {
      s: "batch_normalization_27/gamma"
    }
  }
}
node {
  name: "batch_normalization_1/moving_variance"
  op: "VarHandleOp"
  device: "/job:localhost/replica:0/task:0/device:GPU:0"
  attr {
    key: "container"
    value {
      s: ""
    }
  }
  attr {
    key: "dtype"
    value {
      type: DT_FLOAT
    }
  }
  attr {
    key: "shape"
    value {
      shape {
        dim {
          size: 64
        }
      }
    }
  }
  attr {
    key: "shared_name"
    value {
      s: "batch_normalization_1/moving_variance"
    }
  }
}
node {
  name: "batch_normalization_27/beta"
  op: "VarHandleOp"
  device: "/job:localhost/replica:0/task:0/device:GPU:0"
  attr {
    key: "container"
    value {
      s: ""
    }
  }
  attr {
    key: "dtype"
    value {
      type: DT_FLOAT
    }
  }
  attr {
    key: "shape"
    value {
      shape {
        dim {
          size: 256
        }
      }
    }
  }
  attr {
    key: "shared_name"
    value {
      s: "batch_normalization_27/beta"
    }
  }
}
node {
  name: "batch_normalization_55/moving_mean"
  op: "VarHandleOp"
  device: "/job:localhost/replica:0/task:0/device:GPU:0"
  attr {
    key: "container"
    value {
      s: ""
    }
  }
  attr {
    key: "dtype"
    value {
      type: DT_FLOAT
    }
  }
  attr {
    key: "shape"
    value {
      shape {
        dim {
          size: 1024
        }
      }
    }
  }
  attr {
    key: "shared_name"
    value {
      s: "batch_normalization_55/moving_mean"
    }
  }
}
node {
  name: "conv2d_28/kernel"
  op: "VarHandleOp"
  device: "/job:localhost/replica:0/task:0/device:GPU:0"
  attr {
    key: "container"
    value {
      s: ""
    }
  }
  attr {
    key: "dtype"
    value {
      type: DT_FLOAT
    }
  }
  attr {
    key: "shape"
    value {
      shape {
        dim {
          size: 3
        }
        dim {
          size: 3
        }
        dim {
          size: 256
        }
        dim {
          size: 512
        }
      }
    }
  }
  attr {
    key: "shared_name"
    value {
      s: "conv2d_28/kernel"
    }
  }
}
node {
  name: "batch_normalization_2/moving_mean"
  op: "VarHandleOp"
  device: "/job:localhost/replica:0/task:0/device:GPU:0"
  attr {
    key: "container"
    value {
      s: ""
    }
  }
  attr {
    key: "dtype"
    value {
      type: DT_FLOAT
    }
  }
  attr {
    key: "shape"
    value {
      shape {
        dim {
          size: 32
        }
      }
    }
  }
  attr {
    key: "shared_name"
    value {
      s: "batch_normalization_2/moving_mean"
    }
  }
}
node {
  name: "batch_normalization_28/gamma"
  op: "VarHandleOp"
  device: "/job:localhost/replica:0/task:0/device:GPU:0"
  attr {
    key: "container"
    value {
      s: ""
    }
  }
  attr {
    key: "dtype"
    value {
      type: DT_FLOAT
    }
  }
  attr {
    key: "shape"
    value {
      shape {
        dim {
          size: 512
        }
      }
    }
  }
  attr {
    key: "shared_name"
    value {
      s: "batch_normalization_28/gamma"
    }
  }
}
node {
  name: "batch_normalization_37/moving_variance"
  op: "VarHandleOp"
  device: "/job:localhost/replica:0/task:0/device:GPU:0"
  attr {
    key: "container"
    value {
      s: ""
    }
  }
  attr {
    key: "dtype"
    value {
      type: DT_FLOAT
    }
  }
  attr {
    key: "shape"
    value {
      shape {
        dim {
          size: 256
        }
      }
    }
  }
  attr {
    key: "shared_name"
    value {
      s: "batch_normalization_37/moving_variance"
    }
  }
}
node {
  name: "batch_normalization_28/beta"
  op: "VarHandleOp"
  device: "/job:localhost/replica:0/task:0/device:GPU:0"
  attr {
    key: "container"
    value {
      s: ""
    }
  }
  attr {
    key: "dtype"
    value {
      type: DT_FLOAT
    }
  }
  attr {
    key: "shape"
    value {
      shape {
        dim {
          size: 512
        }
      }
    }
  }
  attr {
    key: "shared_name"
    value {
      s: "batch_normalization_28/beta"
    }
  }
}
node {
  name: "batch_normalization_2/moving_variance"
  op: "VarHandleOp"
  device: "/job:localhost/replica:0/task:0/device:GPU:0"
  attr {
    key: "container"
    value {
      s: ""
    }
  }
  attr {
    key: "dtype"
    value {
      type: DT_FLOAT
    }
  }
  attr {
    key: "shape"
    value {
      shape {
        dim {
          size: 32
        }
      }
    }
  }
  attr {
    key: "shared_name"
    value {
      s: "batch_normalization_2/moving_variance"
    }
  }
}
node {
  name: "conv2d_29/kernel"
  op: "VarHandleOp"
  device: "/job:localhost/replica:0/task:0/device:GPU:0"
  attr {
    key: "container"
    value {
      s: ""
    }
  }
  attr {
    key: "dtype"
    value {
      type: DT_FLOAT
    }
  }
  attr {
    key: "shape"
    value {
      shape {
        dim {
          size: 1
        }
        dim {
          size: 1
        }
        dim {
          size: 512
        }
        dim {
          size: 256
        }
      }
    }
  }
  attr {
    key: "shared_name"
    value {
      s: "conv2d_29/kernel"
    }
  }
}
node {
  name: "batch_normalization_66/moving_mean"
  op: "VarHandleOp"
  device: "/job:localhost/replica:0/task:0/device:GPU:0"
  attr {
    key: "container"
    value {
      s: ""
    }
  }
  attr {
    key: "dtype"
    value {
      type: DT_FLOAT
    }
  }
  attr {
    key: "shape"
    value {
      shape {
        dim {
          size: 128
        }
      }
    }
  }
  attr {
    key: "shared_name"
    value {
      s: "batch_normalization_66/moving_mean"
    }
  }
}
node {
  name: "batch_normalization_29/gamma"
  op: "VarHandleOp"
  device: "/job:localhost/replica:0/task:0/device:GPU:0"
  attr {
    key: "container"
    value {
      s: ""
    }
  }
  attr {
    key: "dtype"
    value {
      type: DT_FLOAT
    }
  }
  attr {
    key: "shape"
    value {
      shape {
        dim {
          size: 256
        }
      }
    }
  }
  attr {
    key: "shared_name"
    value {
      s: "batch_normalization_29/gamma"
    }
  }
}
node {
  name: "batch_normalization_3/moving_mean"
  op: "VarHandleOp"
  device: "/job:localhost/replica:0/task:0/device:GPU:0"
  attr {
    key: "container"
    value {
      s: ""
    }
  }
  attr {
    key: "dtype"
    value {
      type: DT_FLOAT
    }
  }
  attr {
    key: "shape"
    value {
      shape {
        dim {
          size: 64
        }
      }
    }
  }
  attr {
    key: "shared_name"
    value {
      s: "batch_normalization_3/moving_mean"
    }
  }
}
node {
  name: "batch_normalization_29/beta"
  op: "VarHandleOp"
  device: "/job:localhost/replica:0/task:0/device:GPU:0"
  attr {
    key: "container"
    value {
      s: ""
    }
  }
  attr {
    key: "dtype"
    value {
      type: DT_FLOAT
    }
  }
  attr {
    key: "shape"
    value {
      shape {
        dim {
          size: 256
        }
      }
    }
  }
  attr {
    key: "shared_name"
    value {
      s: "batch_normalization_29/beta"
    }
  }
}
node {
  name: "batch_normalization_38/moving_mean"
  op: "VarHandleOp"
  device: "/job:localhost/replica:0/task:0/device:GPU:0"
  attr {
    key: "container"
    value {
      s: ""
    }
  }
  attr {
    key: "dtype"
    value {
      type: DT_FLOAT
    }
  }
  attr {
    key: "shape"
    value {
      shape {
        dim {
          size: 512
        }
      }
    }
  }
  attr {
    key: "shared_name"
    value {
      s: "batch_normalization_38/moving_mean"
    }
  }
}
node {
  name: "conv2d_30/kernel"
  op: "VarHandleOp"
  device: "/job:localhost/replica:0/task:0/device:GPU:0"
  attr {
    key: "container"
    value {
      s: ""
    }
  }
  attr {
    key: "dtype"
    value {
      type: DT_FLOAT
    }
  }
  attr {
    key: "shape"
    value {
      shape {
        dim {
          size: 3
        }
        dim {
          size: 3
        }
        dim {
          size: 256
        }
        dim {
          size: 512
        }
      }
    }
  }
  attr {
    key: "shared_name"
    value {
      s: "conv2d_30/kernel"
    }
  }
}
node {
  name: "batch_normalization_3/moving_variance"
  op: "VarHandleOp"
  device: "/job:localhost/replica:0/task:0/device:GPU:0"
  attr {
    key: "container"
    value {
      s: ""
    }
  }
  attr {
    key: "dtype"
    value {
      type: DT_FLOAT
    }
  }
  attr {
    key: "shape"
    value {
      shape {
        dim {
          size: 64
        }
      }
    }
  }
  attr {
    key: "shared_name"
    value {
      s: "batch_normalization_3/moving_variance"
    }
  }
}
node {
  name: "batch_normalization_30/gamma"
  op: "VarHandleOp"
  device: "/job:localhost/replica:0/task:0/device:GPU:0"
  attr {
    key: "container"
    value {
      s: ""
    }
  }
  attr {
    key: "dtype"
    value {
      type: DT_FLOAT
    }
  }
  attr {
    key: "shape"
    value {
      shape {
        dim {
          size: 512
        }
      }
    }
  }
  attr {
    key: "shared_name"
    value {
      s: "batch_normalization_30/gamma"
    }
  }
}
node {
  name: "batch_normalization_55/moving_variance"
  op: "VarHandleOp"
  device: "/job:localhost/replica:0/task:0/device:GPU:0"
  attr {
    key: "container"
    value {
      s: ""
    }
  }
  attr {
    key: "dtype"
    value {
      type: DT_FLOAT
    }
  }
  attr {
    key: "shape"
    value {
      shape {
        dim {
          size: 1024
        }
      }
    }
  }
  attr {
    key: "shared_name"
    value {
      s: "batch_normalization_55/moving_variance"
    }
  }
}
node {
  name: "batch_normalization_30/beta"
  op: "VarHandleOp"
  device: "/job:localhost/replica:0/task:0/device:GPU:0"
  attr {
    key: "container"
    value {
      s: ""
    }
  }
  attr {
    key: "dtype"
    value {
      type: DT_FLOAT
    }
  }
  attr {
    key: "shape"
    value {
      shape {
        dim {
          size: 512
        }
      }
    }
  }
  attr {
    key: "shared_name"
    value {
      s: "batch_normalization_30/beta"
    }
  }
}
node {
  name: "batch_normalization_4/moving_mean"
  op: "VarHandleOp"
  device: "/job:localhost/replica:0/task:0/device:GPU:0"
  attr {
    key: "container"
    value {
      s: ""
    }
  }
  attr {
    key: "dtype"
    value {
      type: DT_FLOAT
    }
  }
  attr {
    key: "shape"
    value {
      shape {
        dim {
          size: 128
        }
      }
    }
  }
  attr {
    key: "shared_name"
    value {
      s: "batch_normalization_4/moving_mean"
    }
  }
}
node {
  name: "conv2d_31/kernel"
  op: "VarHandleOp"
  device: "/job:localhost/replica:0/task:0/device:GPU:0"
  attr {
    key: "container"
    value {
      s: ""
    }
  }
  attr {
    key: "dtype"
    value {
      type: DT_FLOAT
    }
  }
  attr {
    key: "shape"
    value {
      shape {
        dim {
          size: 1
        }
        dim {
          size: 1
        }
        dim {
          size: 512
        }
        dim {
          size: 256
        }
      }
    }
  }
  attr {
    key: "shared_name"
    value {
      s: "conv2d_31/kernel"
    }
  }
}
node {
  name: "batch_normalization_38/moving_variance"
  op: "VarHandleOp"
  device: "/job:localhost/replica:0/task:0/device:GPU:0"
  attr {
    key: "container"
    value {
      s: ""
    }
  }
  attr {
    key: "dtype"
    value {
      type: DT_FLOAT
    }
  }
  attr {
    key: "shape"
    value {
      shape {
        dim {
          size: 512
        }
      }
    }
  }
  attr {
    key: "shared_name"
    value {
      s: "batch_normalization_38/moving_variance"
    }
  }
}
node {
  name: "batch_normalization_31/gamma"
  op: "VarHandleOp"
  device: "/job:localhost/replica:0/task:0/device:GPU:0"
  attr {
    key: "container"
    value {
      s: ""
    }
  }
  attr {
    key: "dtype"
    value {
      type: DT_FLOAT
    }
  }
  attr {
    key: "shape"
    value {
      shape {
        dim {
          size: 256
        }
      }
    }
  }
  attr {
    key: "shared_name"
    value {
      s: "batch_normalization_31/gamma"
    }
  }
}
node {
  name: "batch_normalization_4/moving_variance"
  op: "VarHandleOp"
  device: "/job:localhost/replica:0/task:0/device:GPU:0"
  attr {
    key: "container"
    value {
      s: ""
    }
  }
  attr {
    key: "dtype"
    value {
      type: DT_FLOAT
    }
  }
  attr {
    key: "shape"
    value {
      shape {
        dim {
          size: 128
        }
      }
    }
  }
  attr {
    key: "shared_name"
    value {
      s: "batch_normalization_4/moving_variance"
    }
  }
}
node {
  name: "batch_normalization_31/beta"
  op: "VarHandleOp"
  device: "/job:localhost/replica:0/task:0/device:GPU:0"
  attr {
    key: "container"
    value {
      s: ""
    }
  }
  attr {
    key: "dtype"
    value {
      type: DT_FLOAT
    }
  }
  attr {
    key: "shape"
    value {
      shape {
        dim {
          size: 256
        }
      }
    }
  }
  attr {
    key: "shared_name"
    value {
      s: "batch_normalization_31/beta"
    }
  }
}
node {
  name: "batch_normalization_70/moving_variance"
  op: "VarHandleOp"
  device: "/job:localhost/replica:0/task:0/device:GPU:0"
  attr {
    key: "container"
    value {
      s: ""
    }
  }
  attr {
    key: "dtype"
    value {
      type: DT_FLOAT
    }
  }
  attr {
    key: "shape"
    value {
      shape {
        dim {
          size: 128
        }
      }
    }
  }
  attr {
    key: "shared_name"
    value {
      s: "batch_normalization_70/moving_variance"
    }
  }
}
node {
  name: "conv2d_32/kernel"
  op: "VarHandleOp"
  device: "/job:localhost/replica:0/task:0/device:GPU:0"
  attr {
    key: "container"
    value {
      s: ""
    }
  }
  attr {
    key: "dtype"
    value {
      type: DT_FLOAT
    }
  }
  attr {
    key: "shape"
    value {
      shape {
        dim {
          size: 3
        }
        dim {
          size: 3
        }
        dim {
          size: 256
        }
        dim {
          size: 512
        }
      }
    }
  }
  attr {
    key: "shared_name"
    value {
      s: "conv2d_32/kernel"
    }
  }
}
node {
  name: "batch_normalization_5/moving_mean"
  op: "VarHandleOp"
  device: "/job:localhost/replica:0/task:0/device:GPU:0"
  attr {
    key: "container"
    value {
      s: ""
    }
  }
  attr {
    key: "dtype"
    value {
      type: DT_FLOAT
    }
  }
  attr {
    key: "shape"
    value {
      shape {
        dim {
          size: 64
        }
      }
    }
  }
  attr {
    key: "shared_name"
    value {
      s: "batch_normalization_5/moving_mean"
    }
  }
}
node {
  name: "batch_normalization_32/gamma"
  op: "VarHandleOp"
  device: "/job:localhost/replica:0/task:0/device:GPU:0"
  attr {
    key: "container"
    value {
      s: ""
    }
  }
  attr {
    key: "dtype"
    value {
      type: DT_FLOAT
    }
  }
  attr {
    key: "shape"
    value {
      shape {
        dim {
          size: 512
        }
      }
    }
  }
  attr {
    key: "shared_name"
    value {
      s: "batch_normalization_32/gamma"
    }
  }
}
node {
  name: "batch_normalization_39/moving_mean"
  op: "VarHandleOp"
  device: "/job:localhost/replica:0/task:0/device:GPU:0"
  attr {
    key: "container"
    value {
      s: ""
    }
  }
  attr {
    key: "dtype"
    value {
      type: DT_FLOAT
    }
  }
  attr {
    key: "shape"
    value {
      shape {
        dim {
          size: 256
        }
      }
    }
  }
  attr {
    key: "shared_name"
    value {
      s: "batch_normalization_39/moving_mean"
    }
  }
}
node {
  name: "batch_normalization_32/beta"
  op: "VarHandleOp"
  device: "/job:localhost/replica:0/task:0/device:GPU:0"
  attr {
    key: "container"
    value {
      s: ""
    }
  }
  attr {
    key: "dtype"
    value {
      type: DT_FLOAT
    }
  }
  attr {
    key: "shape"
    value {
      shape {
        dim {
          size: 512
        }
      }
    }
  }
  attr {
    key: "shared_name"
    value {
      s: "batch_normalization_32/beta"
    }
  }
}
node {
  name: "batch_normalization_5/moving_variance"
  op: "VarHandleOp"
  device: "/job:localhost/replica:0/task:0/device:GPU:0"
  attr {
    key: "container"
    value {
      s: ""
    }
  }
  attr {
    key: "dtype"
    value {
      type: DT_FLOAT
    }
  }
  attr {
    key: "shape"
    value {
      shape {
        dim {
          size: 64
        }
      }
    }
  }
  attr {
    key: "shared_name"
    value {
      s: "batch_normalization_5/moving_variance"
    }
  }
}
node {
  name: "conv2d_33/kernel"
  op: "VarHandleOp"
  device: "/job:localhost/replica:0/task:0/device:GPU:0"
  attr {
    key: "container"
    value {
      s: ""
    }
  }
  attr {
    key: "dtype"
    value {
      type: DT_FLOAT
    }
  }
  attr {
    key: "shape"
    value {
      shape {
        dim {
          size: 1
        }
        dim {
          size: 1
        }
        dim {
          size: 512
        }
        dim {
          size: 256
        }
      }
    }
  }
  attr {
    key: "shared_name"
    value {
      s: "conv2d_33/kernel"
    }
  }
}
node {
  name: "batch_normalization_56/moving_mean"
  op: "VarHandleOp"
  device: "/job:localhost/replica:0/task:0/device:GPU:0"
  attr {
    key: "container"
    value {
      s: ""
    }
  }
  attr {
    key: "dtype"
    value {
      type: DT_FLOAT
    }
  }
  attr {
    key: "shape"
    value {
      shape {
        dim {
          size: 512
        }
      }
    }
  }
  attr {
    key: "shared_name"
    value {
      s: "batch_normalization_56/moving_mean"
    }
  }
}
node {
  name: "batch_normalization_33/gamma"
  op: "VarHandleOp"
  device: "/job:localhost/replica:0/task:0/device:GPU:0"
  attr {
    key: "container"
    value {
      s: ""
    }
  }
  attr {
    key: "dtype"
    value {
      type: DT_FLOAT
    }
  }
  attr {
    key: "shape"
    value {
      shape {
        dim {
          size: 256
        }
      }
    }
  }
  attr {
    key: "shared_name"
    value {
      s: "batch_normalization_33/gamma"
    }
  }
}
node {
  name: "batch_normalization_6/moving_mean"
  op: "VarHandleOp"
  device: "/job:localhost/replica:0/task:0/device:GPU:0"
  attr {
    key: "container"
    value {
      s: ""
    }
  }
  attr {
    key: "dtype"
    value {
      type: DT_FLOAT
    }
  }
  attr {
    key: "shape"
    value {
      shape {
        dim {
          size: 128
        }
      }
    }
  }
  attr {
    key: "shared_name"
    value {
      s: "batch_normalization_6/moving_mean"
    }
  }
}
node {
  name: "batch_normalization_33/beta"
  op: "VarHandleOp"
  device: "/job:localhost/replica:0/task:0/device:GPU:0"
  attr {
    key: "container"
    value {
      s: ""
    }
  }
  attr {
    key: "dtype"
    value {
      type: DT_FLOAT
    }
  }
  attr {
    key: "shape"
    value {
      shape {
        dim {
          size: 256
        }
      }
    }
  }
  attr {
    key: "shared_name"
    value {
      s: "batch_normalization_33/beta"
    }
  }
}
node {
  name: "batch_normalization_39/moving_variance"
  op: "VarHandleOp"
  device: "/job:localhost/replica:0/task:0/device:GPU:0"
  attr {
    key: "container"
    value {
      s: ""
    }
  }
  attr {
    key: "dtype"
    value {
      type: DT_FLOAT
    }
  }
  attr {
    key: "shape"
    value {
      shape {
        dim {
          size: 256
        }
      }
    }
  }
  attr {
    key: "shared_name"
    value {
      s: "batch_normalization_39/moving_variance"
    }
  }
}
node {
  name: "conv2d_34/kernel"
  op: "VarHandleOp"
  device: "/job:localhost/replica:0/task:0/device:GPU:0"
  attr {
    key: "container"
    value {
      s: ""
    }
  }
  attr {
    key: "dtype"
    value {
      type: DT_FLOAT
    }
  }
  attr {
    key: "shape"
    value {
      shape {
        dim {
          size: 3
        }
        dim {
          size: 3
        }
        dim {
          size: 256
        }
        dim {
          size: 512
        }
      }
    }
  }
  attr {
    key: "shared_name"
    value {
      s: "conv2d_34/kernel"
    }
  }
}
node {
  name: "batch_normalization_6/moving_variance"
  op: "VarHandleOp"
  device: "/job:localhost/replica:0/task:0/device:GPU:0"
  attr {
    key: "container"
    value {
      s: ""
    }
  }
  attr {
    key: "dtype"
    value {
      type: DT_FLOAT
    }
  }
  attr {
    key: "shape"
    value {
      shape {
        dim {
          size: 128
        }
      }
    }
  }
  attr {
    key: "shared_name"
    value {
      s: "batch_normalization_6/moving_variance"
    }
  }
}
node {
  name: "batch_normalization_34/gamma"
  op: "VarHandleOp"
  device: "/job:localhost/replica:0/task:0/device:GPU:0"
  attr {
    key: "container"
    value {
      s: ""
    }
  }
  attr {
    key: "dtype"
    value {
      type: DT_FLOAT
    }
  }
  attr {
    key: "shape"
    value {
      shape {
        dim {
          size: 512
        }
      }
    }
  }
  attr {
    key: "shared_name"
    value {
      s: "batch_normalization_34/gamma"
    }
  }
}
node {
  name: "batch_normalization_66/moving_variance"
  op: "VarHandleOp"
  device: "/job:localhost/replica:0/task:0/device:GPU:0"
  attr {
    key: "container"
    value {
      s: ""
    }
  }
  attr {
    key: "dtype"
    value {
      type: DT_FLOAT
    }
  }
  attr {
    key: "shape"
    value {
      shape {
        dim {
          size: 128
        }
      }
    }
  }
  attr {
    key: "shared_name"
    value {
      s: "batch_normalization_66/moving_variance"
    }
  }
}
node {
  name: "batch_normalization_34/beta"
  op: "VarHandleOp"
  device: "/job:localhost/replica:0/task:0/device:GPU:0"
  attr {
    key: "container"
    value {
      s: ""
    }
  }
  attr {
    key: "dtype"
    value {
      type: DT_FLOAT
    }
  }
  attr {
    key: "shape"
    value {
      shape {
        dim {
          size: 512
        }
      }
    }
  }
  attr {
    key: "shared_name"
    value {
      s: "batch_normalization_34/beta"
    }
  }
}
node {
  name: "batch_normalization_7/moving_mean"
  op: "VarHandleOp"
  device: "/job:localhost/replica:0/task:0/device:GPU:0"
  attr {
    key: "container"
    value {
      s: ""
    }
  }
  attr {
    key: "dtype"
    value {
      type: DT_FLOAT
    }
  }
  attr {
    key: "shape"
    value {
      shape {
        dim {
          size: 64
        }
      }
    }
  }
  attr {
    key: "shared_name"
    value {
      s: "batch_normalization_7/moving_mean"
    }
  }
}
node {
  name: "conv2d_35/kernel"
  op: "VarHandleOp"
  device: "/job:localhost/replica:0/task:0/device:GPU:0"
  attr {
    key: "container"
    value {
      s: ""
    }
  }
  attr {
    key: "dtype"
    value {
      type: DT_FLOAT
    }
  }
  attr {
    key: "shape"
    value {
      shape {
        dim {
          size: 1
        }
        dim {
          size: 1
        }
        dim {
          size: 512
        }
        dim {
          size: 256
        }
      }
    }
  }
  attr {
    key: "shared_name"
    value {
      s: "conv2d_35/kernel"
    }
  }
}
node {
  name: "batch_normalization_40/moving_mean"
  op: "VarHandleOp"
  device: "/job:localhost/replica:0/task:0/device:GPU:0"
  attr {
    key: "container"
    value {
      s: ""
    }
  }
  attr {
    key: "dtype"
    value {
      type: DT_FLOAT
    }
  }
  attr {
    key: "shape"
    value {
      shape {
        dim {
          size: 512
        }
      }
    }
  }
  attr {
    key: "shared_name"
    value {
      s: "batch_normalization_40/moving_mean"
    }
  }
}
node {
  name: "batch_normalization_35/gamma"
  op: "VarHandleOp"
  device: "/job:localhost/replica:0/task:0/device:GPU:0"
  attr {
    key: "container"
    value {
      s: ""
    }
  }
  attr {
    key: "dtype"
    value {
      type: DT_FLOAT
    }
  }
  attr {
    key: "shape"
    value {
      shape {
        dim {
          size: 256
        }
      }
    }
  }
  attr {
    key: "shared_name"
    value {
      s: "batch_normalization_35/gamma"
    }
  }
}
node {
  name: "batch_normalization_7/moving_variance"
  op: "VarHandleOp"
  device: "/job:localhost/replica:0/task:0/device:GPU:0"
  attr {
    key: "container"
    value {
      s: ""
    }
  }
  attr {
    key: "dtype"
    value {
      type: DT_FLOAT
    }
  }
  attr {
    key: "shape"
    value {
      shape {
        dim {
          size: 64
        }
      }
    }
  }
  attr {
    key: "shared_name"
    value {
      s: "batch_normalization_7/moving_variance"
    }
  }
}
node {
  name: "batch_normalization_35/beta"
  op: "VarHandleOp"
  device: "/job:localhost/replica:0/task:0/device:GPU:0"
  attr {
    key: "container"
    value {
      s: ""
    }
  }
  attr {
    key: "dtype"
    value {
      type: DT_FLOAT
    }
  }
  attr {
    key: "shape"
    value {
      shape {
        dim {
          size: 256
        }
      }
    }
  }
  attr {
    key: "shared_name"
    value {
      s: "batch_normalization_35/beta"
    }
  }
}
node {
  name: "batch_normalization_56/moving_variance"
  op: "VarHandleOp"
  device: "/job:localhost/replica:0/task:0/device:GPU:0"
  attr {
    key: "container"
    value {
      s: ""
    }
  }
  attr {
    key: "dtype"
    value {
      type: DT_FLOAT
    }
  }
  attr {
    key: "shape"
    value {
      shape {
        dim {
          size: 512
        }
      }
    }
  }
  attr {
    key: "shared_name"
    value {
      s: "batch_normalization_56/moving_variance"
    }
  }
}
node {
  name: "conv2d_36/kernel"
  op: "VarHandleOp"
  device: "/job:localhost/replica:0/task:0/device:GPU:0"
  attr {
    key: "container"
    value {
      s: ""
    }
  }
  attr {
    key: "dtype"
    value {
      type: DT_FLOAT
    }
  }
  attr {
    key: "shape"
    value {
      shape {
        dim {
          size: 3
        }
        dim {
          size: 3
        }
        dim {
          size: 256
        }
        dim {
          size: 512
        }
      }
    }
  }
  attr {
    key: "shared_name"
    value {
      s: "conv2d_36/kernel"
    }
  }
}
node {
  name: "batch_normalization_8/moving_mean"
  op: "VarHandleOp"
  device: "/job:localhost/replica:0/task:0/device:GPU:0"
  attr {
    key: "container"
    value {
      s: ""
    }
  }
  attr {
    key: "dtype"
    value {
      type: DT_FLOAT
    }
  }
  attr {
    key: "shape"
    value {
      shape {
        dim {
          size: 128
        }
      }
    }
  }
  attr {
    key: "shared_name"
    value {
      s: "batch_normalization_8/moving_mean"
    }
  }
}
node {
  name: "batch_normalization_36/gamma"
  op: "VarHandleOp"
  device: "/job:localhost/replica:0/task:0/device:GPU:0"
  attr {
    key: "container"
    value {
      s: ""
    }
  }
  attr {
    key: "dtype"
    value {
      type: DT_FLOAT
    }
  }
  attr {
    key: "shape"
    value {
      shape {
        dim {
          size: 512
        }
      }
    }
  }
  attr {
    key: "shared_name"
    value {
      s: "batch_normalization_36/gamma"
    }
  }
}
node {
  name: "batch_normalization_40/moving_variance"
  op: "VarHandleOp"
  device: "/job:localhost/replica:0/task:0/device:GPU:0"
  attr {
    key: "container"
    value {
      s: ""
    }
  }
  attr {
    key: "dtype"
    value {
      type: DT_FLOAT
    }
  }
  attr {
    key: "shape"
    value {
      shape {
        dim {
          size: 512
        }
      }
    }
  }
  attr {
    key: "shared_name"
    value {
      s: "batch_normalization_40/moving_variance"
    }
  }
}
node {
  name: "batch_normalization_36/beta"
  op: "VarHandleOp"
  device: "/job:localhost/replica:0/task:0/device:GPU:0"
  attr {
    key: "container"
    value {
      s: ""
    }
  }
  attr {
    key: "dtype"
    value {
      type: DT_FLOAT
    }
  }
  attr {
    key: "shape"
    value {
      shape {
        dim {
          size: 512
        }
      }
    }
  }
  attr {
    key: "shared_name"
    value {
      s: "batch_normalization_36/beta"
    }
  }
}
node {
  name: "batch_normalization_8/moving_variance"
  op: "VarHandleOp"
  device: "/job:localhost/replica:0/task:0/device:GPU:0"
  attr {
    key: "container"
    value {
      s: ""
    }
  }
  attr {
    key: "dtype"
    value {
      type: DT_FLOAT
    }
  }
  attr {
    key: "shape"
    value {
      shape {
        dim {
          size: 128
        }
      }
    }
  }
  attr {
    key: "shared_name"
    value {
      s: "batch_normalization_8/moving_variance"
    }
  }
}
node {
  name: "conv2d_37/kernel"
  op: "VarHandleOp"
  device: "/job:localhost/replica:0/task:0/device:GPU:0"
  attr {
    key: "container"
    value {
      s: ""
    }
  }
  attr {
    key: "dtype"
    value {
      type: DT_FLOAT
    }
  }
  attr {
    key: "shape"
    value {
      shape {
        dim {
          size: 1
        }
        dim {
          size: 1
        }
        dim {
          size: 512
        }
        dim {
          size: 256
        }
      }
    }
  }
  attr {
    key: "shared_name"
    value {
      s: "conv2d_37/kernel"
    }
  }
}
node {
  name: "batch_normalization_37/gamma"
  op: "VarHandleOp"
  device: "/job:localhost/replica:0/task:0/device:GPU:0"
  attr {
    key: "container"
    value {
      s: ""
    }
  }
  attr {
    key: "dtype"
    value {
      type: DT_FLOAT
    }
  }
  attr {
    key: "shape"
    value {
      shape {
        dim {
          size: 256
        }
      }
    }
  }
  attr {
    key: "shared_name"
    value {
      s: "batch_normalization_37/gamma"
    }
  }
}
node {
  name: "batch_normalization_9/moving_mean"
  op: "VarHandleOp"
  device: "/job:localhost/replica:0/task:0/device:GPU:0"
  attr {
    key: "container"
    value {
      s: ""
    }
  }
  attr {
    key: "dtype"
    value {
      type: DT_FLOAT
    }
  }
  attr {
    key: "shape"
    value {
      shape {
        dim {
          size: 256
        }
      }
    }
  }
  attr {
    key: "shared_name"
    value {
      s: "batch_normalization_9/moving_mean"
    }
  }
}
node {
  name: "batch_normalization_37/beta"
  op: "VarHandleOp"
  device: "/job:localhost/replica:0/task:0/device:GPU:0"
  attr {
    key: "container"
    value {
      s: ""
    }
  }
  attr {
    key: "dtype"
    value {
      type: DT_FLOAT
    }
  }
  attr {
    key: "shape"
    value {
      shape {
        dim {
          size: 256
        }
      }
    }
  }
  attr {
    key: "shared_name"
    value {
      s: "batch_normalization_37/beta"
    }
  }
}
node {
  name: "batch_normalization_41/moving_mean"
  op: "VarHandleOp"
  device: "/job:localhost/replica:0/task:0/device:GPU:0"
  attr {
    key: "container"
    value {
      s: ""
    }
  }
  attr {
    key: "dtype"
    value {
      type: DT_FLOAT
    }
  }
  attr {
    key: "shape"
    value {
      shape {
        dim {
          size: 256
        }
      }
    }
  }
  attr {
    key: "shared_name"
    value {
      s: "batch_normalization_41/moving_mean"
    }
  }
}
node {
  name: "conv2d_38/kernel"
  op: "VarHandleOp"
  device: "/job:localhost/replica:0/task:0/device:GPU:0"
  attr {
    key: "container"
    value {
      s: ""
    }
  }
  attr {
    key: "dtype"
    value {
      type: DT_FLOAT
    }
  }
  attr {
    key: "shape"
    value {
      shape {
        dim {
          size: 3
        }
        dim {
          size: 3
        }
        dim {
          size: 256
        }
        dim {
          size: 512
        }
      }
    }
  }
  attr {
    key: "shared_name"
    value {
      s: "conv2d_38/kernel"
    }
  }
}
node {
  name: "batch_normalization_9/moving_variance"
  op: "VarHandleOp"
  device: "/job:localhost/replica:0/task:0/device:GPU:0"
  attr {
    key: "container"
    value {
      s: ""
    }
  }
  attr {
    key: "dtype"
    value {
      type: DT_FLOAT
    }
  }
  attr {
    key: "shape"
    value {
      shape {
        dim {
          size: 256
        }
      }
    }
  }
  attr {
    key: "shared_name"
    value {
      s: "batch_normalization_9/moving_variance"
    }
  }
}
node {
  name: "batch_normalization_38/gamma"
  op: "VarHandleOp"
  device: "/job:localhost/replica:0/task:0/device:GPU:0"
  attr {
    key: "container"
    value {
      s: ""
    }
  }
  attr {
    key: "dtype"
    value {
      type: DT_FLOAT
    }
  }
  attr {
    key: "shape"
    value {
      shape {
        dim {
          size: 512
        }
      }
    }
  }
  attr {
    key: "shared_name"
    value {
      s: "batch_normalization_38/gamma"
    }
  }
}
node {
  name: "batch_normalization_58/moving_mean"
  op: "VarHandleOp"
  device: "/job:localhost/replica:0/task:0/device:GPU:0"
  attr {
    key: "container"
    value {
      s: ""
    }
  }
  attr {
    key: "dtype"
    value {
      type: DT_FLOAT
    }
  }
  attr {
    key: "shape"
    value {
      shape {
        dim {
          size: 256
        }
      }
    }
  }
  attr {
    key: "shared_name"
    value {
      s: "batch_normalization_58/moving_mean"
    }
  }
}
node {
  name: "batch_normalization_38/beta"
  op: "VarHandleOp"
  device: "/job:localhost/replica:0/task:0/device:GPU:0"
  attr {
    key: "container"
    value {
      s: ""
    }
  }
  attr {
    key: "dtype"
    value {
      type: DT_FLOAT
    }
  }
  attr {
    key: "shape"
    value {
      shape {
        dim {
          size: 512
        }
      }
    }
  }
  attr {
    key: "shared_name"
    value {
      s: "batch_normalization_38/beta"
    }
  }
}
node {
  name: "batch_normalization_10/moving_mean"
  op: "VarHandleOp"
  device: "/job:localhost/replica:0/task:0/device:GPU:0"
  attr {
    key: "container"
    value {
      s: ""
    }
  }
  attr {
    key: "dtype"
    value {
      type: DT_FLOAT
    }
  }
  attr {
    key: "shape"
    value {
      shape {
        dim {
          size: 128
        }
      }
    }
  }
  attr {
    key: "shared_name"
    value {
      s: "batch_normalization_10/moving_mean"
    }
  }
}
node {
  name: "conv2d_39/kernel"
  op: "VarHandleOp"
  device: "/job:localhost/replica:0/task:0/device:GPU:0"
  attr {
    key: "container"
    value {
      s: ""
    }
  }
  attr {
    key: "dtype"
    value {
      type: DT_FLOAT
    }
  }
  attr {
    key: "shape"
    value {
      shape {
        dim {
          size: 1
        }
        dim {
          size: 1
        }
        dim {
          size: 512
        }
        dim {
          size: 256
        }
      }
    }
  }
  attr {
    key: "shared_name"
    value {
      s: "conv2d_39/kernel"
    }
  }
}
node {
  name: "batch_normalization_41/moving_variance"
  op: "VarHandleOp"
  device: "/job:localhost/replica:0/task:0/device:GPU:0"
  attr {
    key: "container"
    value {
      s: ""
    }
  }
  attr {
    key: "dtype"
    value {
      type: DT_FLOAT
    }
  }
  attr {
    key: "shape"
    value {
      shape {
        dim {
          size: 256
        }
      }
    }
  }
  attr {
    key: "shared_name"
    value {
      s: "batch_normalization_41/moving_variance"
    }
  }
}
node {
  name: "batch_normalization_39/gamma"
  op: "VarHandleOp"
  device: "/job:localhost/replica:0/task:0/device:GPU:0"
  attr {
    key: "container"
    value {
      s: ""
    }
  }
  attr {
    key: "dtype"
    value {
      type: DT_FLOAT
    }
  }
  attr {
    key: "shape"
    value {
      shape {
        dim {
          size: 256
        }
      }
    }
  }
  attr {
    key: "shared_name"
    value {
      s: "batch_normalization_39/gamma"
    }
  }
}
node {
  name: "batch_normalization_10/moving_variance"
  op: "VarHandleOp"
  device: "/job:localhost/replica:0/task:0/device:GPU:0"
  attr {
    key: "container"
    value {
      s: ""
    }
  }
  attr {
    key: "dtype"
    value {
      type: DT_FLOAT
    }
  }
  attr {
    key: "shape"
    value {
      shape {
        dim {
          size: 128
        }
      }
    }
  }
  attr {
    key: "shared_name"
    value {
      s: "batch_normalization_10/moving_variance"
    }
  }
}
node {
  name: "batch_normalization_39/beta"
  op: "VarHandleOp"
  device: "/job:localhost/replica:0/task:0/device:GPU:0"
  attr {
    key: "container"
    value {
      s: ""
    }
  }
  attr {
    key: "dtype"
    value {
      type: DT_FLOAT
    }
  }
  attr {
    key: "shape"
    value {
      shape {
        dim {
          size: 256
        }
      }
    }
  }
  attr {
    key: "shared_name"
    value {
      s: "batch_normalization_39/beta"
    }
  }
}
node {
  name: "batch_normalization_67/moving_mean"
  op: "VarHandleOp"
  device: "/job:localhost/replica:0/task:0/device:GPU:0"
  attr {
    key: "container"
    value {
      s: ""
    }
  }
  attr {
    key: "dtype"
    value {
      type: DT_FLOAT
    }
  }
  attr {
    key: "shape"
    value {
      shape {
        dim {
          size: 256
        }
      }
    }
  }
  attr {
    key: "shared_name"
    value {
      s: "batch_normalization_67/moving_mean"
    }
  }
}
node {
  name: "conv2d_40/kernel"
  op: "VarHandleOp"
  device: "/job:localhost/replica:0/task:0/device:GPU:0"
  attr {
    key: "container"
    value {
      s: ""
    }
  }
  attr {
    key: "dtype"
    value {
      type: DT_FLOAT
    }
  }
  attr {
    key: "shape"
    value {
      shape {
        dim {
          size: 3
        }
        dim {
          size: 3
        }
        dim {
          size: 256
        }
        dim {
          size: 512
        }
      }
    }
  }
  attr {
    key: "shared_name"
    value {
      s: "conv2d_40/kernel"
    }
  }
}
node {
  name: "batch_normalization_11/moving_mean"
  op: "VarHandleOp"
  device: "/job:localhost/replica:0/task:0/device:GPU:0"
  attr {
    key: "container"
    value {
      s: ""
    }
  }
  attr {
    key: "dtype"
    value {
      type: DT_FLOAT
    }
  }
  attr {
    key: "shape"
    value {
      shape {
        dim {
          size: 256
        }
      }
    }
  }
  attr {
    key: "shared_name"
    value {
      s: "batch_normalization_11/moving_mean"
    }
  }
}
node {
  name: "batch_normalization_40/gamma"
  op: "VarHandleOp"
  device: "/job:localhost/replica:0/task:0/device:GPU:0"
  attr {
    key: "container"
    value {
      s: ""
    }
  }
  attr {
    key: "dtype"
    value {
      type: DT_FLOAT
    }
  }
  attr {
    key: "shape"
    value {
      shape {
        dim {
          size: 512
        }
      }
    }
  }
  attr {
    key: "shared_name"
    value {
      s: "batch_normalization_40/gamma"
    }
  }
}
node {
  name: "batch_normalization_42/moving_mean"
  op: "VarHandleOp"
  device: "/job:localhost/replica:0/task:0/device:GPU:0"
  attr {
    key: "container"
    value {
      s: ""
    }
  }
  attr {
    key: "dtype"
    value {
      type: DT_FLOAT
    }
  }
  attr {
    key: "shape"
    value {
      shape {
        dim {
          size: 512
        }
      }
    }
  }
  attr {
    key: "shared_name"
    value {
      s: "batch_normalization_42/moving_mean"
    }
  }
}
node {
  name: "batch_normalization_40/beta"
  op: "VarHandleOp"
  device: "/job:localhost/replica:0/task:0/device:GPU:0"
  attr {
    key: "container"
    value {
      s: ""
    }
  }
  attr {
    key: "dtype"
    value {
      type: DT_FLOAT
    }
  }
  attr {
    key: "shape"
    value {
      shape {
        dim {
          size: 512
        }
      }
    }
  }
  attr {
    key: "shared_name"
    value {
      s: "batch_normalization_40/beta"
    }
  }
}
node {
  name: "batch_normalization_11/moving_variance"
  op: "VarHandleOp"
  device: "/job:localhost/replica:0/task:0/device:GPU:0"
  attr {
    key: "container"
    value {
      s: ""
    }
  }
  attr {
    key: "dtype"
    value {
      type: DT_FLOAT
    }
  }
  attr {
    key: "shape"
    value {
      shape {
        dim {
          size: 256
        }
      }
    }
  }
  attr {
    key: "shared_name"
    value {
      s: "batch_normalization_11/moving_variance"
    }
  }
}
node {
  name: "conv2d_41/kernel"
  op: "VarHandleOp"
  device: "/job:localhost/replica:0/task:0/device:GPU:0"
  attr {
    key: "container"
    value {
      s: ""
    }
  }
  attr {
    key: "dtype"
    value {
      type: DT_FLOAT
    }
  }
  attr {
    key: "shape"
    value {
      shape {
        dim {
          size: 1
        }
        dim {
          size: 1
        }
        dim {
          size: 512
        }
        dim {
          size: 256
        }
      }
    }
  }
  attr {
    key: "shared_name"
    value {
      s: "conv2d_41/kernel"
    }
  }
}
node {
  name: "batch_normalization_58/moving_variance"
  op: "VarHandleOp"
  device: "/job:localhost/replica:0/task:0/device:GPU:0"
  attr {
    key: "container"
    value {
      s: ""
    }
  }
  attr {
    key: "dtype"
    value {
      type: DT_FLOAT
    }
  }
  attr {
    key: "shape"
    value {
      shape {
        dim {
          size: 256
        }
      }
    }
  }
  attr {
    key: "shared_name"
    value {
      s: "batch_normalization_58/moving_variance"
    }
  }
}
node {
  name: "batch_normalization_41/gamma"
  op: "VarHandleOp"
  device: "/job:localhost/replica:0/task:0/device:GPU:0"
  attr {
    key: "container"
    value {
      s: ""
    }
  }
  attr {
    key: "dtype"
    value {
      type: DT_FLOAT
    }
  }
  attr {
    key: "shape"
    value {
      shape {
        dim {
          size: 256
        }
      }
    }
  }
  attr {
    key: "shared_name"
    value {
      s: "batch_normalization_41/gamma"
    }
  }
}
node {
  name: "batch_normalization_12/moving_mean"
  op: "VarHandleOp"
  device: "/job:localhost/replica:0/task:0/device:GPU:0"
  attr {
    key: "container"
    value {
      s: ""
    }
  }
  attr {
    key: "dtype"
    value {
      type: DT_FLOAT
    }
  }
  attr {
    key: "shape"
    value {
      shape {
        dim {
          size: 128
        }
      }
    }
  }
  attr {
    key: "shared_name"
    value {
      s: "batch_normalization_12/moving_mean"
    }
  }
}
node {
  name: "batch_normalization_41/beta"
  op: "VarHandleOp"
  device: "/job:localhost/replica:0/task:0/device:GPU:0"
  attr {
    key: "container"
    value {
      s: ""
    }
  }
  attr {
    key: "dtype"
    value {
      type: DT_FLOAT
    }
  }
  attr {
    key: "shape"
    value {
      shape {
        dim {
          size: 256
        }
      }
    }
  }
  attr {
    key: "shared_name"
    value {
      s: "batch_normalization_41/beta"
    }
  }
}
node {
  name: "batch_normalization_42/moving_variance"
  op: "VarHandleOp"
  device: "/job:localhost/replica:0/task:0/device:GPU:0"
  attr {
    key: "container"
    value {
      s: ""
    }
  }
  attr {
    key: "dtype"
    value {
      type: DT_FLOAT
    }
  }
  attr {
    key: "shape"
    value {
      shape {
        dim {
          size: 512
        }
      }
    }
  }
  attr {
    key: "shared_name"
    value {
      s: "batch_normalization_42/moving_variance"
    }
  }
}
node {
  name: "conv2d_42/kernel"
  op: "VarHandleOp"
  device: "/job:localhost/replica:0/task:0/device:GPU:0"
  attr {
    key: "container"
    value {
      s: ""
    }
  }
  attr {
    key: "dtype"
    value {
      type: DT_FLOAT
    }
  }
  attr {
    key: "shape"
    value {
      shape {
        dim {
          size: 3
        }
        dim {
          size: 3
        }
        dim {
          size: 256
        }
        dim {
          size: 512
        }
      }
    }
  }
  attr {
    key: "shared_name"
    value {
      s: "conv2d_42/kernel"
    }
  }
}
node {
  name: "batch_normalization_12/moving_variance"
  op: "VarHandleOp"
  device: "/job:localhost/replica:0/task:0/device:GPU:0"
  attr {
    key: "container"
    value {
      s: ""
    }
  }
  attr {
    key: "dtype"
    value {
      type: DT_FLOAT
    }
  }
  attr {
    key: "shape"
    value {
      shape {
        dim {
          size: 128
        }
      }
    }
  }
  attr {
    key: "shared_name"
    value {
      s: "batch_normalization_12/moving_variance"
    }
  }
}
node {
  name: "batch_normalization_42/gamma"
  op: "VarHandleOp"
  device: "/job:localhost/replica:0/task:0/device:GPU:0"
  attr {
    key: "container"
    value {
      s: ""
    }
  }
  attr {
    key: "dtype"
    value {
      type: DT_FLOAT
    }
  }
  attr {
    key: "shape"
    value {
      shape {
        dim {
          size: 512
        }
      }
    }
  }
  attr {
    key: "shared_name"
    value {
      s: "batch_normalization_42/gamma"
    }
  }
}
node {
  name: "batch_normalization_57/moving_mean"
  op: "VarHandleOp"
  device: "/job:localhost/replica:0/task:0/device:GPU:0"
  attr {
    key: "container"
    value {
      s: ""
    }
  }
  attr {
    key: "dtype"
    value {
      type: DT_FLOAT
    }
  }
  attr {
    key: "shape"
    value {
      shape {
        dim {
          size: 1024
        }
      }
    }
  }
  attr {
    key: "shared_name"
    value {
      s: "batch_normalization_57/moving_mean"
    }
  }
}
node {
  name: "batch_normalization_42/beta"
  op: "VarHandleOp"
  device: "/job:localhost/replica:0/task:0/device:GPU:0"
  attr {
    key: "container"
    value {
      s: ""
    }
  }
  attr {
    key: "dtype"
    value {
      type: DT_FLOAT
    }
  }
  attr {
    key: "shape"
    value {
      shape {
        dim {
          size: 512
        }
      }
    }
  }
  attr {
    key: "shared_name"
    value {
      s: "batch_normalization_42/beta"
    }
  }
}
node {
  name: "batch_normalization_13/moving_mean"
  op: "VarHandleOp"
  device: "/job:localhost/replica:0/task:0/device:GPU:0"
  attr {
    key: "container"
    value {
      s: ""
    }
  }
  attr {
    key: "dtype"
    value {
      type: DT_FLOAT
    }
  }
  attr {
    key: "shape"
    value {
      shape {
        dim {
          size: 256
        }
      }
    }
  }
  attr {
    key: "shared_name"
    value {
      s: "batch_normalization_13/moving_mean"
    }
  }
}
node {
  name: "conv2d_43/kernel"
  op: "VarHandleOp"
  device: "/job:localhost/replica:0/task:0/device:GPU:0"
  attr {
    key: "container"
    value {
      s: ""
    }
  }
  attr {
    key: "dtype"
    value {
      type: DT_FLOAT
    }
  }
  attr {
    key: "shape"
    value {
      shape {
        dim {
          size: 3
        }
        dim {
          size: 3
        }
        dim {
          size: 512
        }
        dim {
          size: 1024
        }
      }
    }
  }
  attr {
    key: "shared_name"
    value {
      s: "conv2d_43/kernel"
    }
  }
}
node {
  name: "batch_normalization_43/moving_mean"
  op: "VarHandleOp"
  device: "/job:localhost/replica:0/task:0/device:GPU:0"
  attr {
    key: "container"
    value {
      s: ""
    }
  }
  attr {
    key: "dtype"
    value {
      type: DT_FLOAT
    }
  }
  attr {
    key: "shape"
    value {
      shape {
        dim {
          size: 1024
        }
      }
    }
  }
  attr {
    key: "shared_name"
    value {
      s: "batch_normalization_43/moving_mean"
    }
  }
}
node {
  name: "batch_normalization_43/gamma"
  op: "VarHandleOp"
  device: "/job:localhost/replica:0/task:0/device:GPU:0"
  attr {
    key: "container"
    value {
      s: ""
    }
  }
  attr {
    key: "dtype"
    value {
      type: DT_FLOAT
    }
  }
  attr {
    key: "shape"
    value {
      shape {
        dim {
          size: 1024
        }
      }
    }
  }
  attr {
    key: "shared_name"
    value {
      s: "batch_normalization_43/gamma"
    }
  }
}
node {
  name: "batch_normalization_13/moving_variance"
  op: "VarHandleOp"
  device: "/job:localhost/replica:0/task:0/device:GPU:0"
  attr {
    key: "container"
    value {
      s: ""
    }
  }
  attr {
    key: "dtype"
    value {
      type: DT_FLOAT
    }
  }
  attr {
    key: "shape"
    value {
      shape {
        dim {
          size: 256
        }
      }
    }
  }
  attr {
    key: "shared_name"
    value {
      s: "batch_normalization_13/moving_variance"
    }
  }
}
node {
  name: "batch_normalization_43/beta"
  op: "VarHandleOp"
  device: "/job:localhost/replica:0/task:0/device:GPU:0"
  attr {
    key: "container"
    value {
      s: ""
    }
  }
  attr {
    key: "dtype"
    value {
      type: DT_FLOAT
    }
  }
  attr {
    key: "shape"
    value {
      shape {
        dim {
          size: 1024
        }
      }
    }
  }
  attr {
    key: "shared_name"
    value {
      s: "batch_normalization_43/beta"
    }
  }
}
node {
  name: "batch_normalization_59/moving_mean"
  op: "VarHandleOp"
  device: "/job:localhost/replica:0/task:0/device:GPU:0"
  attr {
    key: "container"
    value {
      s: ""
    }
  }
  attr {
    key: "dtype"
    value {
      type: DT_FLOAT
    }
  }
  attr {
    key: "shape"
    value {
      shape {
        dim {
          size: 256
        }
      }
    }
  }
  attr {
    key: "shared_name"
    value {
      s: "batch_normalization_59/moving_mean"
    }
  }
}
node {
  name: "conv2d_44/kernel"
  op: "VarHandleOp"
  device: "/job:localhost/replica:0/task:0/device:GPU:0"
  attr {
    key: "container"
    value {
      s: ""
    }
  }
  attr {
    key: "dtype"
    value {
      type: DT_FLOAT
    }
  }
  attr {
    key: "shape"
    value {
      shape {
        dim {
          size: 1
        }
        dim {
          size: 1
        }
        dim {
          size: 1024
        }
        dim {
          size: 512
        }
      }
    }
  }
  attr {
    key: "shared_name"
    value {
      s: "conv2d_44/kernel"
    }
  }
}
node {
  name: "batch_normalization_14/moving_mean"
  op: "VarHandleOp"
  device: "/job:localhost/replica:0/task:0/device:GPU:0"
  attr {
    key: "container"
    value {
      s: ""
    }
  }
  attr {
    key: "dtype"
    value {
      type: DT_FLOAT
    }
  }
  attr {
    key: "shape"
    value {
      shape {
        dim {
          size: 128
        }
      }
    }
  }
  attr {
    key: "shared_name"
    value {
      s: "batch_normalization_14/moving_mean"
    }
  }
}
node {
  name: "batch_normalization_44/gamma"
  op: "VarHandleOp"
  device: "/job:localhost/replica:0/task:0/device:GPU:0"
  attr {
    key: "container"
    value {
      s: ""
    }
  }
  attr {
    key: "dtype"
    value {
      type: DT_FLOAT
    }
  }
  attr {
    key: "shape"
    value {
      shape {
        dim {
          size: 512
        }
      }
    }
  }
  attr {
    key: "shared_name"
    value {
      s: "batch_normalization_44/gamma"
    }
  }
}
node {
  name: "batch_normalization_43/moving_variance"
  op: "VarHandleOp"
  device: "/job:localhost/replica:0/task:0/device:GPU:0"
  attr {
    key: "container"
    value {
      s: ""
    }
  }
  attr {
    key: "dtype"
    value {
      type: DT_FLOAT
    }
  }
  attr {
    key: "shape"
    value {
      shape {
        dim {
          size: 1024
        }
      }
    }
  }
  attr {
    key: "shared_name"
    value {
      s: "batch_normalization_43/moving_variance"
    }
  }
}
node {
  name: "batch_normalization_44/beta"
  op: "VarHandleOp"
  device: "/job:localhost/replica:0/task:0/device:GPU:0"
  attr {
    key: "container"
    value {
      s: ""
    }
  }
  attr {
    key: "dtype"
    value {
      type: DT_FLOAT
    }
  }
  attr {
    key: "shape"
    value {
      shape {
        dim {
          size: 512
        }
      }
    }
  }
  attr {
    key: "shared_name"
    value {
      s: "batch_normalization_44/beta"
    }
  }
}
node {
  name: "batch_normalization_14/moving_variance"
  op: "VarHandleOp"
  device: "/job:localhost/replica:0/task:0/device:GPU:0"
  attr {
    key: "container"
    value {
      s: ""
    }
  }
  attr {
    key: "dtype"
    value {
      type: DT_FLOAT
    }
  }
  attr {
    key: "shape"
    value {
      shape {
        dim {
          size: 128
        }
      }
    }
  }
  attr {
    key: "shared_name"
    value {
      s: "batch_normalization_14/moving_variance"
    }
  }
}
node {
  name: "conv2d_45/kernel"
  op: "VarHandleOp"
  device: "/job:localhost/replica:0/task:0/device:GPU:0"
  attr {
    key: "container"
    value {
      s: ""
    }
  }
  attr {
    key: "dtype"
    value {
      type: DT_FLOAT
    }
  }
  attr {
    key: "shape"
    value {
      shape {
        dim {
          size: 3
        }
        dim {
          size: 3
        }
        dim {
          size: 512
        }
        dim {
          size: 1024
        }
      }
    }
  }
  attr {
    key: "shared_name"
    value {
      s: "conv2d_45/kernel"
    }
  }
}
node {
  name: "batch_normalization_67/moving_variance"
  op: "VarHandleOp"
  device: "/job:localhost/replica:0/task:0/device:GPU:0"
  attr {
    key: "container"
    value {
      s: ""
    }
  }
  attr {
    key: "dtype"
    value {
      type: DT_FLOAT
    }
  }
  attr {
    key: "shape"
    value {
      shape {
        dim {
          size: 256
        }
      }
    }
  }
  attr {
    key: "shared_name"
    value {
      s: "batch_normalization_67/moving_variance"
    }
  }
}
node {
  name: "batch_normalization_45/gamma"
  op: "VarHandleOp"
  device: "/job:localhost/replica:0/task:0/device:GPU:0"
  attr {
    key: "container"
    value {
      s: ""
    }
  }
  attr {
    key: "dtype"
    value {
      type: DT_FLOAT
    }
  }
  attr {
    key: "shape"
    value {
      shape {
        dim {
          size: 1024
        }
      }
    }
  }
  attr {
    key: "shared_name"
    value {
      s: "batch_normalization_45/gamma"
    }
  }
}
node {
  name: "batch_normalization_15/moving_mean"
  op: "VarHandleOp"
  device: "/job:localhost/replica:0/task:0/device:GPU:0"
  attr {
    key: "container"
    value {
      s: ""
    }
  }
  attr {
    key: "dtype"
    value {
      type: DT_FLOAT
    }
  }
  attr {
    key: "shape"
    value {
      shape {
        dim {
          size: 256
        }
      }
    }
  }
  attr {
    key: "shared_name"
    value {
      s: "batch_normalization_15/moving_mean"
    }
  }
}
node {
  name: "batch_normalization_45/beta"
  op: "VarHandleOp"
  device: "/job:localhost/replica:0/task:0/device:GPU:0"
  attr {
    key: "container"
    value {
      s: ""
    }
  }
  attr {
    key: "dtype"
    value {
      type: DT_FLOAT
    }
  }
  attr {
    key: "shape"
    value {
      shape {
        dim {
          size: 1024
        }
      }
    }
  }
  attr {
    key: "shared_name"
    value {
      s: "batch_normalization_45/beta"
    }
  }
}
node {
  name: "batch_normalization_44/moving_mean"
  op: "VarHandleOp"
  device: "/job:localhost/replica:0/task:0/device:GPU:0"
  attr {
    key: "container"
    value {
      s: ""
    }
  }
  attr {
    key: "dtype"
    value {
      type: DT_FLOAT
    }
  }
  attr {
    key: "shape"
    value {
      shape {
        dim {
          size: 512
        }
      }
    }
  }
  attr {
    key: "shared_name"
    value {
      s: "batch_normalization_44/moving_mean"
    }
  }
}
node {
  name: "conv2d_46/kernel"
  op: "VarHandleOp"
  device: "/job:localhost/replica:0/task:0/device:GPU:0"
  attr {
    key: "container"
    value {
      s: ""
    }
  }
  attr {
    key: "dtype"
    value {
      type: DT_FLOAT
    }
  }
  attr {
    key: "shape"
    value {
      shape {
        dim {
          size: 1
        }
        dim {
          size: 1
        }
        dim {
          size: 1024
        }
        dim {
          size: 512
        }
      }
    }
  }
  attr {
    key: "shared_name"
    value {
      s: "conv2d_46/kernel"
    }
  }
}
node {
  name: "batch_normalization_15/moving_variance"
  op: "VarHandleOp"
  device: "/job:localhost/replica:0/task:0/device:GPU:0"
  attr {
    key: "container"
    value {
      s: ""
    }
  }
  attr {
    key: "dtype"
    value {
      type: DT_FLOAT
    }
  }
  attr {
    key: "shape"
    value {
      shape {
        dim {
          size: 256
        }
      }
    }
  }
  attr {
    key: "shared_name"
    value {
      s: "batch_normalization_15/moving_variance"
    }
  }
}
node {
  name: "batch_normalization_46/gamma"
  op: "VarHandleOp"
  device: "/job:localhost/replica:0/task:0/device:GPU:0"
  attr {
    key: "container"
    value {
      s: ""
    }
  }
  attr {
    key: "dtype"
    value {
      type: DT_FLOAT
    }
  }
  attr {
    key: "shape"
    value {
      shape {
        dim {
          size: 512
        }
      }
    }
  }
  attr {
    key: "shared_name"
    value {
      s: "batch_normalization_46/gamma"
    }
  }
}
node {
  name: "batch_normalization_59/moving_variance"
  op: "VarHandleOp"
  device: "/job:localhost/replica:0/task:0/device:GPU:0"
  attr {
    key: "container"
    value {
      s: ""
    }
  }
  attr {
    key: "dtype"
    value {
      type: DT_FLOAT
    }
  }
  attr {
    key: "shape"
    value {
      shape {
        dim {
          size: 256
        }
      }
    }
  }
  attr {
    key: "shared_name"
    value {
      s: "batch_normalization_59/moving_variance"
    }
  }
}
node {
  name: "batch_normalization_46/beta"
  op: "VarHandleOp"
  device: "/job:localhost/replica:0/task:0/device:GPU:0"
  attr {
    key: "container"
    value {
      s: ""
    }
  }
  attr {
    key: "dtype"
    value {
      type: DT_FLOAT
    }
  }
  attr {
    key: "shape"
    value {
      shape {
        dim {
          size: 512
        }
      }
    }
  }
  attr {
    key: "shared_name"
    value {
      s: "batch_normalization_46/beta"
    }
  }
}
node {
  name: "batch_normalization_16/moving_mean"
  op: "VarHandleOp"
  device: "/job:localhost/replica:0/task:0/device:GPU:0"
  attr {
    key: "container"
    value {
      s: ""
    }
  }
  attr {
    key: "dtype"
    value {
      type: DT_FLOAT
    }
  }
  attr {
    key: "shape"
    value {
      shape {
        dim {
          size: 128
        }
      }
    }
  }
  attr {
    key: "shared_name"
    value {
      s: "batch_normalization_16/moving_mean"
    }
  }
}
node {
  name: "conv2d_47/kernel"
  op: "VarHandleOp"
  device: "/job:localhost/replica:0/task:0/device:GPU:0"
  attr {
    key: "container"
    value {
      s: ""
    }
  }
  attr {
    key: "dtype"
    value {
      type: DT_FLOAT
    }
  }
  attr {
    key: "shape"
    value {
      shape {
        dim {
          size: 3
        }
        dim {
          size: 3
        }
        dim {
          size: 512
        }
        dim {
          size: 1024
        }
      }
    }
  }
  attr {
    key: "shared_name"
    value {
      s: "conv2d_47/kernel"
    }
  }
}
node {
  name: "batch_normalization_44/moving_variance"
  op: "VarHandleOp"
  device: "/job:localhost/replica:0/task:0/device:GPU:0"
  attr {
    key: "container"
    value {
      s: ""
    }
  }
  attr {
    key: "dtype"
    value {
      type: DT_FLOAT
    }
  }
  attr {
    key: "shape"
    value {
      shape {
        dim {
          size: 512
        }
      }
    }
  }
  attr {
    key: "shared_name"
    value {
      s: "batch_normalization_44/moving_variance"
    }
  }
}
node {
  name: "batch_normalization_47/gamma"
  op: "VarHandleOp"
  device: "/job:localhost/replica:0/task:0/device:GPU:0"
  attr {
    key: "container"
    value {
      s: ""
    }
  }
  attr {
    key: "dtype"
    value {
      type: DT_FLOAT
    }
  }
  attr {
    key: "shape"
    value {
      shape {
        dim {
          size: 1024
        }
      }
    }
  }
  attr {
    key: "shared_name"
    value {
      s: "batch_normalization_47/gamma"
    }
  }
}
node {
  name: "batch_normalization_16/moving_variance"
  op: "VarHandleOp"
  device: "/job:localhost/replica:0/task:0/device:GPU:0"
  attr {
    key: "container"
    value {
      s: ""
    }
  }
  attr {
    key: "dtype"
    value {
      type: DT_FLOAT
    }
  }
  attr {
    key: "shape"
    value {
      shape {
        dim {
          size: 128
        }
      }
    }
  }
  attr {
    key: "shared_name"
    value {
      s: "batch_normalization_16/moving_variance"
    }
  }
}
node {
  name: "batch_normalization_47/beta"
  op: "VarHandleOp"
  device: "/job:localhost/replica:0/task:0/device:GPU:0"
  attr {
    key: "container"
    value {
      s: ""
    }
  }
  attr {
    key: "dtype"
    value {
      type: DT_FLOAT
    }
  }
  attr {
    key: "shape"
    value {
      shape {
        dim {
          size: 1024
        }
      }
    }
  }
  attr {
    key: "shared_name"
    value {
      s: "batch_normalization_47/beta"
    }
  }
}
node {
  name: "batch_normalization_71/moving_mean"
  op: "VarHandleOp"
  device: "/job:localhost/replica:0/task:0/device:GPU:0"
  attr {
    key: "container"
    value {
      s: ""
    }
  }
  attr {
    key: "dtype"
    value {
      type: DT_FLOAT
    }
  }
  attr {
    key: "shape"
    value {
      shape {
        dim {
          size: 256
        }
      }
    }
  }
  attr {
    key: "shared_name"
    value {
      s: "batch_normalization_71/moving_mean"
    }
  }
}
node {
  name: "conv2d_48/kernel"
  op: "VarHandleOp"
  device: "/job:localhost/replica:0/task:0/device:GPU:0"
  attr {
    key: "container"
    value {
      s: ""
    }
  }
  attr {
    key: "dtype"
    value {
      type: DT_FLOAT
    }
  }
  attr {
    key: "shape"
    value {
      shape {
        dim {
          size: 1
        }
        dim {
          size: 1
        }
        dim {
          size: 1024
        }
        dim {
          size: 512
        }
      }
    }
  }
  attr {
    key: "shared_name"
    value {
      s: "conv2d_48/kernel"
    }
  }
}
node {
  name: "batch_normalization_17/moving_mean"
  op: "VarHandleOp"
  device: "/job:localhost/replica:0/task:0/device:GPU:0"
  attr {
    key: "container"
    value {
      s: ""
    }
  }
  attr {
    key: "dtype"
    value {
      type: DT_FLOAT
    }
  }
  attr {
    key: "shape"
    value {
      shape {
        dim {
          size: 256
        }
      }
    }
  }
  attr {
    key: "shared_name"
    value {
      s: "batch_normalization_17/moving_mean"
    }
  }
}
node {
  name: "batch_normalization_48/gamma"
  op: "VarHandleOp"
  device: "/job:localhost/replica:0/task:0/device:GPU:0"
  attr {
    key: "container"
    value {
      s: ""
    }
  }
  attr {
    key: "dtype"
    value {
      type: DT_FLOAT
    }
  }
  attr {
    key: "shape"
    value {
      shape {
        dim {
          size: 512
        }
      }
    }
  }
  attr {
    key: "shared_name"
    value {
      s: "batch_normalization_48/gamma"
    }
  }
}
node {
  name: "batch_normalization_45/moving_mean"
  op: "VarHandleOp"
  device: "/job:localhost/replica:0/task:0/device:GPU:0"
  attr {
    key: "container"
    value {
      s: ""
    }
  }
  attr {
    key: "dtype"
    value {
      type: DT_FLOAT
    }
  }
  attr {
    key: "shape"
    value {
      shape {
        dim {
          size: 1024
        }
      }
    }
  }
  attr {
    key: "shared_name"
    value {
      s: "batch_normalization_45/moving_mean"
    }
  }
}
node {
  name: "batch_normalization_48/beta"
  op: "VarHandleOp"
  device: "/job:localhost/replica:0/task:0/device:GPU:0"
  attr {
    key: "container"
    value {
      s: ""
    }
  }
  attr {
    key: "dtype"
    value {
      type: DT_FLOAT
    }
  }
  attr {
    key: "shape"
    value {
      shape {
        dim {
          size: 512
        }
      }
    }
  }
  attr {
    key: "shared_name"
    value {
      s: "batch_normalization_48/beta"
    }
  }
}
node {
  name: "batch_normalization_17/moving_variance"
  op: "VarHandleOp"
  device: "/job:localhost/replica:0/task:0/device:GPU:0"
  attr {
    key: "container"
    value {
      s: ""
    }
  }
  attr {
    key: "dtype"
    value {
      type: DT_FLOAT
    }
  }
  attr {
    key: "shape"
    value {
      shape {
        dim {
          size: 256
        }
      }
    }
  }
  attr {
    key: "shared_name"
    value {
      s: "batch_normalization_17/moving_variance"
    }
  }
}
node {
  name: "conv2d_49/kernel"
  op: "VarHandleOp"
  device: "/job:localhost/replica:0/task:0/device:GPU:0"
  attr {
    key: "container"
    value {
      s: ""
    }
  }
  attr {
    key: "dtype"
    value {
      type: DT_FLOAT
    }
  }
  attr {
    key: "shape"
    value {
      shape {
        dim {
          size: 3
        }
        dim {
          size: 3
        }
        dim {
          size: 512
        }
        dim {
          size: 1024
        }
      }
    }
  }
  attr {
    key: "shared_name"
    value {
      s: "conv2d_49/kernel"
    }
  }
}
node {
  name: "batch_normalization_60/moving_mean"
  op: "VarHandleOp"
  device: "/job:localhost/replica:0/task:0/device:GPU:0"
  attr {
    key: "container"
    value {
      s: ""
    }
  }
  attr {
    key: "dtype"
    value {
      type: DT_FLOAT
    }
  }
  attr {
    key: "shape"
    value {
      shape {
        dim {
          size: 512
        }
      }
    }
  }
  attr {
    key: "shared_name"
    value {
      s: "batch_normalization_60/moving_mean"
    }
  }
}
node {
  name: "batch_normalization_49/gamma"
  op: "VarHandleOp"
  device: "/job:localhost/replica:0/task:0/device:GPU:0"
  attr {
    key: "container"
    value {
      s: ""
    }
  }
  attr {
    key: "dtype"
    value {
      type: DT_FLOAT
    }
  }
  attr {
    key: "shape"
    value {
      shape {
        dim {
          size: 1024
        }
      }
    }
  }
  attr {
    key: "shared_name"
    value {
      s: "batch_normalization_49/gamma"
    }
  }
}
node {
  name: "batch_normalization_18/moving_mean"
  op: "VarHandleOp"
  device: "/job:localhost/replica:0/task:0/device:GPU:0"
  attr {
    key: "container"
    value {
      s: ""
    }
  }
  attr {
    key: "dtype"
    value {
      type: DT_FLOAT
    }
  }
  attr {
    key: "shape"
    value {
      shape {
        dim {
          size: 128
        }
      }
    }
  }
  attr {
    key: "shared_name"
    value {
      s: "batch_normalization_18/moving_mean"
    }
  }
}
node {
  name: "batch_normalization_49/beta"
  op: "VarHandleOp"
  device: "/job:localhost/replica:0/task:0/device:GPU:0"
  attr {
    key: "container"
    value {
      s: ""
    }
  }
  attr {
    key: "dtype"
    value {
      type: DT_FLOAT
    }
  }
  attr {
    key: "shape"
    value {
      shape {
        dim {
          size: 1024
        }
      }
    }
  }
  attr {
    key: "shared_name"
    value {
      s: "batch_normalization_49/beta"
    }
  }
}
node {
  name: "batch_normalization_45/moving_variance"
  op: "VarHandleOp"
  device: "/job:localhost/replica:0/task:0/device:GPU:0"
  attr {
    key: "container"
    value {
      s: ""
    }
  }
  attr {
    key: "dtype"
    value {
      type: DT_FLOAT
    }
  }
  attr {
    key: "shape"
    value {
      shape {
        dim {
          size: 1024
        }
      }
    }
  }
  attr {
    key: "shared_name"
    value {
      s: "batch_normalization_45/moving_variance"
    }
  }
}
node {
  name: "conv2d_50/kernel"
  op: "VarHandleOp"
  device: "/job:localhost/replica:0/task:0/device:GPU:0"
  attr {
    key: "container"
    value {
      s: ""
    }
  }
  attr {
    key: "dtype"
    value {
      type: DT_FLOAT
    }
  }
  attr {
    key: "shape"
    value {
      shape {
        dim {
          size: 1
        }
        dim {
          size: 1
        }
        dim {
          size: 1024
        }
        dim {
          size: 512
        }
      }
    }
  }
  attr {
    key: "shared_name"
    value {
      s: "conv2d_50/kernel"
    }
  }
}
node {
  name: "batch_normalization_18/moving_variance"
  op: "VarHandleOp"
  device: "/job:localhost/replica:0/task:0/device:GPU:0"
  attr {
    key: "container"
    value {
      s: ""
    }
  }
  attr {
    key: "dtype"
    value {
      type: DT_FLOAT
    }
  }
  attr {
    key: "shape"
    value {
      shape {
        dim {
          size: 128
        }
      }
    }
  }
  attr {
    key: "shared_name"
    value {
      s: "batch_normalization_18/moving_variance"
    }
  }
}
node {
  name: "batch_normalization_50/gamma"
  op: "VarHandleOp"
  device: "/job:localhost/replica:0/task:0/device:GPU:0"
  attr {
    key: "container"
    value {
      s: ""
    }
  }
  attr {
    key: "dtype"
    value {
      type: DT_FLOAT
    }
  }
  attr {
    key: "shape"
    value {
      shape {
        dim {
          size: 512
        }
      }
    }
  }
  attr {
    key: "shared_name"
    value {
      s: "batch_normalization_50/gamma"
    }
  }
}
node {
  name: "batch_normalization_68/moving_mean"
  op: "VarHandleOp"
  device: "/job:localhost/replica:0/task:0/device:GPU:0"
  attr {
    key: "container"
    value {
      s: ""
    }
  }
  attr {
    key: "dtype"
    value {
      type: DT_FLOAT
    }
  }
  attr {
    key: "shape"
    value {
      shape {
        dim {
          size: 128
        }
      }
    }
  }
  attr {
    key: "shared_name"
    value {
      s: "batch_normalization_68/moving_mean"
    }
  }
}
node {
  name: "batch_normalization_50/beta"
  op: "VarHandleOp"
  device: "/job:localhost/replica:0/task:0/device:GPU:0"
  attr {
    key: "container"
    value {
      s: ""
    }
  }
  attr {
    key: "dtype"
    value {
      type: DT_FLOAT
    }
  }
  attr {
    key: "shape"
    value {
      shape {
        dim {
          size: 512
        }
      }
    }
  }
  attr {
    key: "shared_name"
    value {
      s: "batch_normalization_50/beta"
    }
  }
}
node {
  name: "batch_normalization_19/moving_mean"
  op: "VarHandleOp"
  device: "/job:localhost/replica:0/task:0/device:GPU:0"
  attr {
    key: "container"
    value {
      s: ""
    }
  }
  attr {
…
  experimental_debug_info {
    original_node_names: "yolov3/yolo_output_2/leaky_re_lu_71/LeakyRelu"
    original_func_names: "__inference__wrapped_model_17043"
  }
}
node {
  name: "StatefulPartitionedCall/StatefulPartitionedCall/yolov3/yolo_output_2/conv2d_74/Conv2D-0-TransposeNHWCToNCHW-LayoutOptimizer"
  op: "Transpose"
  input: "StatefulPartitionedCall/StatefulPartitionedCall/yolov3/yolo_output_2/leaky_re_lu_71/LeakyRelu"
  input: "StatefulPartitionedCall/StatefulPartitionedCall/yolov3/yolo_darknet/conv2d/Conv2D-0-PermConstNHWCToNCHW-LayoutOptimizer"
  device: "/job:localhost/replica:0/task:0/device:GPU:0"
  attr {
    key: "T"
    value {
      type: DT_FLOAT
    }
  }
  attr {
    key: "Tperm"
    value {
      type: DT_INT32
    }
  }
}
node {
  name: "StatefulPartitionedCall/StatefulPartitionedCall/yolov3/yolo_output_2/conv2d_74/Conv2D"
  op: "Conv2D"
  input: "StatefulPartitionedCall/StatefulPartitionedCall/yolov3/yolo_output_2/conv2d_74/Conv2D-0-TransposeNHWCToNCHW-LayoutOptimizer"
  input: "StatefulPartitionedCall/StatefulPartitionedCall/yolov3/yolo_output_2/conv2d_74/Conv2D/ReadVariableOp"
  device: "/job:localhost/replica:0/task:0/device:GPU:0"
  attr {
    key: "T"
    value {
      type: DT_FLOAT
    }
  }
  attr {
    key: "data_format"
    value {
      s: "NCHW"
    }
  }
  attr {
    key: "dilations"
    value {
      list {
        i: 1
        i: 1
        i: 1
        i: 1
      }
    }
  }
  attr {
    key: "explicit_paddings"
    value {
      list {
      }
    }
  }
  attr {
    key: "padding"
    value {
      s: "SAME"
    }
  }
  attr {
    key: "strides"
    value {
      list {
        i: 1
        i: 1
        i: 1
        i: 1
      }
    }
  }
  attr {
    key: "use_cudnn_on_gpu"
    value {
      b: true
    }
  }
  experimental_debug_info {
    original_node_names: "yolov3/yolo_output_2/conv2d_74/Conv2D"
    original_func_names: "__inference__wrapped_model_17043"
  }
}
node {
  name: "StatefulPartitionedCall/StatefulPartitionedCall/yolov3/yolo_output_2/conv2d_74/BiasAdd"
  op: "BiasAdd"
  input: "StatefulPartitionedCall/StatefulPartitionedCall/yolov3/yolo_output_2/conv2d_74/Conv2D"
  input: "StatefulPartitionedCall/StatefulPartitionedCall/yolov3/yolo_output_2/conv2d_74/BiasAdd/ReadVariableOp"
  device: "/job:localhost/replica:0/task:0/device:GPU:0"
  attr {
    key: "T"
    value {
      type: DT_FLOAT
    }
  }
  attr {
    key: "data_format"
    value {
      s: "NCHW"
    }
  }
  experimental_debug_info {
    original_node_names: "yolov3/yolo_output_2/conv2d_74/BiasAdd"
    original_func_names: "__inference__wrapped_model_17043"
  }
}
node {
  name: "StatefulPartitionedCall/StatefulPartitionedCall/yolov3/yolo_output_2/conv2d_74/BiasAdd-0-0-TransposeNCHWToNHWC-LayoutOptimizer"
  op: "Transpose"
  input: "StatefulPartitionedCall/StatefulPartitionedCall/yolov3/yolo_output_2/conv2d_74/BiasAdd"
  input: "StatefulPartitionedCall/StatefulPartitionedCall/yolov3/yolo_output_2/batch_normalization_71/FusedBatchNormV3-0-0-PermConstNCHWToNHWC-LayoutOptimizer"
  device: "/job:localhost/replica:0/task:0/device:GPU:0"
  attr {
    key: "T"
    value {
      type: DT_FLOAT
    }
  }
  attr {
    key: "Tperm"
    value {
      type: DT_INT32
    }
  }
}
node {
  name: "StatefulPartitionedCall/StatefulPartitionedCall/yolov3/yolo_output_2/lambda_2/Shape"
  op: "Shape"
  input: "StatefulPartitionedCall/StatefulPartitionedCall/yolov3/yolo_output_2/conv2d_74/BiasAdd"
  device: "/job:localhost/replica:0/task:0/device:GPU:0"
  attr {
    key: "T"
    value {
      type: DT_FLOAT
    }
  }
  attr {
    key: "out_type"
    value {
      type: DT_INT32
    }
  }
  experimental_debug_info {
    original_node_names: "yolov3/yolo_output_2/lambda_2/Shape"
    original_func_names: "__inference__wrapped_model_17043"
  }
}
node {
  name: "StatefulPartitionedCall/StatefulPartitionedCall/yolov3/yolo_output_2/lambda_2/Shape-0-0-DataFormatVecPermuteNCHWToNHWC-LayoutOptimizer"
  op: "DataFormatVecPermute"
  input: "StatefulPartitionedCall/StatefulPartitionedCall/yolov3/yolo_output_2/lambda_2/Shape"
  device: "/job:localhost/replica:0/task:0/device:GPU:0"
  attr {
    key: "T"
    value {
      type: DT_INT32
    }
  }
  attr {
    key: "_kernel"
    value {
      s: "host"
    }
  }
  attr {
    key: "dst_format"
    value {
      s: "NHWC"
    }
  }
  attr {
    key: "src_format"
    value {
      s: "NCHW"
    }
  }
}
node {
  name: "StatefulPartitionedCall/StatefulPartitionedCall/yolov3/yolo_output_2/lambda_2/strided_slice"
  op: "StridedSlice"
  input: "StatefulPartitionedCall/StatefulPartitionedCall/yolov3/yolo_output_2/lambda_2/Shape-0-0-DataFormatVecPermuteNCHWToNHWC-LayoutOptimizer"
  input: "StatefulPartitionedCall/StatefulPartitionedCall/yolov3/yolo_conv_1/up_sampling2d/strided_slice/stack"
  input: "StatefulPartitionedCall/StatefulPartitionedCall/yolov3/yolo_output_2/lambda_2/strided_slice/stack_1"
  input: "StatefulPartitionedCall/StatefulPartitionedCall/yolov3/yolo_conv_1/up_sampling2d/strided_slice/stack"
  device: "/job:localhost/replica:0/task:0/device:GPU:0"
  attr {
    key: "Index"
    value {
      type: DT_INT32
    }
  }
  attr {
    key: "T"
    value {
      type: DT_INT32
    }
  }
  attr {
    key: "begin_mask"
    value {
      i: 0
    }
  }
  attr {
    key: "ellipsis_mask"
    value {
      i: 0
    }
  }
  attr {
    key: "end_mask"
    value {
      i: 0
    }
  }
  attr {
    key: "new_axis_mask"
    value {
      i: 0
    }
  }
  attr {
    key: "shrink_axis_mask"
    value {
      i: 1
    }
  }
  experimental_debug_info {
    original_node_names: "yolov3/yolo_output_2/lambda_2/strided_slice"
    original_func_names: "__inference__wrapped_model_17043"
  }
}
node {
  name: "StatefulPartitionedCall/StatefulPartitionedCall/yolov3/yolo_output_2/lambda_2/strided_slice_1"
  op: "StridedSlice"
  input: "StatefulPartitionedCall/StatefulPartitionedCall/yolov3/yolo_output_2/lambda_2/Shape-0-0-DataFormatVecPermuteNCHWToNHWC-LayoutOptimizer"
  input: "StatefulPartitionedCall/StatefulPartitionedCall/yolov3/yolo_output_2/lambda_2/strided_slice/stack_1"
  input: "StatefulPartitionedCall/StatefulPartitionedCall/yolov3/yolo_conv_1/up_sampling2d/strided_slice/stack_1"
  input: "StatefulPartitionedCall/StatefulPartitionedCall/yolov3/yolo_conv_1/up_sampling2d/strided_slice/stack"
  device: "/job:localhost/replica:0/task:0/device:GPU:0"
  attr {
    key: "Index"
    value {
      type: DT_INT32
    }
  }
  attr {
    key: "T"
    value {
      type: DT_INT32
    }
  }
  attr {
    key: "begin_mask"
    value {
      i: 0
    }
  }
  attr {
    key: "ellipsis_mask"
    value {
      i: 0
    }
  }
  attr {
    key: "end_mask"
    value {
      i: 0
    }
  }
  attr {
    key: "new_axis_mask"
    value {
      i: 0
    }
  }
  attr {
    key: "shrink_axis_mask"
    value {
      i: 1
    }
  }
  experimental_debug_info {
    original_node_names: "yolov3/yolo_output_2/lambda_2/strided_slice_1"
    original_func_names: "__inference__wrapped_model_17043"
  }
}
node {
  name: "StatefulPartitionedCall/StatefulPartitionedCall/yolov3/yolo_output_2/lambda_2/Reshape/shape"
  op: "Pack"
  input: "StatefulPartitionedCall/StatefulPartitionedCall/yolov3/yolo_output_2/lambda_2/Reshape/shape/0"
  input: "StatefulPartitionedCall/StatefulPartitionedCall/yolov3/yolo_output_2/lambda_2/strided_slice"
  input: "StatefulPartitionedCall/StatefulPartitionedCall/yolov3/yolo_output_2/lambda_2/strided_slice_1"
  input: "StatefulPartitionedCall/StatefulPartitionedCall/yolov3/yolo_conv_1/concatenate/concat/axis"
  input: "StatefulPartitionedCall/StatefulPartitionedCall/yolov3/yolo_output_2/lambda_2/Reshape/shape/4"
  device: "/job:localhost/replica:0/task:0/device:GPU:0"
  attr {
    key: "N"
    value {
      i: 5
    }
  }
  attr {
    key: "T"
    value {
      type: DT_INT32
    }
  }
  attr {
    key: "axis"
    value {
      i: 0
    }
  }
  experimental_debug_info {
    original_node_names: "yolov3/yolo_output_2/lambda_2/Reshape/shape"
    original_func_names: "__inference__wrapped_model_17043"
  }
}
node {
  name: "StatefulPartitionedCall/StatefulPartitionedCall/yolov3/yolo_output_2/lambda_2/Reshape"
  op: "Reshape"
  input: "StatefulPartitionedCall/StatefulPartitionedCall/yolov3/yolo_output_2/conv2d_74/BiasAdd-0-0-TransposeNCHWToNHWC-LayoutOptimizer"
  input: "StatefulPartitionedCall/StatefulPartitionedCall/yolov3/yolo_output_2/lambda_2/Reshape/shape"
  device: "/job:localhost/replica:0/task:0/device:GPU:0"
  attr {
    key: "T"
    value {
      type: DT_FLOAT
    }
  }
  attr {
    key: "Tshape"
    value {
      type: DT_INT32
    }
  }
  experimental_debug_info {
    original_node_names: "yolov3/yolo_output_2/lambda_2/Reshape"
    original_func_names: "__inference__wrapped_model_17043"
  }
}
node {
  name: "StatefulPartitionedCall/StatefulPartitionedCall/yolov3/yolo_boxes_2/Shape"
  op: "Shape"
  input: "StatefulPartitionedCall/StatefulPartitionedCall/yolov3/yolo_output_2/lambda_2/Reshape"
  device: "/job:localhost/replica:0/task:0/device:GPU:0"
  attr {
    key: "T"
    value {
      type: DT_FLOAT
    }
  }
  attr {
    key: "out_type"
    value {
      type: DT_INT32
    }
  }
  experimental_debug_info {
    original_node_names: "yolov3/yolo_boxes_2/Shape"
    original_func_names: "__inference__wrapped_model_17043"
  }
}
node {
  name: "StatefulPartitionedCall/StatefulPartitionedCall/yolov3/yolo_boxes_2/split"
  op: "SplitV"
  input: "StatefulPartitionedCall/StatefulPartitionedCall/yolov3/yolo_output_2/lambda_2/Reshape"
  input: "StatefulPartitionedCall/StatefulPartitionedCall/yolov3/yolo_boxes_0/Const"
  input: "StatefulPartitionedCall/StatefulPartitionedCall/yolov3/yolo_output_2/lambda_2/Reshape/shape/0"
  device: "/job:localhost/replica:0/task:0/device:GPU:0"
  attr {
    key: "T"
    value {
      type: DT_FLOAT
    }
  }
  attr {
    key: "Tlen"
    value {
      type: DT_INT32
    }
  }
  attr {
    key: "num_split"
    value {
      i: 4
    }
  }
  experimental_debug_info {
    original_node_names: "yolov3/yolo_boxes_2/split"
    original_func_names: "__inference__wrapped_model_17043"
  }
}
node {
  name: "StatefulPartitionedCall/StatefulPartitionedCall/yolov3/yolo_boxes_2/strided_slice"
  op: "StridedSlice"
  input: "StatefulPartitionedCall/StatefulPartitionedCall/yolov3/yolo_boxes_2/Shape"
  input: "StatefulPartitionedCall/StatefulPartitionedCall/yolov3/yolo_conv_1/up_sampling2d/strided_slice/stack"
  input: "StatefulPartitionedCall/StatefulPartitionedCall/yolov3/yolo_output_2/lambda_2/strided_slice/stack_1"
  input: "StatefulPartitionedCall/StatefulPartitionedCall/yolov3/yolo_conv_1/up_sampling2d/strided_slice/stack"
  device: "/job:localhost/replica:0/task:0/device:GPU:0"
  attr {
    key: "Index"
    value {
      type: DT_INT32
    }
  }
  attr {
    key: "T"
    value {
      type: DT_INT32
    }
  }
  attr {
    key: "begin_mask"
    value {
      i: 0
    }
  }
  attr {
    key: "ellipsis_mask"
    value {
      i: 0
    }
  }
  attr {
    key: "end_mask"
    value {
      i: 0
    }
  }
  attr {
    key: "new_axis_mask"
    value {
      i: 0
    }
  }
  attr {
    key: "shrink_axis_mask"
    value {
      i: 1
    }
  }
  experimental_debug_info {
    original_node_names: "yolov3/yolo_boxes_2/strided_slice"
    original_func_names: "__inference__wrapped_model_17043"
  }
}
node {
  name: "StatefulPartitionedCall/StatefulPartitionedCall/yolov3/yolo_boxes_2/Sigmoid"
  op: "Sigmoid"
  input: "StatefulPartitionedCall/StatefulPartitionedCall/yolov3/yolo_boxes_2/split"
  device: "/job:localhost/replica:0/task:0/device:GPU:0"
  attr {
    key: "T"
    value {
      type: DT_FLOAT
    }
  }
  experimental_debug_info {
    original_node_names: "yolov3/yolo_boxes_2/Sigmoid"
    original_func_names: "__inference__wrapped_model_17043"
  }
}
node {
  name: "StatefulPartitionedCall/StatefulPartitionedCall/yolov3/yolo_boxes_2/Exp"
  op: "Exp"
  input: "StatefulPartitionedCall/StatefulPartitionedCall/yolov3/yolo_boxes_2/split:1"
  device: "/job:localhost/replica:0/task:0/device:GPU:0"
  attr {
    key: "T"
    value {
      type: DT_FLOAT
    }
  }
  experimental_debug_info {
    original_node_names: "yolov3/yolo_boxes_2/Exp"
    original_func_names: "__inference__wrapped_model_17043"
  }
}
node {
  name: "StatefulPartitionedCall/StatefulPartitionedCall/yolov3/yolo_boxes_2/Sigmoid_1"
  op: "Sigmoid"
  input: "StatefulPartitionedCall/StatefulPartitionedCall/yolov3/yolo_boxes_2/split:2"
  device: "/job:localhost/replica:0/task:0/device:GPU:0"
  attr {
    key: "T"
    value {
      type: DT_FLOAT
    }
  }
  experimental_debug_info {
    original_node_names: "yolov3/yolo_boxes_2/Sigmoid_1"
    original_func_names: "__inference__wrapped_model_17043"
  }
}
node {
  name: "StatefulPartitionedCall/StatefulPartitionedCall/yolov3/yolo_boxes_2/Sigmoid_2"
  op: "Sigmoid"
  input: "StatefulPartitionedCall/StatefulPartitionedCall/yolov3/yolo_boxes_2/split:3"
  device: "/job:localhost/replica:0/task:0/device:GPU:0"
  attr {
    key: "T"
    value {
      type: DT_FLOAT
    }
  }
  experimental_debug_info {
    original_node_names: "yolov3/yolo_boxes_2/Sigmoid_2"
    original_func_names: "__inference__wrapped_model_17043"
  }
}
node {
  name: "StatefulPartitionedCall/StatefulPartitionedCall/yolov3/yolo_boxes_2/range"
  op: "Range"
  input: "StatefulPartitionedCall/StatefulPartitionedCall/yolov3/yolo_boxes_0/range/start"
  input: "StatefulPartitionedCall/StatefulPartitionedCall/yolov3/yolo_boxes_2/strided_slice"
  input: "StatefulPartitionedCall/StatefulPartitionedCall/yolov3/yolo_boxes_0/range/delta"
  device: "/job:localhost/replica:0/task:0/device:GPU:0"
  attr {
    key: "Tidx"
    value {
      type: DT_INT32
    }
  }
  experimental_debug_info {
    original_node_names: "yolov3/yolo_boxes_2/range"
    original_func_names: "__inference__wrapped_model_17043"
  }
}
node {
  name: "StatefulPartitionedCall/StatefulPartitionedCall/yolov3/yolo_boxes_2/Cast_1"
  op: "Cast"
  input: "StatefulPartitionedCall/StatefulPartitionedCall/yolov3/yolo_boxes_2/strided_slice"
  device: "/job:localhost/replica:0/task:0/device:GPU:0"
  attr {
    key: "DstT"
    value {
      type: DT_FLOAT
    }
  }
  attr {
    key: "SrcT"
    value {
      type: DT_INT32
    }
  }
  attr {
    key: "Truncate"
    value {
      b: false
    }
  }
  experimental_debug_info {
    original_node_names: "yolov3/yolo_boxes_2/Cast_1"
    original_func_names: "__inference__wrapped_model_17043"
  }
}
node {
  name: "StatefulPartitionedCall/StatefulPartitionedCall/yolov3/yolo_boxes_2/truediv_1"
  op: "Mul"
  input: "StatefulPartitionedCall/StatefulPartitionedCall/yolov3/yolo_boxes_2/Exp"
  input: "StatefulPartitionedCall/StatefulPartitionedCall/yolov3/yolo_boxes_2/mul"
  device: "/job:localhost/replica:0/task:0/device:GPU:0"
  attr {
    key: "T"
    value {
      type: DT_FLOAT
    }
  }
  attr {
    key: "_grappler_ArithmeticOptimizer_MinimizeBroadcasts"
    value {
      b: true
    }
  }
  experimental_debug_info {
    original_node_names: "yolov3/yolo_boxes_2/truediv_1"
    original_func_names: "__inference__wrapped_model_17043"
  }
}
node {
  name: "StatefulPartitionedCall/StatefulPartitionedCall/yolov3/yolo_nms/Shape_14"
  op: "Shape"
  input: "StatefulPartitionedCall/StatefulPartitionedCall/yolov3/yolo_boxes_2/Sigmoid_1"
  device: "/job:localhost/replica:0/task:0/device:GPU:0"
  attr {
    key: "T"
    value {
      type: DT_FLOAT
    }
  }
  attr {
    key: "out_type"
    value {
      type: DT_INT32
    }
  }
  experimental_debug_info {
    original_node_names: "yolov3/yolo_nms/Shape_14"
    original_func_names: "__inference__wrapped_model_17043"
  }
}
node {
  name: "StatefulPartitionedCall/StatefulPartitionedCall/yolov3/yolo_nms/Shape_16"
  op: "Shape"
  input: "StatefulPartitionedCall/StatefulPartitionedCall/yolov3/yolo_boxes_2/Sigmoid_2"
  device: "/job:localhost/replica:0/task:0/device:GPU:0"
  attr {
    key: "T"
    value {
      type: DT_FLOAT
    }
  }
  attr {
    key: "out_type"
    value {
      type: DT_INT32
    }
  }
  experimental_debug_info {
    original_node_names: "yolov3/yolo_nms/Shape_16"
    original_func_names: "__inference__wrapped_model_17043"
  }
}
node {
  name: "StatefulPartitionedCall/StatefulPartitionedCall/yolov3/yolo_boxes_2/meshgrid/Size"
  op: "Size"
  input: "StatefulPartitionedCall/StatefulPartitionedCall/yolov3/yolo_boxes_2/range"
  device: "/job:localhost/replica:0/task:0/device:GPU:0"
  attr {
    key: "T"
    value {
      type: DT_INT32
    }
  }
  attr {
    key: "out_type"
    value {
      type: DT_INT32
    }
  }
  experimental_debug_info {
    original_node_names: "yolov3/yolo_boxes_2/meshgrid/Size"
    original_func_names: "__inference__wrapped_model_17043"
  }
}
node {
  name: "StatefulPartitionedCall/StatefulPartitionedCall/yolov3/yolo_boxes_2/meshgrid/Reshape_2"
  op: "Reshape"
  input: "StatefulPartitionedCall/StatefulPartitionedCall/yolov3/yolo_boxes_2/range"
  input: "StatefulPartitionedCall/StatefulPartitionedCall/yolov3/yolo_boxes_0/meshgrid/Reshape_1/shape"
  device: "/job:localhost/replica:0/task:0/device:GPU:0"
  attr {
    key: "T"
    value {
      type: DT_INT32
    }
  }
  attr {
    key: "Tshape"
    value {
      type: DT_INT32
    }
  }
  experimental_debug_info {
    original_node_names: "yolov3/yolo_boxes_2/meshgrid/Reshape_2"
    original_func_names: "__inference__wrapped_model_17043"
  }
}
node {
  name: "StatefulPartitionedCall/StatefulPartitionedCall/yolov3/yolo_boxes_2/meshgrid/Reshape_3"
  op: "Reshape"
  input: "StatefulPartitionedCall/StatefulPartitionedCall/yolov3/yolo_boxes_2/range"
  input: "StatefulPartitionedCall/StatefulPartitionedCall/yolov3/yolo_boxes_0/meshgrid/Reshape/shape"
  device: "/job:localhost/replica:0/task:0/device:GPU:0"
  attr {
    key: "T"
    value {
      type: DT_INT32
    }
  }
  attr {
    key: "Tshape"
    value {
      type: DT_INT32
    }
  }
  experimental_debug_info {
    original_node_names: "yolov3/yolo_boxes_2/meshgrid/Reshape_3"
    original_func_names: "__inference__wrapped_model_17043"
  }
}
node {
  name: "StatefulPartitionedCall/StatefulPartitionedCall/yolov3/yolo_nms/strided_slice_14"
  op: "StridedSlice"
  input: "StatefulPartitionedCall/StatefulPartitionedCall/yolov3/yolo_nms/Shape_14"
  input: "StatefulPartitionedCall/StatefulPartitionedCall/yolov3/yolo_nms/strided_slice/stack"
  input: "StatefulPartitionedCall/StatefulPartitionedCall/yolov3/yolo_conv_1/up_sampling2d/strided_slice/stack"
  input: "StatefulPartitionedCall/StatefulPartitionedCall/yolov3/yolo_conv_1/up_sampling2d/strided_slice/stack"
  device: "/job:localhost/replica:0/task:0/device:GPU:0"
  attr {
    key: "Index"
    value {
      type: DT_INT32
    }
  }
  attr {
    key: "T"
    value {
      type: DT_INT32
    }
  }
  attr {
    key: "begin_mask"
    value {
      i: 0
    }
  }
  attr {
    key: "ellipsis_mask"
    value {
      i: 0
    }
  }
  attr {
    key: "end_mask"
    value {
      i: 0
    }
  }
  attr {
    key: "new_axis_mask"
    value {
      i: 0
    }
  }
  attr {
    key: "shrink_axis_mask"
    value {
      i: 1
    }
  }
  experimental_debug_info {
    original_node_names: "yolov3/yolo_nms/strided_slice_14"
    original_func_names: "__inference__wrapped_model_17043"
  }
}
node {
  name: "StatefulPartitionedCall/StatefulPartitionedCall/yolov3/yolo_nms/strided_slice_15"
  op: "StridedSlice"
  input: "StatefulPartitionedCall/StatefulPartitionedCall/yolov3/yolo_nms/Shape_14"
  input: "StatefulPartitionedCall/StatefulPartitionedCall/yolov3/yolo_nms/strided_slice_1/stack"
  input: "StatefulPartitionedCall/StatefulPartitionedCall/yolov3/yolo_nms/strided_slice/stack"
  input: "StatefulPartitionedCall/StatefulPartitionedCall/yolov3/yolo_conv_1/up_sampling2d/strided_slice/stack"
  device: "/job:localhost/replica:0/task:0/device:GPU:0"
  attr {
    key: "Index"
    value {
      type: DT_INT32
    }
  }
  attr {
    key: "T"
    value {
      type: DT_INT32
    }
  }
  attr {
    key: "begin_mask"
    value {
      i: 0
    }
  }
  attr {
    key: "ellipsis_mask"
    value {
      i: 0
    }
  }
  attr {
    key: "end_mask"
    value {
      i: 0
    }
  }
  attr {
    key: "new_axis_mask"
    value {
      i: 0
    }
  }
  attr {
    key: "shrink_axis_mask"
    value {
      i: 1
    }
  }
  experimental_debug_info {
    original_node_names: "yolov3/yolo_nms/strided_slice_15"
    original_func_names: "__inference__wrapped_model_17043"
  }
}
node {
  name: "StatefulPartitionedCall/StatefulPartitionedCall/yolov3/yolo_nms/strided_slice_16"
  op: "StridedSlice"
  input: "StatefulPartitionedCall/StatefulPartitionedCall/yolov3/yolo_nms/Shape_16"
  input: "StatefulPartitionedCall/StatefulPartitionedCall/yolov3/yolo_nms/strided_slice/stack"
  input: "StatefulPartitionedCall/StatefulPartitionedCall/yolov3/yolo_conv_1/up_sampling2d/strided_slice/stack"
  input: "StatefulPartitionedCall/StatefulPartitionedCall/yolov3/yolo_conv_1/up_sampling2d/strided_slice/stack"
  device: "/job:localhost/replica:0/task:0/device:GPU:0"
  attr {
    key: "Index"
    value {
      type: DT_INT32
    }
  }
  attr {
    key: "T"
    value {
      type: DT_INT32
    }
  }
  attr {
    key: "begin_mask"
    value {
      i: 0
    }
  }
  attr {
    key: "ellipsis_mask"
    value {
      i: 0
    }
  }
  attr {
    key: "end_mask"
    value {
      i: 0
    }
  }
  attr {
    key: "new_axis_mask"
    value {
      i: 0
    }
  }
  attr {
    key: "shrink_axis_mask"
    value {
      i: 1
    }
  }
  experimental_debug_info {
    original_node_names: "yolov3/yolo_nms/strided_slice_16"
    original_func_names: "__inference__wrapped_model_17043"
  }
}
node {
  name: "StatefulPartitionedCall/StatefulPartitionedCall/yolov3/yolo_nms/strided_slice_17"
  op: "StridedSlice"
  input: "StatefulPartitionedCall/StatefulPartitionedCall/yolov3/yolo_nms/Shape_16"
  input: "StatefulPartitionedCall/StatefulPartitionedCall/yolov3/yolo_nms/strided_slice_1/stack"
  input: "StatefulPartitionedCall/StatefulPartitionedCall/yolov3/yolo_nms/strided_slice/stack"
  input: "StatefulPartitionedCall/StatefulPartitionedCall/yolov3/yolo_conv_1/up_sampling2d/strided_slice/stack"
  device: "/job:localhost/replica:0/task:0/device:GPU:0"
  attr {
    key: "Index"
    value {
      type: DT_INT32
    }
  }
  attr {
    key: "T"
    value {
      type: DT_INT32
    }
  }
  attr {
    key: "begin_mask"
    value {
      i: 0
    }
  }
  attr {
    key: "ellipsis_mask"
    value {
      i: 0
    }
  }
  attr {
    key: "end_mask"
    value {
      i: 0
    }
  }
  attr {
    key: "new_axis_mask"
    value {
      i: 0
    }
  }
  attr {
    key: "shrink_axis_mask"
    value {
      i: 1
    }
  }
  experimental_debug_info {
    original_node_names: "yolov3/yolo_nms/strided_slice_17"
    original_func_names: "__inference__wrapped_model_17043"
  }
}
node {
  name: "StatefulPartitionedCall/StatefulPartitionedCall/yolov3/yolo_boxes_2/meshgrid/ones/packed"
  op: "Pack"
  input: "StatefulPartitionedCall/StatefulPartitionedCall/yolov3/yolo_boxes_2/meshgrid/Size"
  input: "StatefulPartitionedCall/StatefulPartitionedCall/yolov3/yolo_boxes_2/meshgrid/Size"
  device: "/job:localhost/replica:0/task:0/device:GPU:0"
  attr {
    key: "N"
    value {
      i: 2
    }
  }
  attr {
    key: "T"
    value {
      type: DT_INT32
    }
  }
  attr {
    key: "axis"
    value {
      i: 0
    }
  }
  experimental_debug_info {
    original_node_names: "yolov3/yolo_boxes_2/meshgrid/ones/packed"
    original_func_names: "__inference__wrapped_model_17043"
  }
}
node {
  name: "StatefulPartitionedCall/StatefulPartitionedCall/yolov3/yolo_nms/Reshape_7/shape"
  op: "Pack"
  input: "StatefulPartitionedCall/StatefulPartitionedCall/yolov3/yolo_nms/strided_slice_14"
  input: "StatefulPartitionedCall/StatefulPartitionedCall/yolov3/yolo_output_2/lambda_2/Reshape/shape/0"
  input: "StatefulPartitionedCall/StatefulPartitionedCall/yolov3/yolo_nms/strided_slice_15"
  device: "/job:localhost/replica:0/task:0/device:GPU:0"
  attr {
    key: "N"
    value {
      i: 3
    }
  }
  attr {
    key: "T"
    value {
      type: DT_INT32
    }
  }
  attr {
    key: "axis"
    value {
      i: 0
    }
  }
  experimental_debug_info {
    original_node_names: "yolov3/yolo_nms/Reshape_7/shape"
    original_func_names: "__inference__wrapped_model_17043"
  }
}
node {
  name: "StatefulPartitionedCall/StatefulPartitionedCall/yolov3/yolo_nms/Reshape_8/shape"
  op: "Pack"
  input: "StatefulPartitionedCall/StatefulPartitionedCall/yolov3/yolo_nms/strided_slice_16"
  input: "StatefulPartitionedCall/StatefulPartitionedCall/yolov3/yolo_output_2/lambda_2/Reshape/shape/0"
  input: "StatefulPartitionedCall/StatefulPartitionedCall/yolov3/yolo_nms/strided_slice_17"
  device: "/job:localhost/replica:0/task:0/device:GPU:0"
  attr {
    key: "N"
    value {
      i: 3
    }
  }
  attr {
    key: "T"
    value {
      type: DT_INT32
    }
  }
  attr {
    key: "axis"
    value {
      i: 0
    }
  }
  experimental_debug_info {
    original_node_names: "yolov3/yolo_nms/Reshape_8/shape"
    original_func_names: "__inference__wrapped_model_17043"
  }
}
node {
  name: "StatefulPartitionedCall/StatefulPartitionedCall/yolov3/yolo_boxes_2/meshgrid/ones"
  op: "Fill"
  input: "StatefulPartitionedCall/StatefulPartitionedCall/yolov3/yolo_boxes_2/meshgrid/ones/packed"
  input: "StatefulPartitionedCall/StatefulPartitionedCall/yolov3/yolo_boxes_0/range/delta"
  device: "/job:localhost/replica:0/task:0/device:GPU:0"
  attr {
    key: "T"
    value {
      type: DT_INT32
    }
  }
  attr {
    key: "index_type"
    value {
      type: DT_INT32
    }
  }
  experimental_debug_info {
    original_node_names: "yolov3/yolo_boxes_2/meshgrid/ones"
    original_func_names: "__inference__wrapped_model_17043"
  }
}
node {
  name: "StatefulPartitionedCall/StatefulPartitionedCall/yolov3/yolo_nms/Reshape_7"
  op: "Reshape"
  input: "StatefulPartitionedCall/StatefulPartitionedCall/yolov3/yolo_boxes_2/Sigmoid_1"
  input: "StatefulPartitionedCall/StatefulPartitionedCall/yolov3/yolo_nms/Reshape_7/shape"
  device: "/job:localhost/replica:0/task:0/device:GPU:0"
  attr {
    key: "T"
    value {
      type: DT_FLOAT
    }
  }
  attr {
    key: "Tshape"
    value {
      type: DT_INT32
    }
  }
  experimental_debug_info {
    original_node_names: "yolov3/yolo_nms/Reshape_7"
    original_func_names: "__inference__wrapped_model_17043"
  }
}
node {
  name: "StatefulPartitionedCall/StatefulPartitionedCall/yolov3/yolo_nms/Reshape_8"
  op: "Reshape"
  input: "StatefulPartitionedCall/StatefulPartitionedCall/yolov3/yolo_boxes_2/Sigmoid_2"
  input: "StatefulPartitionedCall/StatefulPartitionedCall/yolov3/yolo_nms/Reshape_8/shape"
  device: "/job:localhost/replica:0/task:0/device:GPU:0"
  attr {
    key: "T"
    value {
      type: DT_FLOAT
    }
  }
  attr {
    key: "Tshape"
    value {
      type: DT_INT32
    }
  }
  experimental_debug_info {
    original_node_names: "yolov3/yolo_nms/Reshape_8"
    original_func_names: "__inference__wrapped_model_17043"
  }
}
node {
  name: "StatefulPartitionedCall/StatefulPartitionedCall/yolov3/yolo_boxes_2/meshgrid/mul"
  op: "Mul"
  input: "StatefulPartitionedCall/StatefulPartitionedCall/yolov3/yolo_boxes_2/meshgrid/Reshape_2"
  input: "StatefulPartitionedCall/StatefulPartitionedCall/yolov3/yolo_boxes_2/meshgrid/ones"
  device: "/job:localhost/replica:0/task:0/device:GPU:0"
  attr {
    key: "T"
    value {
      type: DT_INT32
    }
  }
  experimental_debug_info {
    original_node_names: "yolov3/yolo_boxes_2/meshgrid/mul"
    original_func_names: "__inference__wrapped_model_17043"
  }
}
node {
  name: "StatefulPartitionedCall/StatefulPartitionedCall/yolov3/yolo_boxes_2/meshgrid/mul_1"
  op: "Mul"
  input: "StatefulPartitionedCall/StatefulPartitionedCall/yolov3/yolo_boxes_2/meshgrid/Reshape_3"
  input: "StatefulPartitionedCall/StatefulPartitionedCall/yolov3/yolo_boxes_2/meshgrid/ones"
  device: "/job:localhost/replica:0/task:0/device:GPU:0"
  attr {
    key: "T"
    value {
      type: DT_INT32
    }
  }
  experimental_debug_info {
    original_node_names: "yolov3/yolo_boxes_2/meshgrid/mul_1"
    original_func_names: "__inference__wrapped_model_17043"
  }
}
node {
  name: "StatefulPartitionedCall/StatefulPartitionedCall/yolov3/yolo_nms/concat_1"
  op: "ConcatV2"
  input: "StatefulPartitionedCall/StatefulPartitionedCall/yolov3/yolo_nms/Reshape_1"
  input: "StatefulPartitionedCall/StatefulPartitionedCall/yolov3/yolo_nms/Reshape_4"
  input: "StatefulPartitionedCall/StatefulPartitionedCall/yolov3/yolo_nms/Reshape_7"
  input: "StatefulPartitionedCall/StatefulPartitionedCall/yolov3/yolo_boxes_0/range/delta"
  device: "/job:localhost/replica:0/task:0/device:GPU:0"
  attr {
    key: "N"
    value {
      i: 3
    }
  }
  attr {
    key: "T"
    value {
      type: DT_FLOAT
    }
  }
  attr {
    key: "Tidx"
    value {
      type: DT_INT32
    }
  }
  experimental_debug_info {
    original_node_names: "yolov3/yolo_nms/concat_1"
    original_func_names: "__inference__wrapped_model_17043"
  }
}
node {
  name: "StatefulPartitionedCall/StatefulPartitionedCall/yolov3/yolo_nms/concat_2"
  op: "ConcatV2"
  input: "StatefulPartitionedCall/StatefulPartitionedCall/yolov3/yolo_nms/Reshape_2"
  input: "StatefulPartitionedCall/StatefulPartitionedCall/yolov3/yolo_nms/Reshape_5"
  input: "StatefulPartitionedCall/StatefulPartitionedCall/yolov3/yolo_nms/Reshape_8"
  input: "StatefulPartitionedCall/StatefulPartitionedCall/yolov3/yolo_boxes_0/range/delta"
  device: "/job:localhost/replica:0/task:0/device:GPU:0"
  attr {
    key: "N"
    value {
      i: 3
    }
  }
  attr {
    key: "T"
    value {
      type: DT_FLOAT
    }
  }
  attr {
    key: "Tidx"
    value {
      type: DT_INT32
    }
  }
  experimental_debug_info {
    original_node_names: "yolov3/yolo_nms/concat_2"
    original_func_names: "__inference__wrapped_model_17043"
  }
}
node {
  name: "StatefulPartitionedCall/StatefulPartitionedCall/yolov3/yolo_boxes_2/stack"
  op: "Pack"
  input: "StatefulPartitionedCall/StatefulPartitionedCall/yolov3/yolo_boxes_2/meshgrid/mul"
  input: "StatefulPartitionedCall/StatefulPartitionedCall/yolov3/yolo_boxes_2/meshgrid/mul_1"
  device: "/job:localhost/replica:0/task:0/device:GPU:0"
  attr {
    key: "N"
    value {
      i: 2
    }
  }
  attr {
    key: "T"
    value {
      type: DT_INT32
    }
  }
  attr {
    key: "axis"
    value {
      i: -1
    }
  }
  experimental_debug_info {
    original_node_names: "yolov3/yolo_boxes_2/stack"
    original_func_names: "__inference__wrapped_model_17043"
  }
}
node {
  name: "StatefulPartitionedCall/StatefulPartitionedCall/yolov3/yolo_nms/mul"
  op: "Mul"
  input: "StatefulPartitionedCall/StatefulPartitionedCall/yolov3/yolo_nms/concat_1"
  input: "StatefulPartitionedCall/StatefulPartitionedCall/yolov3/yolo_nms/concat_2"
  device: "/job:localhost/replica:0/task:0/device:GPU:0"
  attr {
    key: "T"
    value {
      type: DT_FLOAT
    }
  }
  experimental_debug_info {
    original_node_names: "yolov3/yolo_nms/mul"
    original_func_names: "__inference__wrapped_model_17043"
  }
}
node {
  name: "StatefulPartitionedCall/StatefulPartitionedCall/yolov3/yolo_boxes_2/ExpandDims"
  op: "ExpandDims"
  input: "StatefulPartitionedCall/StatefulPartitionedCall/yolov3/yolo_boxes_2/stack"
  input: "StatefulPartitionedCall/StatefulPartitionedCall/yolov3/yolo_boxes_0/ExpandDims/dim"
  device: "/job:localhost/replica:0/task:0/device:GPU:0"
  attr {
    key: "T"
    value {
      type: DT_INT32
    }
  }
  attr {
    key: "Tdim"
    value {
      type: DT_INT32
    }
  }
  experimental_debug_info {
    original_node_names: "yolov3/yolo_boxes_2/ExpandDims"
    original_func_names: "__inference__wrapped_model_17043"
  }
}
node {
  name: "StatefulPartitionedCall/StatefulPartitionedCall/yolov3/yolo_nms/Shape_19"
  op: "Shape"
  input: "StatefulPartitionedCall/StatefulPartitionedCall/yolov3/yolo_nms/mul"
  device: "/job:localhost/replica:0/task:0/device:GPU:0"
  attr {
    key: "T"
    value {
      type: DT_FLOAT
    }
  }
  attr {
    key: "out_type"
    value {
      type: DT_INT32
    }
  }
  experimental_debug_info {
    original_node_names: "yolov3/yolo_nms/Shape_19"
    original_func_names: "__inference__wrapped_model_17043"
  }
}
node {
  name: "StatefulPartitionedCall/StatefulPartitionedCall/yolov3/yolo_boxes_2/Cast"
  op: "Cast"
  input: "StatefulPartitionedCall/StatefulPartitionedCall/yolov3/yolo_boxes_2/ExpandDims"
  device: "/job:localhost/replica:0/task:0/device:GPU:0"
  attr {
    key: "DstT"
    value {
      type: DT_FLOAT
    }
  }
  attr {
    key: "SrcT"
    value {
      type: DT_INT32
    }
  }
  attr {
    key: "Truncate"
    value {
      b: false
    }
  }
  experimental_debug_info {
    original_node_names: "yolov3/yolo_boxes_2/Cast"
    original_func_names: "__inference__wrapped_model_17043"
  }
}
node {
  name: "StatefulPartitionedCall/StatefulPartitionedCall/yolov3/yolo_nms/strided_slice_19"
  op: "StridedSlice"
  input: "StatefulPartitionedCall/StatefulPartitionedCall/yolov3/yolo_nms/Shape_19"
  input: "StatefulPartitionedCall/StatefulPartitionedCall/yolov3/yolo_nms/strided_slice/stack"
  input: "StatefulPartitionedCall/StatefulPartitionedCall/yolov3/yolo_conv_1/up_sampling2d/strided_slice/stack"
  input: "StatefulPartitionedCall/StatefulPartitionedCall/yolov3/yolo_conv_1/up_sampling2d/strided_slice/stack"
  device: "/job:localhost/replica:0/task:0/device:GPU:0"
  attr {
    key: "Index"
    value {
      type: DT_INT32
    }
  }
  attr {
    key: "T"
    value {
      type: DT_INT32
    }
  }
  attr {
    key: "begin_mask"
    value {
      i: 0
    }
  }
  attr {
    key: "ellipsis_mask"
    value {
      i: 0
    }
  }
  attr {
    key: "end_mask"
    value {
      i: 0
    }
  }
  attr {
    key: "new_axis_mask"
    value {
      i: 0
    }
  }
  attr {
    key: "shrink_axis_mask"
    value {
      i: 1
    }
  }
  experimental_debug_info {
    original_node_names: "yolov3/yolo_nms/strided_slice_19"
    original_func_names: "__inference__wrapped_model_17043"
  }
}
node {
  name: "StatefulPartitionedCall/StatefulPartitionedCall/yolov3/yolo_nms/strided_slice_20"
  op: "StridedSlice"
  input: "StatefulPartitionedCall/StatefulPartitionedCall/yolov3/yolo_nms/Shape_19"
  input: "StatefulPartitionedCall/StatefulPartitionedCall/yolov3/yolo_nms/strided_slice_1/stack"
  input: "StatefulPartitionedCall/StatefulPartitionedCall/yolov3/yolo_nms/strided_slice/stack"
  input: "StatefulPartitionedCall/StatefulPartitionedCall/yolov3/yolo_conv_1/up_sampling2d/strided_slice/stack"
  device: "/job:localhost/replica:0/task:0/device:GPU:0"
  attr {
    key: "Index"
    value {
      type: DT_INT32
    }
  }
  attr {
    key: "T"
    value {
      type: DT_INT32
    }
  }
  attr {
    key: "begin_mask"
    value {
      i: 0
    }
  }
  attr {
    key: "ellipsis_mask"
    value {
      i: 0
    }
  }
  attr {
    key: "end_mask"
    value {
      i: 0
    }
  }
  attr {
    key: "new_axis_mask"
    value {
      i: 0
    }
  }
  attr {
    key: "shrink_axis_mask"
    value {
      i: 1
    }
  }
  experimental_debug_info {
    original_node_names: "yolov3/yolo_nms/strided_slice_20"
    original_func_names: "__inference__wrapped_model_17043"
  }
}
node {
  name: "StatefulPartitionedCall/StatefulPartitionedCall/yolov3/yolo_boxes_2/add"
  op: "AddV2"
  input: "StatefulPartitionedCall/StatefulPartitionedCall/yolov3/yolo_boxes_2/Cast"
  input: "StatefulPartitionedCall/StatefulPartitionedCall/yolov3/yolo_boxes_2/Sigmoid"
  device: "/job:localhost/replica:0/task:0/device:GPU:0"
  attr {
    key: "T"
    value {
      type: DT_FLOAT
    }
  }
  experimental_debug_info {
    original_node_names: "yolov3/yolo_boxes_2/add"
    original_func_names: "__inference__wrapped_model_17043"
  }
}
node {
  name: "StatefulPartitionedCall/StatefulPartitionedCall/yolov3/yolo_nms/Reshape_10/shape"
  op: "Pack"
  input: "StatefulPartitionedCall/StatefulPartitionedCall/yolov3/yolo_nms/strided_slice_19"
  input: "StatefulPartitionedCall/StatefulPartitionedCall/yolov3/yolo_output_2/lambda_2/Reshape/shape/0"
  input: "StatefulPartitionedCall/StatefulPartitionedCall/yolov3/yolo_nms/strided_slice_20"
  device: "/job:localhost/replica:0/task:0/device:GPU:0"
  attr {
    key: "N"
    value {
      i: 3
    }
  }
  attr {
    key: "T"
    value {
      type: DT_INT32
    }
  }
  attr {
    key: "axis"
    value {
      i: 0
    }
  }
  experimental_debug_info {
    original_node_names: "yolov3/yolo_nms/Reshape_10/shape"
    original_func_names: "__inference__wrapped_model_17043"
  }
}
node {
  name: "StatefulPartitionedCall/StatefulPartitionedCall/yolov3/yolo_boxes_2/truediv"
  op: "RealDiv"
  input: "StatefulPartitionedCall/StatefulPartitionedCall/yolov3/yolo_boxes_2/add"
  input: "StatefulPartitionedCall/StatefulPartitionedCall/yolov3/yolo_boxes_2/Cast_1"
  device: "/job:localhost/replica:0/task:0/device:GPU:0"
  attr {
    key: "T"
    value {
      type: DT_FLOAT
    }
  }
  experimental_debug_info {
    original_node_names: "yolov3/yolo_boxes_2/truediv"
    original_func_names: "__inference__wrapped_model_17043"
  }
}
node {
  name: "StatefulPartitionedCall/StatefulPartitionedCall/yolov3/yolo_nms/Reshape_10"
  op: "Reshape"
  input: "StatefulPartitionedCall/StatefulPartitionedCall/yolov3/yolo_nms/mul"
  input: "StatefulPartitionedCall/StatefulPartitionedCall/yolov3/yolo_nms/Reshape_10/shape"
  device: "/job:localhost/replica:0/task:0/device:GPU:0"
  attr {
    key: "T"
    value {
      type: DT_FLOAT
    }
  }
  attr {
    key: "Tshape"
    value {
      type: DT_INT32
    }
  }
  experimental_debug_info {
    original_node_names: "yolov3/yolo_nms/Reshape_10"
    original_func_names: "__inference__wrapped_model_17043"
  }
}
node {
  name: "StatefulPartitionedCall/StatefulPartitionedCall/yolov3/yolo_boxes_2/sub"
  op: "Sub"
  input: "StatefulPartitionedCall/StatefulPartitionedCall/yolov3/yolo_boxes_2/truediv"
  input: "StatefulPartitionedCall/StatefulPartitionedCall/yolov3/yolo_boxes_2/truediv_1"
  device: "/job:localhost/replica:0/task:0/device:GPU:0"
  attr {
    key: "T"
    value {
      type: DT_FLOAT
    }
  }
  experimental_debug_info {
    original_node_names: "yolov3/yolo_boxes_2/sub"
    original_func_names: "__inference__wrapped_model_17043"
  }
}
node {
  name: "StatefulPartitionedCall/StatefulPartitionedCall/yolov3/yolo_boxes_2/add_1"
  op: "AddV2"
  input: "StatefulPartitionedCall/StatefulPartitionedCall/yolov3/yolo_boxes_2/truediv"
  input: "StatefulPartitionedCall/StatefulPartitionedCall/yolov3/yolo_boxes_2/truediv_1"
  device: "/job:localhost/replica:0/task:0/device:GPU:0"
  attr {
    key: "T"
    value {
      type: DT_FLOAT
    }
  }
  experimental_debug_info {
    original_node_names: "yolov3/yolo_boxes_2/add_1"
    original_func_names: "__inference__wrapped_model_17043"
  }
}
node {
  name: "StatefulPartitionedCall/StatefulPartitionedCall/yolov3/yolo_boxes_2/concat_1"
  op: "ConcatV2"
  input: "StatefulPartitionedCall/StatefulPartitionedCall/yolov3/yolo_boxes_2/sub"
  input: "StatefulPartitionedCall/StatefulPartitionedCall/yolov3/yolo_boxes_2/add_1"
  input: "StatefulPartitionedCall/StatefulPartitionedCall/yolov3/yolo_output_2/lambda_2/Reshape/shape/0"
  device: "/job:localhost/replica:0/task:0/device:GPU:0"
  attr {
    key: "N"
    value {
      i: 2
    }
  }
  attr {
    key: "T"
    value {
      type: DT_FLOAT
    }
  }
  attr {
    key: "Tidx"
    value {
      type: DT_INT32
    }
  }
  experimental_debug_info {
    original_node_names: "yolov3/yolo_boxes_2/concat_1"
    original_func_names: "__inference__wrapped_model_17043"
  }
}
node {
  name: "StatefulPartitionedCall/StatefulPartitionedCall/yolov3/yolo_nms/Shape_12"
  op: "Shape"
  input: "StatefulPartitionedCall/StatefulPartitionedCall/yolov3/yolo_boxes_2/concat_1"
  device: "/job:localhost/replica:0/task:0/device:GPU:0"
  attr {
    key: "T"
    value {
      type: DT_FLOAT
    }
  }
  attr {
    key: "out_type"
    value {
      type: DT_INT32
    }
  }
  experimental_debug_info {
    original_node_names: "yolov3/yolo_nms/Shape_12"
    original_func_names: "__inference__wrapped_model_17043"
  }
}
node {
  name: "StatefulPartitionedCall/StatefulPartitionedCall/yolov3/yolo_nms/strided_slice_12"
  op: "StridedSlice"
  input: "StatefulPartitionedCall/StatefulPartitionedCall/yolov3/yolo_nms/Shape_12"
  input: "StatefulPartitionedCall/StatefulPartitionedCall/yolov3/yolo_nms/strided_slice/stack"
  input: "StatefulPartitionedCall/StatefulPartitionedCall/yolov3/yolo_conv_1/up_sampling2d/strided_slice/stack"
  input: "StatefulPartitionedCall/StatefulPartitionedCall/yolov3/yolo_conv_1/up_sampling2d/strided_slice/stack"
  device: "/job:localhost/replica:0/task:0/device:GPU:0"
  attr {
    key: "Index"
    value {
      type: DT_INT32
    }
  }
  attr {
    key: "T"
    value {
      type: DT_INT32
    }
  }
  attr {
    key: "begin_mask"
    value {
      i: 0
    }
  }
  attr {
    key: "ellipsis_mask"
    value {
      i: 0
    }
  }
  attr {
    key: "end_mask"
    value {
      i: 0
    }
  }
  attr {
    key: "new_axis_mask"
    value {
      i: 0
    }
  }
  attr {
    key: "shrink_axis_mask"
    value {
      i: 1
    }
  }
  experimental_debug_info {
    original_node_names: "yolov3/yolo_nms/strided_slice_12"
    original_func_names: "__inference__wrapped_model_17043"
  }
}
node {
  name: "StatefulPartitionedCall/StatefulPartitionedCall/yolov3/yolo_nms/strided_slice_13"
  op: "StridedSlice"
  input: "StatefulPartitionedCall/StatefulPartitionedCall/yolov3/yolo_nms/Shape_12"
  input: "StatefulPartitionedCall/StatefulPartitionedCall/yolov3/yolo_nms/strided_slice_1/stack"
  input: "StatefulPartitionedCall/StatefulPartitionedCall/yolov3/yolo_nms/strided_slice/stack"
  input: "StatefulPartitionedCall/StatefulPartitionedCall/yolov3/yolo_conv_1/up_sampling2d/strided_slice/stack"
  device: "/job:localhost/replica:0/task:0/device:GPU:0"
  attr {
    key: "Index"
    value {
      type: DT_INT32
    }
  }
  attr {
    key: "T"
    value {
      type: DT_INT32
    }
  }
  attr {
    key: "begin_mask"
    value {
      i: 0
    }
  }
  attr {
    key: "ellipsis_mask"
    value {
      i: 0
    }
  }
  attr {
    key: "end_mask"
    value {
      i: 0
    }
  }
  attr {
    key: "new_axis_mask"
    value {
      i: 0
    }
  }
  attr {
    key: "shrink_axis_mask"
    value {
      i: 1
    }
  }
  experimental_debug_info {
    original_node_names: "yolov3/yolo_nms/strided_slice_13"
    original_func_names: "__inference__wrapped_model_17043"
  }
}
node {
  name: "StatefulPartitionedCall/StatefulPartitionedCall/yolov3/yolo_nms/Reshape_6/shape"
  op: "Pack"
  input: "StatefulPartitionedCall/StatefulPartitionedCall/yolov3/yolo_nms/strided_slice_12"
  input: "StatefulPartitionedCall/StatefulPartitionedCall/yolov3/yolo_output_2/lambda_2/Reshape/shape/0"
  input: "StatefulPartitionedCall/StatefulPartitionedCall/yolov3/yolo_nms/strided_slice_13"
  device: "/job:localhost/replica:0/task:0/device:GPU:0"
  attr {
    key: "N"
    value {
      i: 3
    }
  }
  attr {
    key: "T"
    value {
      type: DT_INT32
    }
  }
  attr {
    key: "axis"
    value {
      i: 0
    }
  }
  experimental_debug_info {
    original_node_names: "yolov3/yolo_nms/Reshape_6/shape"
    original_func_names: "__inference__wrapped_model_17043"
  }
}
node {
  name: "StatefulPartitionedCall/StatefulPartitionedCall/yolov3/yolo_nms/Reshape_6"
  op: "Reshape"
  input: "StatefulPartitionedCall/StatefulPartitionedCall/yolov3/yolo_boxes_2/concat_1"
  input: "StatefulPartitionedCall/StatefulPartitionedCall/yolov3/yolo_nms/Reshape_6/shape"
  device: "/job:localhost/replica:0/task:0/device:GPU:0"
  attr {
    key: "T"
    value {
      type: DT_FLOAT
    }
  }
  attr {
    key: "Tshape"
    value {
      type: DT_INT32
    }
  }
  experimental_debug_info {
    original_node_names: "yolov3/yolo_nms/Reshape_6"
    original_func_names: "__inference__wrapped_model_17043"
  }
}
node {
  name: "StatefulPartitionedCall/StatefulPartitionedCall/yolov3/yolo_nms/concat"
  op: "ConcatV2"
  input: "StatefulPartitionedCall/StatefulPartitionedCall/yolov3/yolo_nms/Reshape"
  input: "StatefulPartitionedCall/StatefulPartitionedCall/yolov3/yolo_nms/Reshape_3"
  input: "StatefulPartitionedCall/StatefulPartitionedCall/yolov3/yolo_nms/Reshape_6"
  input: "StatefulPartitionedCall/StatefulPartitionedCall/yolov3/yolo_boxes_0/range/delta"
  device: "/job:localhost/replica:0/task:0/device:GPU:0"
  attr {
    key: "N"
    value {
      i: 3
    }
  }
  attr {
    key: "T"
    value {
      type: DT_FLOAT
    }
  }
  attr {
    key: "Tidx"
    value {
      type: DT_INT32
    }
  }
  experimental_debug_info {
    original_node_names: "yolov3/yolo_nms/concat"
    original_func_names: "__inference__wrapped_model_17043"
  }
}
node {
  name: "StatefulPartitionedCall/StatefulPartitionedCall/yolov3/yolo_nms/Shape_18"
  op: "Shape"
  input: "StatefulPartitionedCall/StatefulPartitionedCall/yolov3/yolo_nms/concat"
  device: "/job:localhost/replica:0/task:0/device:GPU:0"
  attr {
    key: "T"
    value {
      type: DT_FLOAT
    }
  }
  attr {
    key: "out_type"
    value {
      type: DT_INT32
    }
  }
  experimental_debug_info {
    original_node_names: "yolov3/yolo_nms/Shape_18"
    original_func_names: "__inference__wrapped_model_17043"
  }
}
node {
  name: "StatefulPartitionedCall/StatefulPartitionedCall/yolov3/yolo_nms/strided_slice_18"
  op: "StridedSlice"
  input: "StatefulPartitionedCall/StatefulPartitionedCall/yolov3/yolo_nms/Shape_18"
  input: "StatefulPartitionedCall/StatefulPartitionedCall/yolov3/yolo_nms/strided_slice/stack"
  input: "StatefulPartitionedCall/StatefulPartitionedCall/yolov3/yolo_conv_1/up_sampling2d/strided_slice/stack"
  input: "StatefulPartitionedCall/StatefulPartitionedCall/yolov3/yolo_conv_1/up_sampling2d/strided_slice/stack"
  device: "/job:localhost/replica:0/task:0/device:GPU:0"
  attr {
    key: "Index"
    value {
      type: DT_INT32
    }
  }
  attr {
    key: "T"
    value {
      type: DT_INT32
    }
  }
  attr {
    key: "begin_mask"
    value {
      i: 0
    }
  }
  attr {
    key: "ellipsis_mask"
    value {
      i: 0
    }
  }
  attr {
    key: "end_mask"
    value {
      i: 0
    }
  }
  attr {
    key: "new_axis_mask"
    value {
      i: 0
    }
  }
  attr {
    key: "shrink_axis_mask"
    value {
      i: 1
    }
  }
  experimental_debug_info {
    original_node_names: "yolov3/yolo_nms/strided_slice_18"
    original_func_names: "__inference__wrapped_model_17043"
  }
}
node {
  name: "StatefulPartitionedCall/StatefulPartitionedCall/yolov3/yolo_nms/Reshape_9/shape"
  op: "Pack"
  input: "StatefulPartitionedCall/StatefulPartitionedCall/yolov3/yolo_nms/strided_slice_18"
  input: "StatefulPartitionedCall/StatefulPartitionedCall/yolov3/yolo_output_2/lambda_2/Reshape/shape/0"
  input: "StatefulPartitionedCall/StatefulPartitionedCall/yolov3/yolo_boxes_0/range/delta"
  input: "StatefulPartitionedCall/StatefulPartitionedCall/yolov3/yolo_nms/Reshape_9/shape/3"
  device: "/job:localhost/replica:0/task:0/device:GPU:0"
  attr {
    key: "N"
    value {
      i: 4
    }
  }
  attr {
    key: "T"
    value {
      type: DT_INT32
    }
  }
  attr {
    key: "axis"
    value {
      i: 0
    }
  }
  experimental_debug_info {
    original_node_names: "yolov3/yolo_nms/Reshape_9/shape"
    original_func_names: "__inference__wrapped_model_17043"
  }
}
node {
  name: "StatefulPartitionedCall/StatefulPartitionedCall/yolov3/yolo_nms/Reshape_9"
  op: "Reshape"
  input: "StatefulPartitionedCall/StatefulPartitionedCall/yolov3/yolo_nms/concat"
  input: "StatefulPartitionedCall/StatefulPartitionedCall/yolov3/yolo_nms/Reshape_9/shape"
  device: "/job:localhost/replica:0/task:0/device:GPU:0"
  attr {
    key: "T"
    value {
      type: DT_FLOAT
    }
  }
  attr {
    key: "Tshape"
    value {
      type: DT_INT32
    }
  }
  experimental_debug_info {
    original_node_names: "yolov3/yolo_nms/Reshape_9"
    original_func_names: "__inference__wrapped_model_17043"
  }
}
node {
  name: "StatefulPartitionedCall/StatefulPartitionedCall/yolov3/yolo_nms/combined_non_max_suppression/CombinedNonMaxSuppression"
  op: "CombinedNonMaxSuppression"
  input: "StatefulPartitionedCall/StatefulPartitionedCall/yolov3/yolo_nms/Reshape_9"
  input: "StatefulPartitionedCall/StatefulPartitionedCall/yolov3/yolo_nms/Reshape_10"
  input: "StatefulPartitionedCall/StatefulPartitionedCall/yolov3/yolo_nms/combined_non_max_suppression/CombinedNonMaxSuppression/max_output_size_per_class"
  input: "StatefulPartitionedCall/StatefulPartitionedCall/yolov3/yolo_nms/combined_non_max_suppression/CombinedNonMaxSuppression/max_output_size_per_class"
  input: "StatefulPartitionedCall/StatefulPartitionedCall/yolov3/yolo_nms/combined_non_max_suppression/iou_threshold"
  input: "StatefulPartitionedCall/StatefulPartitionedCall/yolov3/yolo_nms/combined_non_max_suppression/iou_threshold"
  device: "/job:localhost/replica:0/task:0/device:CPU:0"
  attr {
    key: "clip_boxes"
    value {
      b: true
    }
  }
  attr {
    key: "pad_per_class"
    value {
      b: false
    }
  }
  experimental_debug_info {
    original_node_names: "yolov3/yolo_nms/combined_non_max_suppression/CombinedNonMaxSuppression"
    original_func_names: "__inference__wrapped_model_17043"
  }
}
node {
  name: "StatefulPartitionedCall"
  op: "IdentityN"
  input: "StatefulPartitionedCall/StatefulPartitionedCall/yolov3/yolo_nms/combined_non_max_suppression/CombinedNonMaxSuppression"
  input: "StatefulPartitionedCall/StatefulPartitionedCall/yolov3/yolo_nms/combined_non_max_suppression/CombinedNonMaxSuppression:1"
  input: "StatefulPartitionedCall/StatefulPartitionedCall/yolov3/yolo_nms/combined_non_max_suppression/CombinedNonMaxSuppression:2"
  input: "StatefulPartitionedCall/StatefulPartitionedCall/yolov3/yolo_nms/combined_non_max_suppression/CombinedNonMaxSuppression:3"
  device: "/job:localhost/replica:0/task:0/device:GPU:0"
  attr {
    key: "T"
    value {
      list {
        type: DT_FLOAT
        type: DT_FLOAT
        type: DT_FLOAT
        type: DT_INT32
      }
    }
  }
}
library {
}
versions {
  producer: 119
  min_consumer: 12
}
