node {
  name: "conv2d/kernel"
  op: "VarHandleOp"
  device: "/job:localhost/replica:0/task:0/device:GPU:0"
  attr {
    key: "container"
    value {
      s: ""
    }
  }
  attr {
    key: "dtype"
    value {
      type: DT_FLOAT
    }
  }
  attr {
    key: "shape"
    value {
      shape {
        dim {
          size: 3
        }
        dim {
          size: 3
        }
        dim {
          size: 3
        }
        dim {
          size: 32
        }
      }
    }
  }
  attr {
    key: "shared_name"
    value {
      s: "conv2d/kernel"
    }
  }
}
node {
  name: "batch_normalization_62/gamma"
  op: "VarHandleOp"
  device: "/job:localhost/replica:0/task:0/device:GPU:0"
  attr {
    key: "container"
    value {
      s: ""
    }
  }
  attr {
    key: "dtype"
    value {
      type: DT_FLOAT
    }
  }
  attr {
    key: "shape"
    value {
      shape {
        dim {
          size: 512
        }
      }
    }
  }
  attr {
    key: "shared_name"
    value {
      s: "batch_normalization_62/gamma"
    }
  }
}
node {
  name: "batch_normalization/gamma"
  op: "VarHandleOp"
  device: "/job:localhost/replica:0/task:0/device:GPU:0"
  attr {
    key: "container"
    value {
      s: ""
    }
  }
  attr {
    key: "dtype"
    value {
      type: DT_FLOAT
    }
  }
  attr {
    key: "shape"
    value {
      shape {
        dim {
          size: 32
        }
      }
    }
  }
  attr {
    key: "shared_name"
    value {
      s: "batch_normalization/gamma"
    }
  }
}
node {
  name: "batch_normalization_27/moving_mean"
  op: "VarHandleOp"
  device: "/job:localhost/replica:0/task:0/device:GPU:0"
  attr {
    key: "container"
    value {
      s: ""
    }
  }
  attr {
    key: "dtype"
    value {
      type: DT_FLOAT
    }
  }
  attr {
    key: "shape"
    value {
      shape {
        dim {
          size: 256
        }
      }
    }
  }
  attr {
    key: "shared_name"
    value {
      s: "batch_normalization_27/moving_mean"
    }
  }
}
node {
  name: "batch_normalization/beta"
  op: "VarHandleOp"
  device: "/job:localhost/replica:0/task:0/device:GPU:0"
  attr {
    key: "container"
    value {
      s: ""
    }
  }
  attr {
    key: "dtype"
    value {
      type: DT_FLOAT
    }
  }
  attr {
    key: "shape"
    value {
      shape {
        dim {
          size: 32
        }
      }
    }
  }
  attr {
    key: "shared_name"
    value {
      s: "batch_normalization/beta"
    }
  }
}
node {
  name: "batch_normalization_62/beta"
  op: "VarHandleOp"
  device: "/job:localhost/replica:0/task:0/device:GPU:0"
  attr {
    key: "container"
    value {
      s: ""
    }
  }
  attr {
    key: "dtype"
    value {
      type: DT_FLOAT
    }
  }
  attr {
    key: "shape"
    value {
      shape {
        dim {
          size: 512
        }
      }
    }
  }
  attr {
    key: "shared_name"
    value {
      s: "batch_normalization_62/beta"
    }
  }
}
node {
  name: "conv2d_1/kernel"
  op: "VarHandleOp"
  device: "/job:localhost/replica:0/task:0/device:GPU:0"
  attr {
    key: "container"
    value {
      s: ""
    }
  }
  attr {
    key: "dtype"
    value {
      type: DT_FLOAT
    }
  }
  attr {
    key: "shape"
    value {
      shape {
        dim {
          size: 3
        }
        dim {
          size: 3
        }
        dim {
          size: 32
        }
        dim {
          size: 64
        }
      }
    }
  }
  attr {
    key: "shared_name"
    value {
      s: "conv2d_1/kernel"
    }
  }
}
node {
  name: "batch_normalization_50/moving_mean"
  op: "VarHandleOp"
  device: "/job:localhost/replica:0/task:0/device:GPU:0"
  attr {
    key: "container"
    value {
      s: ""
    }
  }
  attr {
    key: "dtype"
    value {
      type: DT_FLOAT
    }
  }
  attr {
    key: "shape"
    value {
      shape {
        dim {
          size: 512
        }
      }
    }
  }
  attr {
    key: "shared_name"
    value {
      s: "batch_normalization_50/moving_mean"
    }
  }
}
node {
  name: "batch_normalization_1/gamma"
  op: "VarHandleOp"
  device: "/job:localhost/replica:0/task:0/device:GPU:0"
  attr {
    key: "container"
    value {
      s: ""
    }
  }
  attr {
    key: "dtype"
    value {
      type: DT_FLOAT
    }
  }
  attr {
    key: "shape"
    value {
      shape {
        dim {
          size: 64
        }
      }
    }
  }
  attr {
    key: "shared_name"
    value {
      s: "batch_normalization_1/gamma"
    }
  }
}
node {
  name: "conv2d_64/kernel"
  op: "VarHandleOp"
  device: "/job:localhost/replica:0/task:0/device:GPU:0"
  attr {
    key: "container"
    value {
      s: ""
    }
  }
  attr {
    key: "dtype"
    value {
      type: DT_FLOAT
    }
  }
  attr {
    key: "shape"
    value {
      shape {
        dim {
          size: 1
        }
        dim {
          size: 1
        }
        dim {
          size: 512
        }
        dim {
          size: 256
        }
      }
    }
  }
  attr {
    key: "shared_name"
    value {
      s: "conv2d_64/kernel"
    }
  }
}
node {
  name: "batch_normalization_1/beta"
  op: "VarHandleOp"
  device: "/job:localhost/replica:0/task:0/device:GPU:0"
  attr {
    key: "container"
    value {
      s: ""
    }
  }
  attr {
    key: "dtype"
    value {
      type: DT_FLOAT
    }
  }
  attr {
    key: "shape"
    value {
      shape {
        dim {
          size: 64
        }
      }
    }
  }
  attr {
    key: "shared_name"
    value {
      s: "batch_normalization_1/beta"
    }
  }
}
node {
  name: "batch_normalization_27/moving_variance"
  op: "VarHandleOp"
  device: "/job:localhost/replica:0/task:0/device:GPU:0"
  attr {
    key: "container"
    value {
      s: ""
    }
  }
  attr {
    key: "dtype"
    value {
      type: DT_FLOAT
    }
  }
  attr {
    key: "shape"
    value {
      shape {
        dim {
          size: 256
        }
      }
    }
  }
  attr {
    key: "shared_name"
    value {
      s: "batch_normalization_27/moving_variance"
    }
  }
}
node {
  name: "conv2d_2/kernel"
  op: "VarHandleOp"
  device: "/job:localhost/replica:0/task:0/device:GPU:0"
  attr {
    key: "container"
    value {
      s: ""
    }
  }
  attr {
    key: "dtype"
    value {
      type: DT_FLOAT
    }
  }
  attr {
    key: "shape"
    value {
      shape {
        dim {
          size: 1
        }
        dim {
          size: 1
        }
        dim {
          size: 64
        }
        dim {
          size: 32
        }
      }
    }
  }
  attr {
    key: "shared_name"
    value {
      s: "conv2d_2/kernel"
    }
  }
}
node {
  name: "batch_normalization_63/gamma"
  op: "VarHandleOp"
  device: "/job:localhost/replica:0/task:0/device:GPU:0"
  attr {
    key: "container"
    value {
      s: ""
    }
  }
  attr {
    key: "dtype"
    value {
      type: DT_FLOAT
    }
  }
  attr {
    key: "shape"
    value {
      shape {
        dim {
          size: 256
        }
      }
    }
  }
  attr {
    key: "shared_name"
    value {
      s: "batch_normalization_63/gamma"
    }
  }
}
node {
  name: "batch_normalization_2/gamma"
  op: "VarHandleOp"
  device: "/job:localhost/replica:0/task:0/device:GPU:0"
  attr {
    key: "container"
    value {
      s: ""
    }
  }
  attr {
    key: "dtype"
    value {
      type: DT_FLOAT
    }
  }
  attr {
    key: "shape"
    value {
      shape {
        dim {
          size: 32
        }
      }
    }
  }
  attr {
    key: "shared_name"
    value {
      s: "batch_normalization_2/gamma"
    }
  }
}
node {
  name: "batch_normalization_62/moving_variance"
  op: "VarHandleOp"
  device: "/job:localhost/replica:0/task:0/device:GPU:0"
  attr {
    key: "container"
    value {
      s: ""
    }
  }
  attr {
    key: "dtype"
    value {
      type: DT_FLOAT
    }
  }
  attr {
    key: "shape"
    value {
      shape {
        dim {
          size: 512
        }
      }
    }
  }
  attr {
    key: "shared_name"
    value {
      s: "batch_normalization_62/moving_variance"
    }
  }
}
node {
  name: "batch_normalization_2/beta"
  op: "VarHandleOp"
  device: "/job:localhost/replica:0/task:0/device:GPU:0"
  attr {
    key: "container"
    value {
      s: ""
    }
  }
  attr {
    key: "dtype"
    value {
      type: DT_FLOAT
    }
  }
  attr {
    key: "shape"
    value {
      shape {
        dim {
          size: 32
        }
      }
    }
  }
  attr {
    key: "shared_name"
    value {
      s: "batch_normalization_2/beta"
    }
  }
}
node {
  name: "batch_normalization_63/beta"
  op: "VarHandleOp"
  device: "/job:localhost/replica:0/task:0/device:GPU:0"
  attr {
    key: "container"
    value {
      s: ""
    }
  }
  attr {
    key: "dtype"
    value {
      type: DT_FLOAT
    }
  }
  attr {
    key: "shape"
    value {
      shape {
        dim {
          size: 256
        }
      }
    }
  }
  attr {
    key: "shared_name"
    value {
      s: "batch_normalization_63/beta"
    }
  }
}
node {
  name: "conv2d_3/kernel"
  op: "VarHandleOp"
  device: "/job:localhost/replica:0/task:0/device:GPU:0"
  attr {
    key: "container"
    value {
      s: ""
    }
  }
  attr {
    key: "dtype"
    value {
      type: DT_FLOAT
    }
  }
  attr {
    key: "shape"
    value {
      shape {
        dim {
          size: 3
        }
        dim {
          size: 3
        }
        dim {
          size: 32
        }
        dim {
          size: 64
        }
      }
    }
  }
  attr {
    key: "shared_name"
    value {
      s: "conv2d_3/kernel"
    }
  }
}
node {
  name: "batch_normalization_28/moving_mean"
  op: "VarHandleOp"
  device: "/job:localhost/replica:0/task:0/device:GPU:0"
  attr {
    key: "container"
    value {
      s: ""
    }
  }
  attr {
    key: "dtype"
    value {
      type: DT_FLOAT
    }
  }
  attr {
    key: "shape"
    value {
      shape {
        dim {
          size: 512
        }
      }
    }
  }
  attr {
    key: "shared_name"
    value {
      s: "batch_normalization_28/moving_mean"
    }
  }
}
node {
  name: "batch_normalization_3/gamma"
  op: "VarHandleOp"
  device: "/job:localhost/replica:0/task:0/device:GPU:0"
  attr {
    key: "container"
    value {
      s: ""
    }
  }
  attr {
    key: "dtype"
    value {
      type: DT_FLOAT
    }
  }
  attr {
    key: "shape"
    value {
      shape {
        dim {
          size: 64
        }
      }
    }
  }
  attr {
    key: "shared_name"
    value {
      s: "batch_normalization_3/gamma"
    }
  }
}
node {
  name: "conv2d_67/kernel"
  op: "VarHandleOp"
  device: "/job:localhost/replica:0/task:0/device:GPU:0"
  attr {
    key: "container"
    value {
      s: ""
    }
  }
  attr {
    key: "dtype"
    value {
      type: DT_FLOAT
    }
  }
  attr {
    key: "shape"
    value {
      shape {
        dim {
          size: 1
        }
        dim {
          size: 1
        }
        dim {
          size: 256
        }
        dim {
          size: 128
        }
      }
    }
  }
  attr {
    key: "shared_name"
    value {
      s: "conv2d_67/kernel"
    }
  }
}
node {
  name: "batch_normalization_3/beta"
  op: "VarHandleOp"
  device: "/job:localhost/replica:0/task:0/device:GPU:0"
  attr {
    key: "container"
    value {
      s: ""
    }
  }
  attr {
    key: "dtype"
    value {
      type: DT_FLOAT
    }
  }
  attr {
    key: "shape"
    value {
      shape {
        dim {
          size: 64
        }
      }
    }
  }
  attr {
    key: "shared_name"
    value {
      s: "batch_normalization_3/beta"
    }
  }
}
node {
  name: "batch_normalization_50/moving_variance"
  op: "VarHandleOp"
  device: "/job:localhost/replica:0/task:0/device:GPU:0"
  attr {
    key: "container"
    value {
      s: ""
    }
  }
  attr {
    key: "dtype"
    value {
      type: DT_FLOAT
    }
  }
  attr {
    key: "shape"
    value {
      shape {
        dim {
          size: 512
        }
      }
    }
  }
  attr {
    key: "shared_name"
    value {
      s: "batch_normalization_50/moving_variance"
    }
  }
}
node {
  name: "conv2d_4/kernel"
  op: "VarHandleOp"
  device: "/job:localhost/replica:0/task:0/device:GPU:0"
  attr {
    key: "container"
    value {
      s: ""
    }
  }
  attr {
    key: "dtype"
    value {
      type: DT_FLOAT
    }
  }
  attr {
    key: "shape"
    value {
      shape {
        dim {
          size: 3
        }
        dim {
          size: 3
        }
        dim {
          size: 64
        }
        dim {
          size: 128
        }
      }
    }
  }
  attr {
    key: "shared_name"
    value {
      s: "conv2d_4/kernel"
    }
  }
}
node {
  name: "batch_normalization_65/gamma"
  op: "VarHandleOp"
  device: "/job:localhost/replica:0/task:0/device:GPU:0"
  attr {
    key: "container"
    value {
      s: ""
    }
  }
  attr {
    key: "dtype"
    value {
      type: DT_FLOAT
    }
  }
  attr {
    key: "shape"
    value {
      shape {
        dim {
          size: 128
        }
      }
    }
  }
  attr {
    key: "shared_name"
    value {
      s: "batch_normalization_65/gamma"
    }
  }
}
node {
  name: "batch_normalization_4/gamma"
  op: "VarHandleOp"
  device: "/job:localhost/replica:0/task:0/device:GPU:0"
  attr {
    key: "container"
    value {
      s: ""
    }
  }
  attr {
    key: "dtype"
    value {
      type: DT_FLOAT
    }
  }
  attr {
    key: "shape"
    value {
      shape {
        dim {
          size: 128
        }
      }
    }
  }
  attr {
    key: "shared_name"
    value {
      s: "batch_normalization_4/gamma"
    }
  }
}
node {
  name: "batch_normalization_28/moving_variance"
  op: "VarHandleOp"
  device: "/job:localhost/replica:0/task:0/device:GPU:0"
  attr {
    key: "container"
    value {
      s: ""
    }
  }
  attr {
    key: "dtype"
    value {
      type: DT_FLOAT
    }
  }
  attr {
    key: "shape"
    value {
      shape {
        dim {
          size: 512
        }
      }
    }
  }
  attr {
    key: "shared_name"
    value {
      s: "batch_normalization_28/moving_variance"
    }
  }
}
node {
  name: "batch_normalization_4/beta"
  op: "VarHandleOp"
  device: "/job:localhost/replica:0/task:0/device:GPU:0"
  attr {
    key: "container"
    value {
      s: ""
    }
  }
  attr {
    key: "dtype"
    value {
      type: DT_FLOAT
    }
  }
  attr {
    key: "shape"
    value {
      shape {
        dim {
          size: 128
        }
      }
    }
  }
  attr {
    key: "shared_name"
    value {
      s: "batch_normalization_4/beta"
    }
  }
}
node {
  name: "batch_normalization_65/beta"
  op: "VarHandleOp"
  device: "/job:localhost/replica:0/task:0/device:GPU:0"
  attr {
    key: "container"
    value {
      s: ""
    }
  }
  attr {
    key: "dtype"
    value {
      type: DT_FLOAT
    }
  }
  attr {
    key: "shape"
    value {
      shape {
        dim {
          size: 128
        }
      }
    }
  }
  attr {
    key: "shared_name"
    value {
      s: "batch_normalization_65/beta"
    }
  }
}
node {
  name: "conv2d_5/kernel"
  op: "VarHandleOp"
  device: "/job:localhost/replica:0/task:0/device:GPU:0"
  attr {
    key: "container"
    value {
      s: ""
    }
  }
  attr {
    key: "dtype"
    value {
      type: DT_FLOAT
    }
  }
  attr {
    key: "shape"
    value {
      shape {
        dim {
          size: 1
        }
        dim {
          size: 1
        }
        dim {
          size: 128
        }
        dim {
          size: 64
        }
      }
    }
  }
  attr {
    key: "shared_name"
    value {
      s: "conv2d_5/kernel"
    }
  }
}
node {
  name: "batch_normalization_64/moving_mean"
  op: "VarHandleOp"
  device: "/job:localhost/replica:0/task:0/device:GPU:0"
  attr {
    key: "container"
    value {
      s: ""
    }
  }
  attr {
    key: "dtype"
    value {
      type: DT_FLOAT
    }
  }
  attr {
    key: "shape"
    value {
      shape {
        dim {
          size: 512
        }
      }
    }
  }
  attr {
    key: "shared_name"
    value {
      s: "batch_normalization_64/moving_mean"
    }
  }
}
node {
  name: "batch_normalization_5/gamma"
  op: "VarHandleOp"
  device: "/job:localhost/replica:0/task:0/device:GPU:0"
  attr {
    key: "container"
    value {
      s: ""
    }
  }
  attr {
    key: "dtype"
    value {
      type: DT_FLOAT
    }
  }
  attr {
    key: "shape"
    value {
      shape {
        dim {
          size: 64
        }
      }
    }
  }
  attr {
    key: "shared_name"
    value {
      s: "batch_normalization_5/gamma"
    }
  }
}
node {
  name: "conv2d_68/kernel"
  op: "VarHandleOp"
  device: "/job:localhost/replica:0/task:0/device:GPU:0"
  attr {
    key: "container"
    value {
      s: ""
    }
  }
  attr {
    key: "dtype"
    value {
      type: DT_FLOAT
    }
  }
  attr {
    key: "shape"
    value {
      shape {
        dim {
          size: 1
        }
        dim {
          size: 1
        }
        dim {
          size: 384
        }
        dim {
          size: 128
        }
      }
    }
  }
  attr {
    key: "shared_name"
    value {
      s: "conv2d_68/kernel"
    }
  }
}
node {
  name: "batch_normalization_5/beta"
  op: "VarHandleOp"
  device: "/job:localhost/replica:0/task:0/device:GPU:0"
  attr {
    key: "container"
    value {
      s: ""
    }
  }
  attr {
    key: "dtype"
    value {
      type: DT_FLOAT
    }
  }
  attr {
    key: "shape"
    value {
      shape {
        dim {
          size: 64
        }
      }
    }
  }
  attr {
    key: "shared_name"
    value {
      s: "batch_normalization_5/beta"
    }
  }
}
node {
  name: "batch_normalization_29/moving_mean"
  op: "VarHandleOp"
  device: "/job:localhost/replica:0/task:0/device:GPU:0"
  attr {
    key: "container"
    value {
      s: ""
    }
  }
  attr {
    key: "dtype"
    value {
      type: DT_FLOAT
    }
  }
  attr {
    key: "shape"
    value {
      shape {
        dim {
          size: 256
        }
      }
    }
  }
  attr {
    key: "shared_name"
    value {
      s: "batch_normalization_29/moving_mean"
    }
  }
}
node {
  name: "conv2d_6/kernel"
  op: "VarHandleOp"
  device: "/job:localhost/replica:0/task:0/device:GPU:0"
  attr {
    key: "container"
    value {
      s: ""
    }
  }
  attr {
    key: "dtype"
    value {
      type: DT_FLOAT
    }
  }
  attr {
    key: "shape"
    value {
      shape {
        dim {
          size: 3
        }
        dim {
          size: 3
        }
        dim {
          size: 64
        }
        dim {
          size: 128
        }
      }
    }
  }
  attr {
    key: "shared_name"
    value {
      s: "conv2d_6/kernel"
    }
  }
}
node {
  name: "batch_normalization_66/gamma"
  op: "VarHandleOp"
  device: "/job:localhost/replica:0/task:0/device:GPU:0"
  attr {
    key: "container"
    value {
      s: ""
    }
  }
  attr {
    key: "dtype"
    value {
      type: DT_FLOAT
    }
  }
  attr {
    key: "shape"
    value {
      shape {
        dim {
          size: 128
        }
      }
    }
  }
  attr {
    key: "shared_name"
    value {
      s: "batch_normalization_66/gamma"
    }
  }
}
node {
  name: "batch_normalization_6/gamma"
  op: "VarHandleOp"
  device: "/job:localhost/replica:0/task:0/device:GPU:0"
  attr {
    key: "container"
    value {
      s: ""
    }
  }
  attr {
    key: "dtype"
    value {
      type: DT_FLOAT
    }
  }
  attr {
    key: "shape"
    value {
      shape {
        dim {
          size: 128
        }
      }
    }
  }
  attr {
    key: "shared_name"
    value {
      s: "batch_normalization_6/gamma"
    }
  }
}
node {
  name: "batch_normalization_51/moving_mean"
  op: "VarHandleOp"
  device: "/job:localhost/replica:0/task:0/device:GPU:0"
  attr {
    key: "container"
    value {
      s: ""
    }
  }
  attr {
    key: "dtype"
    value {
      type: DT_FLOAT
    }
  }
  attr {
    key: "shape"
    value {
      shape {
        dim {
          size: 1024
        }
      }
    }
  }
  attr {
    key: "shared_name"
    value {
      s: "batch_normalization_51/moving_mean"
    }
  }
}
node {
  name: "batch_normalization_6/beta"
  op: "VarHandleOp"
  device: "/job:localhost/replica:0/task:0/device:GPU:0"
  attr {
    key: "container"
    value {
      s: ""
    }
  }
  attr {
    key: "dtype"
    value {
      type: DT_FLOAT
    }
  }
  attr {
    key: "shape"
    value {
      shape {
        dim {
          size: 128
        }
      }
    }
  }
  attr {
    key: "shared_name"
    value {
      s: "batch_normalization_6/beta"
    }
  }
}
node {
  name: "batch_normalization_66/beta"
  op: "VarHandleOp"
  device: "/job:localhost/replica:0/task:0/device:GPU:0"
  attr {
    key: "container"
    value {
      s: ""
    }
  }
  attr {
    key: "dtype"
    value {
      type: DT_FLOAT
    }
  }
  attr {
    key: "shape"
    value {
      shape {
        dim {
          size: 128
        }
      }
    }
  }
  attr {
    key: "shared_name"
    value {
      s: "batch_normalization_66/beta"
    }
  }
}
node {
  name: "conv2d_7/kernel"
  op: "VarHandleOp"
  device: "/job:localhost/replica:0/task:0/device:GPU:0"
  attr {
    key: "container"
    value {
      s: ""
    }
  }
  attr {
    key: "dtype"
    value {
      type: DT_FLOAT
    }
  }
  attr {
    key: "shape"
    value {
      shape {
        dim {
          size: 1
        }
        dim {
          size: 1
        }
        dim {
          size: 128
        }
        dim {
          size: 64
        }
      }
    }
  }
  attr {
    key: "shared_name"
    value {
      s: "conv2d_7/kernel"
    }
  }
}
node {
  name: "batch_normalization_29/moving_variance"
  op: "VarHandleOp"
  device: "/job:localhost/replica:0/task:0/device:GPU:0"
  attr {
    key: "container"
    value {
      s: ""
    }
  }
  attr {
    key: "dtype"
    value {
      type: DT_FLOAT
    }
  }
  attr {
    key: "shape"
    value {
      shape {
        dim {
          size: 256
        }
      }
    }
  }
  attr {
    key: "shared_name"
    value {
      s: "batch_normalization_29/moving_variance"
    }
  }
}
node {
  name: "batch_normalization_7/gamma"
  op: "VarHandleOp"
  device: "/job:localhost/replica:0/task:0/device:GPU:0"
  attr {
    key: "container"
    value {
      s: ""
    }
  }
  attr {
    key: "dtype"
    value {
      type: DT_FLOAT
    }
  }
  attr {
    key: "shape"
    value {
      shape {
        dim {
          size: 64
        }
      }
    }
  }
  attr {
    key: "shared_name"
    value {
      s: "batch_normalization_7/gamma"
    }
  }
}
node {
  name: "conv2d_69/kernel"
  op: "VarHandleOp"
  device: "/job:localhost/replica:0/task:0/device:GPU:0"
  attr {
    key: "container"
    value {
      s: ""
    }
  }
  attr {
    key: "dtype"
    value {
      type: DT_FLOAT
    }
  }
  attr {
    key: "shape"
    value {
      shape {
        dim {
          size: 3
        }
        dim {
          size: 3
        }
        dim {
          size: 128
        }
        dim {
          size: 256
        }
      }
    }
  }
  attr {
    key: "shared_name"
    value {
      s: "conv2d_69/kernel"
    }
  }
}
node {
  name: "batch_normalization_7/beta"
  op: "VarHandleOp"
  device: "/job:localhost/replica:0/task:0/device:GPU:0"
  attr {
    key: "container"
    value {
      s: ""
    }
  }
  attr {
    key: "dtype"
    value {
      type: DT_FLOAT
    }
  }
  attr {
    key: "shape"
    value {
      shape {
        dim {
          size: 64
        }
      }
    }
  }
  attr {
    key: "shared_name"
    value {
      s: "batch_normalization_7/beta"
    }
  }
}
node {
  name: "batch_normalization_63/moving_mean"
  op: "VarHandleOp"
  device: "/job:localhost/replica:0/task:0/device:GPU:0"
  attr {
    key: "container"
    value {
      s: ""
    }
  }
  attr {
    key: "dtype"
    value {
      type: DT_FLOAT
    }
  }
  attr {
    key: "shape"
    value {
      shape {
        dim {
          size: 256
        }
      }
    }
  }
  attr {
    key: "shared_name"
    value {
      s: "batch_normalization_63/moving_mean"
    }
  }
}
node {
  name: "conv2d_8/kernel"
  op: "VarHandleOp"
  device: "/job:localhost/replica:0/task:0/device:GPU:0"
  attr {
    key: "container"
    value {
      s: ""
    }
  }
  attr {
    key: "dtype"
    value {
      type: DT_FLOAT
    }
  }
  attr {
    key: "shape"
    value {
      shape {
        dim {
          size: 3
        }
        dim {
          size: 3
        }
        dim {
          size: 64
        }
        dim {
          size: 128
        }
      }
    }
  }
  attr {
    key: "shared_name"
    value {
      s: "conv2d_8/kernel"
    }
  }
}
node {
  name: "batch_normalization_67/gamma"
  op: "VarHandleOp"
  device: "/job:localhost/replica:0/task:0/device:GPU:0"
  attr {
    key: "container"
    value {
      s: ""
    }
  }
  attr {
    key: "dtype"
    value {
      type: DT_FLOAT
    }
  }
  attr {
    key: "shape"
    value {
      shape {
        dim {
          size: 256
        }
      }
    }
  }
  attr {
    key: "shared_name"
    value {
      s: "batch_normalization_67/gamma"
    }
  }
}
node {
  name: "batch_normalization_8/gamma"
  op: "VarHandleOp"
  device: "/job:localhost/replica:0/task:0/device:GPU:0"
  attr {
    key: "container"
    value {
      s: ""
    }
  }
  attr {
    key: "dtype"
    value {
      type: DT_FLOAT
    }
  }
  attr {
    key: "shape"
    value {
      shape {
        dim {
          size: 128
        }
      }
    }
  }
  attr {
    key: "shared_name"
    value {
      s: "batch_normalization_8/gamma"
    }
  }
}
node {
  name: "batch_normalization_30/moving_mean"
  op: "VarHandleOp"
  device: "/job:localhost/replica:0/task:0/device:GPU:0"
  attr {
    key: "container"
    value {
      s: ""
    }
  }
  attr {
    key: "dtype"
    value {
      type: DT_FLOAT
    }
  }
  attr {
    key: "shape"
    value {
      shape {
        dim {
          size: 512
        }
      }
    }
  }
  attr {
    key: "shared_name"
    value {
      s: "batch_normalization_30/moving_mean"
    }
  }
}
node {
  name: "batch_normalization_8/beta"
  op: "VarHandleOp"
  device: "/job:localhost/replica:0/task:0/device:GPU:0"
  attr {
    key: "container"
    value {
      s: ""
    }
  }
  attr {
    key: "dtype"
    value {
      type: DT_FLOAT
    }
  }
  attr {
    key: "shape"
    value {
      shape {
        dim {
          size: 128
        }
      }
    }
  }
  attr {
    key: "shared_name"
    value {
      s: "batch_normalization_8/beta"
    }
  }
}
node {
  name: "batch_normalization_67/beta"
  op: "VarHandleOp"
  device: "/job:localhost/replica:0/task:0/device:GPU:0"
  attr {
    key: "container"
    value {
      s: ""
    }
  }
  attr {
    key: "dtype"
    value {
      type: DT_FLOAT
    }
  }
  attr {
    key: "shape"
    value {
      shape {
        dim {
          size: 256
        }
      }
    }
  }
  attr {
    key: "shared_name"
    value {
      s: "batch_normalization_67/beta"
    }
  }
}
node {
  name: "conv2d_9/kernel"
  op: "VarHandleOp"
  device: "/job:localhost/replica:0/task:0/device:GPU:0"
  attr {
    key: "container"
    value {
      s: ""
    }
  }
  attr {
    key: "dtype"
    value {
      type: DT_FLOAT
    }
  }
  attr {
    key: "shape"
    value {
      shape {
        dim {
          size: 3
        }
        dim {
          size: 3
        }
        dim {
          size: 128
        }
        dim {
          size: 256
        }
      }
    }
  }
  attr {
    key: "shared_name"
    value {
      s: "conv2d_9/kernel"
    }
  }
}
node {
  name: "batch_normalization_51/moving_variance"
  op: "VarHandleOp"
  device: "/job:localhost/replica:0/task:0/device:GPU:0"
  attr {
    key: "container"
    value {
      s: ""
    }
  }
  attr {
    key: "dtype"
    value {
      type: DT_FLOAT
    }
  }
  attr {
    key: "shape"
    value {
      shape {
        dim {
          size: 1024
        }
      }
    }
  }
  attr {
    key: "shared_name"
    value {
      s: "batch_normalization_51/moving_variance"
    }
  }
}
node {
  name: "batch_normalization_9/gamma"
  op: "VarHandleOp"
  device: "/job:localhost/replica:0/task:0/device:GPU:0"
  attr {
    key: "container"
    value {
      s: ""
    }
  }
  attr {
    key: "dtype"
    value {
      type: DT_FLOAT
    }
  }
  attr {
    key: "shape"
    value {
      shape {
        dim {
          size: 256
        }
      }
    }
  }
  attr {
    key: "shared_name"
    value {
      s: "batch_normalization_9/gamma"
    }
  }
}
node {
  name: "conv2d_70/kernel"
  op: "VarHandleOp"
  device: "/job:localhost/replica:0/task:0/device:GPU:0"
  attr {
    key: "container"
    value {
      s: ""
    }
  }
  attr {
    key: "dtype"
    value {
      type: DT_FLOAT
    }
  }
  attr {
    key: "shape"
    value {
      shape {
        dim {
          size: 1
        }
        dim {
          size: 1
        }
        dim {
          size: 256
        }
        dim {
          size: 128
        }
      }
    }
  }
  attr {
    key: "shared_name"
    value {
      s: "conv2d_70/kernel"
    }
  }
}
node {
  name: "batch_normalization_9/beta"
  op: "VarHandleOp"
  device: "/job:localhost/replica:0/task:0/device:GPU:0"
  attr {
    key: "container"
    value {
      s: ""
    }
  }
  attr {
    key: "dtype"
    value {
      type: DT_FLOAT
    }
  }
  attr {
    key: "shape"
    value {
      shape {
        dim {
          size: 256
        }
      }
    }
  }
  attr {
    key: "shared_name"
    value {
      s: "batch_normalization_9/beta"
    }
  }
}
node {
  name: "batch_normalization_30/moving_variance"
  op: "VarHandleOp"
  device: "/job:localhost/replica:0/task:0/device:GPU:0"
  attr {
    key: "container"
    value {
      s: ""
    }
  }
  attr {
    key: "dtype"
    value {
      type: DT_FLOAT
    }
  }
  attr {
    key: "shape"
    value {
      shape {
        dim {
          size: 512
        }
      }
    }
  }
  attr {
    key: "shared_name"
    value {
      s: "batch_normalization_30/moving_variance"
    }
  }
}
node {
  name: "conv2d_10/kernel"
  op: "VarHandleOp"
  device: "/job:localhost/replica:0/task:0/device:GPU:0"
  attr {
    key: "container"
    value {
      s: ""
    }
  }
  attr {
    key: "dtype"
    value {
      type: DT_FLOAT
    }
  }
  attr {
    key: "shape"
    value {
      shape {
        dim {
          size: 1
        }
        dim {
          size: 1
        }
        dim {
          size: 256
        }
        dim {
          size: 128
        }
      }
    }
  }
  attr {
    key: "shared_name"
    value {
      s: "conv2d_10/kernel"
    }
  }
}
node {
  name: "batch_normalization_68/gamma"
  op: "VarHandleOp"
  device: "/job:localhost/replica:0/task:0/device:GPU:0"
  attr {
    key: "container"
    value {
      s: ""
    }
  }
  attr {
    key: "dtype"
    value {
      type: DT_FLOAT
    }
  }
  attr {
    key: "shape"
    value {
      shape {
        dim {
          size: 128
        }
      }
    }
  }
  attr {
    key: "shared_name"
    value {
      s: "batch_normalization_68/gamma"
    }
  }
}
node {
  name: "batch_normalization_10/gamma"
  op: "VarHandleOp"
  device: "/job:localhost/replica:0/task:0/device:GPU:0"
  attr {
    key: "container"
    value {
      s: ""
    }
  }
  attr {
    key: "dtype"
    value {
      type: DT_FLOAT
    }
  }
  attr {
    key: "shape"
    value {
      shape {
        dim {
          size: 128
        }
      }
    }
  }
  attr {
    key: "shared_name"
    value {
      s: "batch_normalization_10/gamma"
    }
  }
}
node {
  name: "batch_normalization_69/moving_variance"
  op: "VarHandleOp"
  device: "/job:localhost/replica:0/task:0/device:GPU:0"
  attr {
    key: "container"
    value {
      s: ""
    }
  }
  attr {
    key: "dtype"
    value {
      type: DT_FLOAT
    }
  }
  attr {
    key: "shape"
    value {
      shape {
        dim {
          size: 256
        }
      }
    }
  }
  attr {
    key: "shared_name"
    value {
      s: "batch_normalization_69/moving_variance"
    }
  }
}
node {
  name: "batch_normalization_10/beta"
  op: "VarHandleOp"
  device: "/job:localhost/replica:0/task:0/device:GPU:0"
  attr {
    key: "container"
    value {
      s: ""
    }
  }
  attr {
    key: "dtype"
    value {
      type: DT_FLOAT
    }
  }
  attr {
    key: "shape"
    value {
      shape {
        dim {
          size: 128
        }
      }
    }
  }
  attr {
    key: "shared_name"
    value {
      s: "batch_normalization_10/beta"
    }
  }
}
node {
  name: "batch_normalization_68/beta"
  op: "VarHandleOp"
  device: "/job:localhost/replica:0/task:0/device:GPU:0"
  attr {
    key: "container"
    value {
      s: ""
    }
  }
  attr {
    key: "dtype"
    value {
      type: DT_FLOAT
    }
  }
  attr {
    key: "shape"
    value {
      shape {
        dim {
          size: 128
        }
      }
    }
  }
  attr {
    key: "shared_name"
    value {
      s: "batch_normalization_68/beta"
    }
  }
}
node {
  name: "conv2d_11/kernel"
  op: "VarHandleOp"
  device: "/job:localhost/replica:0/task:0/device:GPU:0"
  attr {
    key: "container"
    value {
      s: ""
    }
  }
  attr {
    key: "dtype"
    value {
      type: DT_FLOAT
    }
  }
  attr {
    key: "shape"
    value {
      shape {
        dim {
          size: 3
        }
        dim {
          size: 3
        }
        dim {
          size: 128
        }
        dim {
          size: 256
        }
      }
    }
  }
  attr {
    key: "shared_name"
    value {
      s: "conv2d_11/kernel"
    }
  }
}
node {
  name: "batch_normalization_31/moving_mean"
  op: "VarHandleOp"
  device: "/job:localhost/replica:0/task:0/device:GPU:0"
  attr {
    key: "container"
    value {
      s: ""
    }
  }
  attr {
    key: "dtype"
    value {
      type: DT_FLOAT
    }
  }
  attr {
    key: "shape"
    value {
      shape {
        dim {
          size: 256
        }
      }
    }
  }
  attr {
    key: "shared_name"
    value {
      s: "batch_normalization_31/moving_mean"
    }
  }
}
node {
  name: "batch_normalization_11/gamma"
  op: "VarHandleOp"
  device: "/job:localhost/replica:0/task:0/device:GPU:0"
  attr {
    key: "container"
    value {
      s: ""
    }
  }
  attr {
    key: "dtype"
    value {
      type: DT_FLOAT
    }
  }
  attr {
    key: "shape"
    value {
      shape {
        dim {
          size: 256
        }
      }
    }
  }
  attr {
    key: "shared_name"
    value {
      s: "batch_normalization_11/gamma"
    }
  }
}
node {
  name: "conv2d_71/kernel"
  op: "VarHandleOp"
  device: "/job:localhost/replica:0/task:0/device:GPU:0"
  attr {
    key: "container"
    value {
      s: ""
    }
  }
  attr {
    key: "dtype"
    value {
      type: DT_FLOAT
    }
  }
  attr {
    key: "shape"
    value {
      shape {
        dim {
          size: 3
        }
        dim {
          size: 3
        }
        dim {
          size: 128
        }
        dim {
          size: 256
        }
      }
    }
  }
  attr {
    key: "shared_name"
    value {
      s: "conv2d_71/kernel"
    }
  }
}
node {
  name: "batch_normalization_11/beta"
  op: "VarHandleOp"
  device: "/job:localhost/replica:0/task:0/device:GPU:0"
  attr {
    key: "container"
    value {
      s: ""
    }
  }
  attr {
    key: "dtype"
    value {
      type: DT_FLOAT
    }
  }
  attr {
    key: "shape"
    value {
      shape {
        dim {
          size: 256
        }
      }
    }
  }
  attr {
    key: "shared_name"
    value {
      s: "batch_normalization_11/beta"
    }
  }
}
node {
  name: "batch_normalization_52/moving_mean"
  op: "VarHandleOp"
  device: "/job:localhost/replica:0/task:0/device:GPU:0"
  attr {
    key: "container"
    value {
      s: ""
    }
  }
  attr {
    key: "dtype"
    value {
      type: DT_FLOAT
    }
  }
  attr {
    key: "shape"
    value {
      shape {
        dim {
          size: 512
        }
      }
    }
  }
  attr {
    key: "shared_name"
    value {
      s: "batch_normalization_52/moving_mean"
    }
  }
}
node {
  name: "conv2d_12/kernel"
  op: "VarHandleOp"
  device: "/job:localhost/replica:0/task:0/device:GPU:0"
  attr {
    key: "container"
    value {
      s: ""
    }
  }
  attr {
    key: "dtype"
    value {
      type: DT_FLOAT
    }
  }
  attr {
    key: "shape"
    value {
      shape {
        dim {
          size: 1
        }
        dim {
          size: 1
        }
        dim {
          size: 256
        }
        dim {
          size: 128
        }
      }
    }
  }
  attr {
    key: "shared_name"
    value {
      s: "conv2d_12/kernel"
    }
  }
}
node {
  name: "batch_normalization_69/gamma"
  op: "VarHandleOp"
  device: "/job:localhost/replica:0/task:0/device:GPU:0"
  attr {
    key: "container"
    value {
      s: ""
    }
  }
  attr {
    key: "dtype"
    value {
      type: DT_FLOAT
    }
  }
  attr {
    key: "shape"
    value {
      shape {
        dim {
          size: 256
        }
      }
    }
  }
  attr {
    key: "shared_name"
    value {
      s: "batch_normalization_69/gamma"
    }
  }
}
node {
  name: "batch_normalization_12/gamma"
  op: "VarHandleOp"
  device: "/job:localhost/replica:0/task:0/device:GPU:0"
  attr {
    key: "container"
    value {
      s: ""
    }
  }
  attr {
    key: "dtype"
    value {
      type: DT_FLOAT
    }
  }
  attr {
    key: "shape"
    value {
      shape {
        dim {
          size: 128
        }
      }
    }
  }
  attr {
    key: "shared_name"
    value {
      s: "batch_normalization_12/gamma"
    }
  }
}
node {
  name: "batch_normalization_31/moving_variance"
  op: "VarHandleOp"
  device: "/job:localhost/replica:0/task:0/device:GPU:0"
  attr {
    key: "container"
    value {
      s: ""
    }
  }
  attr {
    key: "dtype"
    value {
      type: DT_FLOAT
    }
  }
  attr {
    key: "shape"
    value {
      shape {
        dim {
          size: 256
        }
      }
    }
  }
  attr {
    key: "shared_name"
    value {
      s: "batch_normalization_31/moving_variance"
    }
  }
}
node {
  name: "batch_normalization_12/beta"
  op: "VarHandleOp"
  device: "/job:localhost/replica:0/task:0/device:GPU:0"
  attr {
    key: "container"
    value {
      s: ""
    }
  }
  attr {
    key: "dtype"
    value {
      type: DT_FLOAT
    }
  }
  attr {
    key: "shape"
    value {
      shape {
        dim {
          size: 128
        }
      }
    }
  }
  attr {
    key: "shared_name"
    value {
      s: "batch_normalization_12/beta"
    }
  }
}
node {
  name: "batch_normalization_69/beta"
  op: "VarHandleOp"
  device: "/job:localhost/replica:0/task:0/device:GPU:0"
  attr {
    key: "container"
    value {
      s: ""
    }
  }
  attr {
    key: "dtype"
    value {
      type: DT_FLOAT
    }
  }
  attr {
    key: "shape"
    value {
      shape {
        dim {
          size: 256
        }
      }
    }
  }
  attr {
    key: "shared_name"
    value {
      s: "batch_normalization_69/beta"
    }
  }
}
node {
  name: "conv2d_13/kernel"
  op: "VarHandleOp"
  device: "/job:localhost/replica:0/task:0/device:GPU:0"
  attr {
    key: "container"
    value {
      s: ""
    }
  }
  attr {
    key: "dtype"
    value {
      type: DT_FLOAT
    }
  }
  attr {
    key: "shape"
    value {
      shape {
        dim {
          size: 3
        }
        dim {
          size: 3
        }
        dim {
          size: 128
        }
        dim {
          size: 256
        }
      }
    }
  }
  attr {
    key: "shared_name"
    value {
      s: "conv2d_13/kernel"
    }
  }
}
node {
  name: "batch_normalization_63/moving_variance"
  op: "VarHandleOp"
  device: "/job:localhost/replica:0/task:0/device:GPU:0"
  attr {
    key: "container"
    value {
      s: ""
    }
  }
  attr {
    key: "dtype"
    value {
      type: DT_FLOAT
    }
  }
  attr {
    key: "shape"
    value {
      shape {
        dim {
          size: 256
        }
      }
    }
  }
  attr {
    key: "shared_name"
    value {
      s: "batch_normalization_63/moving_variance"
    }
  }
}
node {
  name: "batch_normalization_13/gamma"
  op: "VarHandleOp"
  device: "/job:localhost/replica:0/task:0/device:GPU:0"
  attr {
    key: "container"
    value {
      s: ""
    }
  }
  attr {
    key: "dtype"
    value {
      type: DT_FLOAT
    }
  }
  attr {
    key: "shape"
    value {
      shape {
        dim {
          size: 256
        }
      }
    }
  }
  attr {
    key: "shared_name"
    value {
      s: "batch_normalization_13/gamma"
    }
  }
}
node {
  name: "conv2d_72/kernel"
  op: "VarHandleOp"
  device: "/job:localhost/replica:0/task:0/device:GPU:0"
  attr {
    key: "container"
    value {
      s: ""
    }
  }
  attr {
    key: "dtype"
    value {
      type: DT_FLOAT
    }
  }
  attr {
    key: "shape"
    value {
      shape {
        dim {
          size: 1
        }
        dim {
          size: 1
        }
        dim {
          size: 256
        }
        dim {
          size: 128
        }
      }
    }
  }
  attr {
    key: "shared_name"
    value {
      s: "conv2d_72/kernel"
    }
  }
}
node {
  name: "batch_normalization_13/beta"
  op: "VarHandleOp"
  device: "/job:localhost/replica:0/task:0/device:GPU:0"
  attr {
    key: "container"
    value {
      s: ""
    }
  }
  attr {
    key: "dtype"
    value {
      type: DT_FLOAT
    }
  }
  attr {
    key: "shape"
    value {
      shape {
        dim {
          size: 256
        }
      }
    }
  }
  attr {
    key: "shared_name"
    value {
      s: "batch_normalization_13/beta"
    }
  }
}
node {
  name: "batch_normalization_32/moving_mean"
  op: "VarHandleOp"
  device: "/job:localhost/replica:0/task:0/device:GPU:0"
  attr {
    key: "container"
    value {
      s: ""
    }
  }
  attr {
    key: "dtype"
    value {
      type: DT_FLOAT
    }
  }
  attr {
    key: "shape"
    value {
      shape {
        dim {
          size: 512
        }
      }
    }
  }
  attr {
    key: "shared_name"
    value {
      s: "batch_normalization_32/moving_mean"
    }
  }
}
node {
  name: "conv2d_14/kernel"
  op: "VarHandleOp"
  device: "/job:localhost/replica:0/task:0/device:GPU:0"
  attr {
    key: "container"
    value {
      s: ""
    }
  }
  attr {
    key: "dtype"
    value {
      type: DT_FLOAT
    }
  }
  attr {
    key: "shape"
    value {
      shape {
        dim {
          size: 1
        }
        dim {
          size: 1
        }
        dim {
          size: 256
        }
        dim {
          size: 128
        }
      }
    }
  }
  attr {
    key: "shared_name"
    value {
      s: "conv2d_14/kernel"
    }
  }
}
node {
  name: "batch_normalization_70/gamma"
  op: "VarHandleOp"
  device: "/job:localhost/replica:0/task:0/device:GPU:0"
  attr {
    key: "container"
    value {
      s: ""
    }
  }
  attr {
    key: "dtype"
    value {
      type: DT_FLOAT
    }
  }
  attr {
    key: "shape"
    value {
      shape {
        dim {
          size: 128
        }
      }
    }
  }
  attr {
    key: "shared_name"
    value {
      s: "batch_normalization_70/gamma"
    }
  }
}
node {
  name: "batch_normalization_14/gamma"
  op: "VarHandleOp"
  device: "/job:localhost/replica:0/task:0/device:GPU:0"
  attr {
    key: "container"
    value {
      s: ""
    }
  }
  attr {
    key: "dtype"
    value {
      type: DT_FLOAT
    }
  }
  attr {
    key: "shape"
    value {
      shape {
        dim {
          size: 128
        }
      }
    }
  }
  attr {
    key: "shared_name"
    value {
      s: "batch_normalization_14/gamma"
    }
  }
}
node {
  name: "batch_normalization_52/moving_variance"
  op: "VarHandleOp"
  device: "/job:localhost/replica:0/task:0/device:GPU:0"
  attr {
    key: "container"
    value {
      s: ""
    }
  }
  attr {
    key: "dtype"
    value {
      type: DT_FLOAT
    }
  }
  attr {
    key: "shape"
    value {
      shape {
        dim {
          size: 512
        }
      }
    }
  }
  attr {
    key: "shared_name"
    value {
      s: "batch_normalization_52/moving_variance"
    }
  }
}
node {
  name: "batch_normalization_14/beta"
  op: "VarHandleOp"
  device: "/job:localhost/replica:0/task:0/device:GPU:0"
  attr {
    key: "container"
    value {
      s: ""
    }
  }
  attr {
    key: "dtype"
    value {
      type: DT_FLOAT
    }
  }
  attr {
    key: "shape"
    value {
      shape {
        dim {
          size: 128
        }
      }
    }
  }
  attr {
    key: "shared_name"
    value {
      s: "batch_normalization_14/beta"
    }
  }
}
node {
  name: "batch_normalization_70/beta"
  op: "VarHandleOp"
  device: "/job:localhost/replica:0/task:0/device:GPU:0"
  attr {
    key: "container"
    value {
      s: ""
    }
  }
  attr {
    key: "dtype"
    value {
      type: DT_FLOAT
    }
  }
  attr {
    key: "shape"
    value {
      shape {
        dim {
          size: 128
        }
      }
    }
  }
  attr {
    key: "shared_name"
    value {
      s: "batch_normalization_70/beta"
    }
  }
}
node {
  name: "conv2d_15/kernel"
  op: "VarHandleOp"
  device: "/job:localhost/replica:0/task:0/device:GPU:0"
  attr {
    key: "container"
    value {
      s: ""
    }
  }
  attr {
    key: "dtype"
    value {
      type: DT_FLOAT
    }
  }
  attr {
    key: "shape"
    value {
      shape {
        dim {
          size: 3
        }
        dim {
          size: 3
        }
        dim {
          size: 128
        }
        dim {
          size: 256
        }
      }
    }
  }
  attr {
    key: "shared_name"
    value {
      s: "conv2d_15/kernel"
    }
  }
}
node {
  name: "batch_normalization_32/moving_variance"
  op: "VarHandleOp"
  device: "/job:localhost/replica:0/task:0/device:GPU:0"
  attr {
    key: "container"
    value {
      s: ""
    }
  }
  attr {
    key: "dtype"
    value {
      type: DT_FLOAT
    }
  }
  attr {
    key: "shape"
    value {
      shape {
        dim {
          size: 512
        }
      }
    }
  }
  attr {
    key: "shared_name"
    value {
      s: "batch_normalization_32/moving_variance"
    }
  }
}
node {
  name: "batch_normalization_15/gamma"
  op: "VarHandleOp"
  device: "/job:localhost/replica:0/task:0/device:GPU:0"
  attr {
    key: "container"
    value {
      s: ""
    }
  }
  attr {
    key: "dtype"
    value {
      type: DT_FLOAT
    }
  }
  attr {
    key: "shape"
    value {
      shape {
        dim {
          size: 256
        }
      }
    }
  }
  attr {
    key: "shared_name"
    value {
      s: "batch_normalization_15/gamma"
    }
  }
}
node {
  name: "conv2d_57/kernel"
  op: "VarHandleOp"
  device: "/job:localhost/replica:0/task:0/device:GPU:0"
  attr {
    key: "container"
    value {
      s: ""
    }
  }
  attr {
    key: "dtype"
    value {
      type: DT_FLOAT
    }
  }
  attr {
    key: "shape"
    value {
      shape {
        dim {
          size: 3
        }
        dim {
          size: 3
        }
        dim {
          size: 512
        }
        dim {
          size: 1024
        }
      }
    }
  }
  attr {
    key: "shared_name"
    value {
      s: "conv2d_57/kernel"
    }
  }
}
node {
  name: "batch_normalization_15/beta"
  op: "VarHandleOp"
  device: "/job:localhost/replica:0/task:0/device:GPU:0"
  attr {
    key: "container"
    value {
      s: ""
    }
  }
  attr {
    key: "dtype"
    value {
      type: DT_FLOAT
    }
  }
  attr {
    key: "shape"
    value {
      shape {
        dim {
          size: 256
        }
      }
    }
  }
  attr {
    key: "shared_name"
    value {
      s: "batch_normalization_15/beta"
    }
  }
}
node {
  name: "batch_normalization_71/moving_variance"
  op: "VarHandleOp"
  device: "/job:localhost/replica:0/task:0/device:GPU:0"
  attr {
    key: "container"
    value {
      s: ""
    }
  }
  attr {
    key: "dtype"
    value {
      type: DT_FLOAT
    }
  }
  attr {
    key: "shape"
    value {
      shape {
        dim {
          size: 256
        }
      }
    }
  }
  attr {
    key: "shared_name"
    value {
      s: "batch_normalization_71/moving_variance"
    }
  }
}
node {
  name: "conv2d_16/kernel"
  op: "VarHandleOp"
  device: "/job:localhost/replica:0/task:0/device:GPU:0"
  attr {
    key: "container"
    value {
      s: ""
    }
  }
  attr {
    key: "dtype"
    value {
      type: DT_FLOAT
    }
  }
  attr {
    key: "shape"
    value {
      shape {
        dim {
          size: 1
        }
        dim {
          size: 1
        }
        dim {
          size: 256
        }
        dim {
          size: 128
        }
      }
    }
  }
  attr {
    key: "shared_name"
    value {
      s: "conv2d_16/kernel"
    }
  }
}
node {
  name: "batch_normalization_57/gamma"
  op: "VarHandleOp"
  device: "/job:localhost/replica:0/task:0/device:GPU:0"
  attr {
    key: "container"
    value {
      s: ""
    }
  }
  attr {
    key: "dtype"
    value {
      type: DT_FLOAT
    }
  }
  attr {
    key: "shape"
    value {
      shape {
        dim {
          size: 1024
        }
      }
    }
  }
  attr {
    key: "shared_name"
    value {
      s: "batch_normalization_57/gamma"
    }
  }
}
node {
  name: "batch_normalization_16/gamma"
  op: "VarHandleOp"
  device: "/job:localhost/replica:0/task:0/device:GPU:0"
  attr {
    key: "container"
    value {
      s: ""
    }
  }
  attr {
    key: "dtype"
    value {
      type: DT_FLOAT
    }
  }
  attr {
    key: "shape"
    value {
      shape {
        dim {
          size: 128
        }
      }
    }
  }
  attr {
    key: "shared_name"
    value {
      s: "batch_normalization_16/gamma"
    }
  }
}
node {
  name: "batch_normalization_33/moving_mean"
  op: "VarHandleOp"
  device: "/job:localhost/replica:0/task:0/device:GPU:0"
  attr {
    key: "container"
    value {
      s: ""
    }
  }
  attr {
    key: "dtype"
    value {
      type: DT_FLOAT
    }
  }
  attr {
    key: "shape"
    value {
      shape {
        dim {
          size: 256
        }
      }
    }
  }
  attr {
    key: "shared_name"
    value {
      s: "batch_normalization_33/moving_mean"
    }
  }
}
node {
  name: "batch_normalization_16/beta"
  op: "VarHandleOp"
  device: "/job:localhost/replica:0/task:0/device:GPU:0"
  attr {
    key: "container"
    value {
      s: ""
    }
  }
  attr {
    key: "dtype"
    value {
      type: DT_FLOAT
    }
  }
  attr {
    key: "shape"
    value {
      shape {
        dim {
          size: 128
        }
      }
    }
  }
  attr {
    key: "shared_name"
    value {
      s: "batch_normalization_16/beta"
    }
  }
}
node {
  name: "batch_normalization_57/beta"
  op: "VarHandleOp"
  device: "/job:localhost/replica:0/task:0/device:GPU:0"
  attr {
    key: "container"
    value {
      s: ""
    }
  }
  attr {
    key: "dtype"
    value {
      type: DT_FLOAT
    }
  }
  attr {
    key: "shape"
    value {
      shape {
        dim {
          size: 1024
        }
      }
    }
  }
  attr {
    key: "shared_name"
    value {
      s: "batch_normalization_57/beta"
    }
  }
}
node {
  name: "conv2d_17/kernel"
  op: "VarHandleOp"
  device: "/job:localhost/replica:0/task:0/device:GPU:0"
  attr {
    key: "container"
    value {
      s: ""
    }
  }
  attr {
    key: "dtype"
    value {
      type: DT_FLOAT
    }
  }
  attr {
    key: "shape"
    value {
      shape {
        dim {
          size: 3
        }
        dim {
          size: 3
        }
        dim {
          size: 128
        }
        dim {
          size: 256
        }
      }
    }
  }
  attr {
    key: "shared_name"
    value {
      s: "conv2d_17/kernel"
    }
  }
}
node {
  name: "batch_normalization_53/moving_mean"
  op: "VarHandleOp"
  device: "/job:localhost/replica:0/task:0/device:GPU:0"
  attr {
    key: "container"
    value {
      s: ""
    }
  }
  attr {
    key: "dtype"
    value {
      type: DT_FLOAT
    }
  }
  attr {
    key: "shape"
    value {
      shape {
        dim {
          size: 1024
        }
      }
    }
  }
  attr {
    key: "shared_name"
    value {
      s: "batch_normalization_53/moving_mean"
    }
  }
}
node {
  name: "batch_normalization_17/gamma"
  op: "VarHandleOp"
  device: "/job:localhost/replica:0/task:0/device:GPU:0"
  attr {
    key: "container"
    value {
      s: ""
    }
  }
  attr {
    key: "dtype"
    value {
      type: DT_FLOAT
    }
  }
  attr {
    key: "shape"
    value {
      shape {
        dim {
          size: 256
        }
      }
    }
  }
  attr {
    key: "shared_name"
    value {
      s: "batch_normalization_17/gamma"
    }
  }
}
node {
  name: "conv2d_58/kernel"
  op: "VarHandleOp"
  device: "/job:localhost/replica:0/task:0/device:GPU:0"
  attr {
    key: "container"
    value {
      s: ""
    }
  }
  attr {
    key: "dtype"
    value {
      type: DT_FLOAT
    }
  }
  attr {
    key: "shape"
    value {
      shape {
        dim {
          size: 1
        }
        dim {
          size: 1
        }
        dim {
          size: 1024
        }
        dim {
          size: 255
        }
      }
    }
  }
  attr {
    key: "shared_name"
    value {
      s: "conv2d_58/kernel"
    }
  }
}
node {
  name: "batch_normalization_17/beta"
  op: "VarHandleOp"
  device: "/job:localhost/replica:0/task:0/device:GPU:0"
  attr {
    key: "container"
    value {
      s: ""
    }
  }
  attr {
    key: "dtype"
    value {
      type: DT_FLOAT
    }
  }
  attr {
    key: "shape"
    value {
      shape {
        dim {
          size: 256
        }
      }
    }
  }
  attr {
    key: "shared_name"
    value {
      s: "batch_normalization_17/beta"
    }
  }
}
node {
  name: "batch_normalization_33/moving_variance"
  op: "VarHandleOp"
  device: "/job:localhost/replica:0/task:0/device:GPU:0"
  attr {
    key: "container"
    value {
      s: ""
    }
  }
  attr {
    key: "dtype"
    value {
      type: DT_FLOAT
    }
  }
  attr {
    key: "shape"
    value {
      shape {
        dim {
          size: 256
        }
      }
    }
  }
  attr {
    key: "shared_name"
    value {
      s: "batch_normalization_33/moving_variance"
    }
  }
}
node {
  name: "conv2d_18/kernel"
  op: "VarHandleOp"
  device: "/job:localhost/replica:0/task:0/device:GPU:0"
  attr {
    key: "container"
    value {
      s: ""
    }
  }
  attr {
    key: "dtype"
    value {
      type: DT_FLOAT
    }
  }
  attr {
    key: "shape"
    value {
      shape {
        dim {
          size: 1
        }
        dim {
          size: 1
        }
        dim {
          size: 256
        }
        dim {
          size: 128
        }
      }
    }
  }
  attr {
    key: "shared_name"
    value {
      s: "conv2d_18/kernel"
    }
  }
}
node {
  name: "conv2d_58/bias"
  op: "VarHandleOp"
  device: "/job:localhost/replica:0/task:0/device:GPU:0"
  attr {
    key: "container"
    value {
      s: ""
    }
  }
  attr {
    key: "dtype"
    value {
      type: DT_FLOAT
    }
  }
  attr {
    key: "shape"
    value {
      shape {
        dim {
          size: 255
        }
      }
    }
  }
  attr {
    key: "shared_name"
    value {
      s: "conv2d_58/bias"
    }
  }
}
node {
  name: "batch_normalization_18/gamma"
  op: "VarHandleOp"
  device: "/job:localhost/replica:0/task:0/device:GPU:0"
  attr {
    key: "container"
    value {
      s: ""
    }
  }
  attr {
    key: "dtype"
    value {
      type: DT_FLOAT
    }
  }
  attr {
    key: "shape"
    value {
      shape {
        dim {
          size: 128
        }
      }
    }
  }
  attr {
    key: "shared_name"
    value {
      s: "batch_normalization_18/gamma"
    }
  }
}
node {
  name: "batch_normalization_65/moving_mean"
  op: "VarHandleOp"
  device: "/job:localhost/replica:0/task:0/device:GPU:0"
  attr {
    key: "container"
    value {
      s: ""
    }
  }
  attr {
    key: "dtype"
    value {
      type: DT_FLOAT
    }
  }
  attr {
    key: "shape"
    value {
      shape {
        dim {
          size: 128
        }
      }
    }
  }
  attr {
    key: "shared_name"
    value {
      s: "batch_normalization_65/moving_mean"
    }
  }
}
node {
  name: "batch_normalization_18/beta"
  op: "VarHandleOp"
  device: "/job:localhost/replica:0/task:0/device:GPU:0"
  attr {
    key: "container"
    value {
      s: ""
    }
  }
  attr {
    key: "dtype"
    value {
      type: DT_FLOAT
    }
  }
  attr {
    key: "shape"
    value {
      shape {
        dim {
          size: 128
        }
      }
    }
  }
  attr {
    key: "shared_name"
    value {
      s: "batch_normalization_18/beta"
    }
  }
}
node {
  name: "conv2d_65/kernel"
  op: "VarHandleOp"
  device: "/job:localhost/replica:0/task:0/device:GPU:0"
  attr {
    key: "container"
    value {
      s: ""
    }
  }
  attr {
    key: "dtype"
    value {
      type: DT_FLOAT
    }
  }
  attr {
    key: "shape"
    value {
      shape {
        dim {
          size: 3
        }
        dim {
          size: 3
        }
        dim {
          size: 256
        }
        dim {
          size: 512
        }
      }
    }
  }
  attr {
    key: "shared_name"
    value {
      s: "conv2d_65/kernel"
    }
  }
}
node {
  name: "conv2d_19/kernel"
  op: "VarHandleOp"
  device: "/job:localhost/replica:0/task:0/device:GPU:0"
  attr {
    key: "container"
    value {
      s: ""
    }
  }
  attr {
    key: "dtype"
    value {
      type: DT_FLOAT
    }
  }
  attr {
    key: "shape"
    value {
      shape {
        dim {
          size: 3
        }
        dim {
          size: 3
        }
        dim {
          size: 128
        }
        dim {
          size: 256
        }
      }
    }
  }
  attr {
    key: "shared_name"
    value {
      s: "conv2d_19/kernel"
    }
  }
}
node {
  name: "batch_normalization_34/moving_mean"
  op: "VarHandleOp"
  device: "/job:localhost/replica:0/task:0/device:GPU:0"
  attr {
    key: "container"
    value {
      s: ""
    }
  }
  attr {
    key: "dtype"
    value {
      type: DT_FLOAT
    }
  }
  attr {
    key: "shape"
    value {
      shape {
        dim {
          size: 512
        }
      }
    }
  }
  attr {
    key: "shared_name"
    value {
      s: "batch_normalization_34/moving_mean"
    }
  }
}
node {
  name: "batch_normalization_19/gamma"
  op: "VarHandleOp"
  device: "/job:localhost/replica:0/task:0/device:GPU:0"
  attr {
    key: "container"
    value {
      s: ""
    }
  }
  attr {
    key: "dtype"
    value {
      type: DT_FLOAT
    }
  }
  attr {
    key: "shape"
    value {
      shape {
        dim {
          size: 256
        }
      }
    }
  }
  attr {
    key: "shared_name"
    value {
      s: "batch_normalization_19/gamma"
    }
  }
}
node {
  name: "batch_normalization_64/gamma"
  op: "VarHandleOp"
  device: "/job:localhost/replica:0/task:0/device:GPU:0"
  attr {
    key: "container"
    value {
      s: ""
    }
  }
  attr {
    key: "dtype"
    value {
      type: DT_FLOAT
    }
  }
  attr {
    key: "shape"
    value {
      shape {
        dim {
          size: 512
        }
      }
    }
  }
  attr {
    key: "shared_name"
    value {
      s: "batch_normalization_64/gamma"
    }
  }
}
node {
  name: "batch_normalization_19/beta"
  op: "VarHandleOp"
  device: "/job:localhost/replica:0/task:0/device:GPU:0"
  attr {
    key: "container"
    value {
      s: ""
    }
  }
  attr {
    key: "dtype"
    value {
      type: DT_FLOAT
    }
  }
  attr {
    key: "shape"
    value {
      shape {
        dim {
          size: 256
        }
      }
    }
  }
  attr {
    key: "shared_name"
    value {
      s: "batch_normalization_19/beta"
    }
  }
}
node {
  name: "batch_normalization_53/moving_variance"
  op: "VarHandleOp"
  device: "/job:localhost/replica:0/task:0/device:GPU:0"
  attr {
    key: "container"
    value {
      s: ""
    }
  }
  attr {
    key: "dtype"
    value {
      type: DT_FLOAT
    }
  }
  attr {
    key: "shape"
    value {
      shape {
        dim {
          size: 1024
        }
      }
    }
  }
  attr {
    key: "shared_name"
    value {
      s: "batch_normalization_53/moving_variance"
    }
  }
}
node {
  name: "conv2d_20/kernel"
  op: "VarHandleOp"
  device: "/job:localhost/replica:0/task:0/device:GPU:0"
  attr {
    key: "container"
    value {
      s: ""
    }
  }
  attr {
    key: "dtype"
    value {
      type: DT_FLOAT
    }
  }
  attr {
    key: "shape"
    value {
      shape {
        dim {
          size: 1
        }
        dim {
          size: 1
        }
        dim {
          size: 256
        }
        dim {
          size: 128
        }
      }
    }
  }
  attr {
    key: "shared_name"
    value {
      s: "conv2d_20/kernel"
    }
  }
}
node {
  name: "batch_normalization_64/beta"
  op: "VarHandleOp"
  device: "/job:localhost/replica:0/task:0/device:GPU:0"
  attr {
    key: "container"
    value {
      s: ""
    }
  }
  attr {
    key: "dtype"
    value {
      type: DT_FLOAT
    }
  }
  attr {
    key: "shape"
    value {
      shape {
        dim {
          size: 512
        }
      }
    }
  }
  attr {
    key: "shared_name"
    value {
      s: "batch_normalization_64/beta"
    }
  }
}
node {
  name: "batch_normalization_20/gamma"
  op: "VarHandleOp"
  device: "/job:localhost/replica:0/task:0/device:GPU:0"
  attr {
    key: "container"
    value {
      s: ""
    }
  }
  attr {
    key: "dtype"
    value {
      type: DT_FLOAT
    }
  }
  attr {
    key: "shape"
    value {
      shape {
        dim {
          size: 128
        }
      }
    }
  }
  attr {
    key: "shared_name"
    value {
      s: "batch_normalization_20/gamma"
    }
  }
}
node {
  name: "batch_normalization_34/moving_variance"
  op: "VarHandleOp"
  device: "/job:localhost/replica:0/task:0/device:GPU:0"
  attr {
    key: "container"
    value {
      s: ""
    }
  }
  attr {
    key: "dtype"
    value {
      type: DT_FLOAT
    }
  }
  attr {
    key: "shape"
    value {
      shape {
        dim {
          size: 512
        }
      }
    }
  }
  attr {
    key: "shared_name"
    value {
      s: "batch_normalization_34/moving_variance"
    }
  }
}
node {
  name: "batch_normalization_20/beta"
  op: "VarHandleOp"
  device: "/job:localhost/replica:0/task:0/device:GPU:0"
  attr {
    key: "container"
    value {
      s: ""
    }
  }
  attr {
    key: "dtype"
    value {
      type: DT_FLOAT
    }
  }
  attr {
    key: "shape"
    value {
      shape {
        dim {
          size: 128
        }
      }
    }
  }
  attr {
    key: "shared_name"
    value {
      s: "batch_normalization_20/beta"
    }
  }
}
node {
  name: "conv2d_66/kernel"
  op: "VarHandleOp"
  device: "/job:localhost/replica:0/task:0/device:GPU:0"
  attr {
    key: "container"
    value {
      s: ""
    }
  }
  attr {
    key: "dtype"
    value {
      type: DT_FLOAT
    }
  }
  attr {
    key: "shape"
    value {
      shape {
        dim {
          size: 1
        }
        dim {
          size: 1
        }
        dim {
          size: 512
        }
        dim {
          size: 255
        }
      }
    }
  }
  attr {
    key: "shared_name"
    value {
      s: "conv2d_66/kernel"
    }
  }
}
node {
  name: "conv2d_21/kernel"
  op: "VarHandleOp"
  device: "/job:localhost/replica:0/task:0/device:GPU:0"
  attr {
    key: "container"
    value {
      s: ""
    }
  }
  attr {
    key: "dtype"
    value {
      type: DT_FLOAT
    }
  }
  attr {
    key: "shape"
    value {
      shape {
        dim {
          size: 3
        }
        dim {
          size: 3
        }
        dim {
          size: 128
        }
        dim {
          size: 256
        }
      }
    }
  }
  attr {
    key: "shared_name"
    value {
      s: "conv2d_21/kernel"
    }
  }
}
node {
  name: "batch_normalization_70/moving_mean"
  op: "VarHandleOp"
  device: "/job:localhost/replica:0/task:0/device:GPU:0"
  attr {
    key: "container"
    value {
      s: ""
    }
  }
  attr {
    key: "dtype"
    value {
      type: DT_FLOAT
    }
  }
  attr {
    key: "shape"
    value {
      shape {
        dim {
          size: 128
        }
      }
    }
  }
  attr {
    key: "shared_name"
    value {
      s: "batch_normalization_70/moving_mean"
    }
  }
}
node {
  name: "batch_normalization_21/gamma"
  op: "VarHandleOp"
  device: "/job:localhost/replica:0/task:0/device:GPU:0"
  attr {
    key: "container"
    value {
      s: ""
    }
  }
  attr {
    key: "dtype"
    value {
      type: DT_FLOAT
    }
  }
  attr {
    key: "shape"
    value {
      shape {
        dim {
          size: 256
        }
      }
    }
  }
  attr {
    key: "shared_name"
    value {
      s: "batch_normalization_21/gamma"
    }
  }
}
node {
  name: "conv2d_66/bias"
  op: "VarHandleOp"
  device: "/job:localhost/replica:0/task:0/device:GPU:0"
  attr {
    key: "container"
    value {
      s: ""
    }
  }
  attr {
    key: "dtype"
    value {
      type: DT_FLOAT
    }
  }
  attr {
    key: "shape"
    value {
      shape {
        dim {
          size: 255
        }
      }
    }
  }
  attr {
    key: "shared_name"
    value {
      s: "conv2d_66/bias"
    }
  }
}
node {
  name: "batch_normalization_21/beta"
  op: "VarHandleOp"
  device: "/job:localhost/replica:0/task:0/device:GPU:0"
  attr {
    key: "container"
    value {
      s: ""
    }
  }
  attr {
    key: "dtype"
    value {
      type: DT_FLOAT
    }
  }
  attr {
    key: "shape"
    value {
      shape {
        dim {
          size: 256
        }
      }
    }
  }
  attr {
    key: "shared_name"
    value {
      s: "batch_normalization_21/beta"
    }
  }
}
node {
  name: "batch_normalization_35/moving_mean"
  op: "VarHandleOp"
  device: "/job:localhost/replica:0/task:0/device:GPU:0"
  attr {
    key: "container"
    value {
      s: ""
    }
  }
  attr {
    key: "dtype"
    value {
      type: DT_FLOAT
    }
  }
  attr {
    key: "shape"
    value {
      shape {
        dim {
          size: 256
        }
      }
    }
  }
  attr {
    key: "shared_name"
    value {
      s: "batch_normalization_35/moving_mean"
    }
  }
}
node {
  name: "conv2d_22/kernel"
  op: "VarHandleOp"
  device: "/job:localhost/replica:0/task:0/device:GPU:0"
  attr {
    key: "container"
    value {
      s: ""
    }
  }
  attr {
    key: "dtype"
    value {
      type: DT_FLOAT
    }
  }
  attr {
    key: "shape"
    value {
      shape {
        dim {
          size: 1
        }
        dim {
          size: 1
        }
        dim {
          size: 256
        }
        dim {
          size: 128
        }
      }
    }
  }
  attr {
    key: "shared_name"
    value {
      s: "conv2d_22/kernel"
    }
  }
}
node {
  name: "conv2d_73/kernel"
  op: "VarHandleOp"
  device: "/job:localhost/replica:0/task:0/device:GPU:0"
  attr {
    key: "container"
    value {
      s: ""
    }
  }
  attr {
    key: "dtype"
    value {
      type: DT_FLOAT
    }
  }
  attr {
    key: "shape"
    value {
      shape {
        dim {
          size: 3
        }
        dim {
          size: 3
        }
        dim {
          size: 128
        }
        dim {
          size: 256
        }
      }
    }
  }
  attr {
    key: "shared_name"
    value {
      s: "conv2d_73/kernel"
    }
  }
}
node {
  name: "batch_normalization_22/gamma"
  op: "VarHandleOp"
  device: "/job:localhost/replica:0/task:0/device:GPU:0"
  attr {
    key: "container"
    value {
      s: ""
    }
  }
  attr {
    key: "dtype"
    value {
      type: DT_FLOAT
    }
  }
  attr {
    key: "shape"
    value {
      shape {
        dim {
          size: 128
        }
      }
    }
  }
  attr {
    key: "shared_name"
    value {
      s: "batch_normalization_22/gamma"
    }
  }
}
node {
  name: "batch_normalization_54/moving_mean"
  op: "VarHandleOp"
  device: "/job:localhost/replica:0/task:0/device:GPU:0"
  attr {
    key: "container"
    value {
      s: ""
    }
  }
  attr {
    key: "dtype"
    value {
      type: DT_FLOAT
    }
  }
  attr {
    key: "shape"
    value {
      shape {
        dim {
          size: 512
        }
      }
    }
  }
  attr {
    key: "shared_name"
    value {
      s: "batch_normalization_54/moving_mean"
    }
  }
}
node {
  name: "batch_normalization_22/beta"
  op: "VarHandleOp"
  device: "/job:localhost/replica:0/task:0/device:GPU:0"
  attr {
    key: "container"
    value {
      s: ""
    }
  }
  attr {
    key: "dtype"
    value {
      type: DT_FLOAT
    }
  }
  attr {
    key: "shape"
    value {
      shape {
        dim {
          size: 128
        }
      }
    }
  }
  attr {
    key: "shared_name"
    value {
      s: "batch_normalization_22/beta"
    }
  }
}
node {
  name: "batch_normalization_71/gamma"
  op: "VarHandleOp"
  device: "/job:localhost/replica:0/task:0/device:GPU:0"
  attr {
    key: "container"
    value {
      s: ""
    }
  }
  attr {
    key: "dtype"
    value {
      type: DT_FLOAT
    }
  }
  attr {
    key: "shape"
    value {
      shape {
        dim {
          size: 256
        }
      }
    }
  }
  attr {
    key: "shared_name"
    value {
      s: "batch_normalization_71/gamma"
    }
  }
}
node {
  name: "conv2d_23/kernel"
  op: "VarHandleOp"
  device: "/job:localhost/replica:0/task:0/device:GPU:0"
  attr {
    key: "container"
    value {
      s: ""
    }
  }
  attr {
    key: "dtype"
    value {
      type: DT_FLOAT
    }
  }
  attr {
    key: "shape"
    value {
      shape {
        dim {
          size: 3
        }
        dim {
          size: 3
        }
        dim {
          size: 128
        }
        dim {
          size: 256
        }
      }
    }
  }
  attr {
    key: "shared_name"
    value {
      s: "conv2d_23/kernel"
    }
  }
}
node {
  name: "batch_normalization_35/moving_variance"
  op: "VarHandleOp"
  device: "/job:localhost/replica:0/task:0/device:GPU:0"
  attr {
    key: "container"
    value {
      s: ""
    }
  }
  attr {
    key: "dtype"
    value {
      type: DT_FLOAT
    }
  }
  attr {
    key: "shape"
    value {
      shape {
        dim {
          size: 256
        }
      }
    }
  }
  attr {
    key: "shared_name"
    value {
      s: "batch_normalization_35/moving_variance"
    }
  }
}
node {
  name: "batch_normalization_23/gamma"
  op: "VarHandleOp"
  device: "/job:localhost/replica:0/task:0/device:GPU:0"
  attr {
    key: "container"
    value {
      s: ""
    }
  }
  attr {
    key: "dtype"
    value {
      type: DT_FLOAT
    }
  }
  attr {
    key: "shape"
    value {
      shape {
        dim {
          size: 256
        }
      }
    }
  }
  attr {
    key: "shared_name"
    value {
      s: "batch_normalization_23/gamma"
    }
  }
}
node {
  name: "batch_normalization_71/beta"
  op: "VarHandleOp"
  device: "/job:localhost/replica:0/task:0/device:GPU:0"
  attr {
    key: "container"
    value {
      s: ""
    }
  }
  attr {
    key: "dtype"
    value {
      type: DT_FLOAT
    }
  }
  attr {
    key: "shape"
    value {
      shape {
        dim {
          size: 256
        }
      }
    }
  }
  attr {
    key: "shared_name"
    value {
      s: "batch_normalization_71/beta"
    }
  }
}
node {
  name: "batch_normalization_23/beta"
  op: "VarHandleOp"
  device: "/job:localhost/replica:0/task:0/device:GPU:0"
  attr {
    key: "container"
    value {
      s: ""
    }
  }
  attr {
    key: "dtype"
    value {
      type: DT_FLOAT
    }
  }
  attr {
    key: "shape"
    value {
      shape {
        dim {
          size: 256
        }
      }
    }
  }
  attr {
    key: "shared_name"
    value {
      s: "batch_normalization_23/beta"
    }
  }
}
node {
  name: "batch_normalization_65/moving_variance"
  op: "VarHandleOp"
  device: "/job:localhost/replica:0/task:0/device:GPU:0"
  attr {
    key: "container"
    value {
      s: ""
    }
  }
  attr {
    key: "dtype"
    value {
      type: DT_FLOAT
    }
  }
  attr {
    key: "shape"
    value {
      shape {
        dim {
          size: 128
        }
      }
    }
  }
  attr {
    key: "shared_name"
    value {
      s: "batch_normalization_65/moving_variance"
    }
  }
}
node {
  name: "conv2d_24/kernel"
  op: "VarHandleOp"
  device: "/job:localhost/replica:0/task:0/device:GPU:0"
  attr {
    key: "container"
    value {
      s: ""
    }
  }
  attr {
    key: "dtype"
    value {
      type: DT_FLOAT
    }
  }
  attr {
    key: "shape"
    value {
      shape {
        dim {
          size: 1
        }
        dim {
          size: 1
        }
        dim {
          size: 256
        }
        dim {
          size: 128
        }
      }
    }
  }
  attr {
    key: "shared_name"
    value {
      s: "conv2d_24/kernel"
    }
  }
}
node {
  name: "conv2d_74/kernel"
  op: "VarHandleOp"
  device: "/job:localhost/replica:0/task:0/device:GPU:0"
  attr {
    key: "container"
    value {
      s: ""
    }
  }
  attr {
    key: "dtype"
    value {
      type: DT_FLOAT
    }
  }
  attr {
    key: "shape"
    value {
      shape {
        dim {
          size: 1
        }
        dim {
          size: 1
        }
        dim {
          size: 256
        }
        dim {
          size: 255
        }
      }
    }
  }
  attr {
    key: "shared_name"
    value {
      s: "conv2d_74/kernel"
    }
  }
}
node {
  name: "batch_normalization_24/gamma"
  op: "VarHandleOp"
  device: "/job:localhost/replica:0/task:0/device:GPU:0"
  attr {
    key: "container"
    value {
      s: ""
    }
  }
  attr {
    key: "dtype"
    value {
      type: DT_FLOAT
    }
  }
  attr {
    key: "shape"
    value {
      shape {
        dim {
          size: 128
        }
      }
    }
  }
  attr {
    key: "shared_name"
    value {
      s: "batch_normalization_24/gamma"
    }
  }
}
node {
  name: "batch_normalization_36/moving_mean"
  op: "VarHandleOp"
  device: "/job:localhost/replica:0/task:0/device:GPU:0"
  attr {
    key: "container"
    value {
      s: ""
    }
  }
  attr {
    key: "dtype"
    value {
      type: DT_FLOAT
    }
  }
  attr {
    key: "shape"
    value {
      shape {
        dim {
          size: 512
        }
      }
    }
  }
  attr {
    key: "shared_name"
    value {
      s: "batch_normalization_36/moving_mean"
    }
  }
}
node {
  name: "batch_normalization_24/beta"
  op: "VarHandleOp"
  device: "/job:localhost/replica:0/task:0/device:GPU:0"
  attr {
    key: "container"
    value {
      s: ""
    }
  }
  attr {
    key: "dtype"
    value {
      type: DT_FLOAT
    }
  }
  attr {
    key: "shape"
    value {
      shape {
        dim {
          size: 128
        }
      }
    }
  }
  attr {
    key: "shared_name"
    value {
      s: "batch_normalization_24/beta"
    }
  }
}
node {
  name: "conv2d_74/bias"
  op: "VarHandleOp"
  device: "/job:localhost/replica:0/task:0/device:GPU:0"
  attr {
    key: "container"
    value {
      s: ""
    }
  }
  attr {
    key: "dtype"
    value {
      type: DT_FLOAT
    }
  }
  attr {
    key: "shape"
    value {
      shape {
        dim {
          size: 255
        }
      }
    }
  }
  attr {
    key: "shared_name"
    value {
      s: "conv2d_74/bias"
    }
  }
}
node {
  name: "conv2d_25/kernel"
  op: "VarHandleOp"
  device: "/job:localhost/replica:0/task:0/device:GPU:0"
  attr {
    key: "container"
    value {
      s: ""
    }
  }
  attr {
    key: "dtype"
    value {
      type: DT_FLOAT
    }
  }
  attr {
    key: "shape"
    value {
      shape {
        dim {
          size: 3
        }
        dim {
          size: 3
        }
        dim {
          size: 128
        }
        dim {
          size: 256
        }
      }
    }
  }
  attr {
    key: "shared_name"
    value {
      s: "conv2d_25/kernel"
    }
  }
}
node {
  name: "batch_normalization_54/moving_variance"
  op: "VarHandleOp"
  device: "/job:localhost/replica:0/task:0/device:GPU:0"
  attr {
    key: "container"
    value {
      s: ""
    }
  }
  attr {
    key: "dtype"
    value {
      type: DT_FLOAT
    }
  }
  attr {
    key: "shape"
    value {
      shape {
        dim {
          size: 512
        }
      }
    }
  }
  attr {
    key: "shared_name"
    value {
      s: "batch_normalization_54/moving_variance"
    }
  }
}
node {
  name: "batch_normalization_25/gamma"
  op: "VarHandleOp"
  device: "/job:localhost/replica:0/task:0/device:GPU:0"
  attr {
    key: "container"
    value {
      s: ""
    }
  }
  attr {
    key: "dtype"
    value {
      type: DT_FLOAT
    }
  }
  attr {
    key: "shape"
    value {
      shape {
        dim {
          size: 256
        }
      }
    }
  }
  attr {
    key: "shared_name"
    value {
      s: "batch_normalization_25/gamma"
    }
  }
}
node {
  name: "batch_normalization/moving_mean"
  op: "VarHandleOp"
  device: "/job:localhost/replica:0/task:0/device:GPU:0"
  attr {
    key: "container"
    value {
      s: ""
    }
  }
  attr {
    key: "dtype"
    value {
      type: DT_FLOAT
    }
  }
  attr {
    key: "shape"
    value {
      shape {
        dim {
          size: 32
        }
      }
    }
  }
  attr {
    key: "shared_name"
    value {
      s: "batch_normalization/moving_mean"
    }
  }
}
node {
  name: "batch_normalization_25/beta"
  op: "VarHandleOp"
  device: "/job:localhost/replica:0/task:0/device:GPU:0"
  attr {
    key: "container"
    value {
      s: ""
    }
  }
  attr {
    key: "dtype"
    value {
      type: DT_FLOAT
    }
  }
  attr {
    key: "shape"
    value {
      shape {
        dim {
          size: 256
        }
      }
    }
  }
  attr {
    key: "shared_name"
    value {
      s: "batch_normalization_25/beta"
    }
  }
}
node {
  name: "batch_normalization_36/moving_variance"
  op: "VarHandleOp"
  device: "/job:localhost/replica:0/task:0/device:GPU:0"
  attr {
    key: "container"
    value {
      s: ""
    }
  }
  attr {
    key: "dtype"
    value {
      type: DT_FLOAT
    }
  }
  attr {
    key: "shape"
    value {
      shape {
        dim {
          size: 512
        }
      }
    }
  }
  attr {
    key: "shared_name"
    value {
      s: "batch_normalization_36/moving_variance"
    }
  }
}
node {
  name: "conv2d_26/kernel"
  op: "VarHandleOp"
  device: "/job:localhost/replica:0/task:0/device:GPU:0"
  attr {
    key: "container"
    value {
      s: ""
    }
  }
  attr {
    key: "dtype"
    value {
      type: DT_FLOAT
    }
  }
  attr {
    key: "shape"
    value {
      shape {
        dim {
          size: 3
        }
        dim {
          size: 3
        }
        dim {
          size: 256
        }
        dim {
          size: 512
        }
      }
    }
  }
  attr {
    key: "shared_name"
    value {
      s: "conv2d_26/kernel"
    }
  }
}
node {
  name: "batch_normalization/moving_variance"
  op: "VarHandleOp"
  device: "/job:localhost/replica:0/task:0/device:GPU:0"
  attr {
    key: "container"
    value {
      s: ""
    }
  }
  attr {
    key: "dtype"
    value {
      type: DT_FLOAT
    }
  }
  attr {
    key: "shape"
    value {
      shape {
        dim {
          size: 32
        }
      }
    }
  }
  attr {
    key: "shared_name"
    value {
      s: "batch_normalization/moving_variance"
    }
  }
}
node {
  name: "batch_normalization_26/gamma"
  op: "VarHandleOp"
  device: "/job:localhost/replica:0/task:0/device:GPU:0"
  attr {
    key: "container"
    value {
      s: ""
    }
  }
  attr {
    key: "dtype"
    value {
      type: DT_FLOAT
    }
  }
  attr {
    key: "shape"
    value {
      shape {
        dim {
          size: 512
        }
      }
    }
  }
  attr {
    key: "shared_name"
    value {
      s: "batch_normalization_26/gamma"
    }
  }
}
node {
  name: "batch_normalization_64/moving_variance"
  op: "VarHandleOp"
  device: "/job:localhost/replica:0/task:0/device:GPU:0"
  attr {
    key: "container"
    value {
      s: ""
    }
  }
  attr {
    key: "dtype"
    value {
      type: DT_FLOAT
    }
  }
  attr {
    key: "shape"
    value {
      shape {
        dim {
          size: 512
        }
      }
    }
  }
  attr {
    key: "shared_name"
    value {
      s: "batch_normalization_64/moving_variance"
    }
  }
}
node {
  name: "batch_normalization_26/beta"
  op: "VarHandleOp"
  device: "/job:localhost/replica:0/task:0/device:GPU:0"
  attr {
    key: "container"
    value {
      s: ""
    }
  }
  attr {
    key: "dtype"
    value {
      type: DT_FLOAT
    }
  }
  attr {
    key: "shape"
    value {
      shape {
        dim {
          size: 512
        }
      }
    }
  }
  attr {
    key: "shared_name"
    value {
      s: "batch_normalization_26/beta"
    }
  }
}
node {
  name: "batch_normalization_1/moving_mean"
  op: "VarHandleOp"
  device: "/job:localhost/replica:0/task:0/device:GPU:0"
  attr {
    key: "container"
    value {
      s: ""
    }
  }
  attr {
    key: "dtype"
    value {
      type: DT_FLOAT
    }
  }
  attr {
    key: "shape"
    value {
      shape {
        dim {
          size: 64
        }
      }
    }
  }
  attr {
    key: "shared_name"
    value {
      s: "batch_normalization_1/moving_mean"
    }
  }
}
node {
  name: "conv2d_27/kernel"
  op: "VarHandleOp"
  device: "/job:localhost/replica:0/task:0/device:GPU:0"
  attr {
    key: "container"
    value {
      s: ""
    }
  }
  attr {
    key: "dtype"
    value {
      type: DT_FLOAT
    }
  }
  attr {
    key: "shape"
    value {
      shape {
        dim {
          size: 1
        }
        dim {
          size: 1
        }
        dim {
          size: 512
        }
        dim {
          size: 256
        }
      }
    }
  }
  attr {
    key: "shared_name"
    value {
      s: "conv2d_27/kernel"
    }
  }
}
node {
  name: "batch_normalization_37/moving_mean"
  op: "VarHandleOp"
  device: "/job:localhost/replica:0/task:0/device:GPU:0"
  attr {
    key: "container"
    value {
      s: ""
    }
  }
  attr {
    key: "dtype"
    value {
      type: DT_FLOAT
    }
  }
  attr {
    key: "shape"
    value {
      shape {
        dim {
          size: 256
        }
      }
    }
  }
  attr {
    key: "shared_name"
    value {
      s: "batch_normalization_37/moving_mean"
    }
  }
}
node {
  name: "batch_normalization_27/gamma"
  op: "VarHandleOp"
  device: "/job:localhost/replica:0/task:0/device:GPU:0"
  attr {
    key: "container"
    value {
      s: ""
    }
  }
  attr {
    key: "dtype"
    value {
      type: DT_FLOAT
    }
  }
  attr {
    key: "shape"
    value {
      shape {
        dim {
          size: 256
        }
      }
    }
  }
  attr {
    key: "shared_name"
    value {
      s: "batch_normalization_27/gamma"
    }
  }
}
node {
  name: "batch_normalization_1/moving_variance"
  op: "VarHandleOp"
  device: "/job:localhost/replica:0/task:0/device:GPU:0"
  attr {
    key: "container"
    value {
      s: ""
    }
  }
  attr {
    key: "dtype"
    value {
      type: DT_FLOAT
    }
  }
  attr {
    key: "shape"
    value {
      shape {
        dim {
          size: 64
        }
      }
    }
  }
  attr {
    key: "shared_name"
    value {
      s: "batch_normalization_1/moving_variance"
    }
  }
}
node {
  name: "batch_normalization_27/beta"
  op: "VarHandleOp"
  device: "/job:localhost/replica:0/task:0/device:GPU:0"
  attr {
    key: "container"
    value {
      s: ""
    }
  }
  attr {
    key: "dtype"
    value {
      type: DT_FLOAT
    }
  }
  attr {
    key: "shape"
    value {
      shape {
        dim {
          size: 256
        }
      }
    }
  }
  attr {
    key: "shared_name"
    value {
      s: "batch_normalization_27/beta"
    }
  }
}
node {
  name: "batch_normalization_55/moving_mean"
  op: "VarHandleOp"
  device: "/job:localhost/replica:0/task:0/device:GPU:0"
  attr {
    key: "container"
    value {
      s: ""
    }
  }
  attr {
    key: "dtype"
    value {
      type: DT_FLOAT
    }
  }
  attr {
    key: "shape"
    value {
      shape {
        dim {
          size: 1024
        }
      }
    }
  }
  attr {
    key: "shared_name"
    value {
      s: "batch_normalization_55/moving_mean"
    }
  }
}
node {
  name: "conv2d_28/kernel"
  op: "VarHandleOp"
  device: "/job:localhost/replica:0/task:0/device:GPU:0"
  attr {
    key: "container"
    value {
      s: ""
    }
  }
  attr {
    key: "dtype"
    value {
      type: DT_FLOAT
    }
  }
  attr {
    key: "shape"
    value {
      shape {
        dim {
          size: 3
        }
        dim {
          size: 3
        }
        dim {
          size: 256
        }
        dim {
          size: 512
        }
      }
    }
  }
  attr {
    key: "shared_name"
    value {
      s: "conv2d_28/kernel"
    }
  }
}
node {
  name: "batch_normalization_2/moving_mean"
  op: "VarHandleOp"
  device: "/job:localhost/replica:0/task:0/device:GPU:0"
  attr {
    key: "container"
    value {
      s: ""
    }
  }
  attr {
    key: "dtype"
    value {
      type: DT_FLOAT
    }
  }
  attr {
    key: "shape"
    value {
      shape {
        dim {
          size: 32
        }
      }
    }
  }
  attr {
    key: "shared_name"
    value {
      s: "batch_normalization_2/moving_mean"
    }
  }
}
node {
  name: "batch_normalization_28/gamma"
  op: "VarHandleOp"
  device: "/job:localhost/replica:0/task:0/device:GPU:0"
  attr {
    key: "container"
    value {
      s: ""
    }
  }
  attr {
    key: "dtype"
    value {
      type: DT_FLOAT
    }
  }
  attr {
    key: "shape"
    value {
      shape {
        dim {
          size: 512
        }
      }
    }
  }
  attr {
    key: "shared_name"
    value {
      s: "batch_normalization_28/gamma"
    }
  }
}
node {
  name: "batch_normalization_37/moving_variance"
  op: "VarHandleOp"
  device: "/job:localhost/replica:0/task:0/device:GPU:0"
  attr {
    key: "container"
    value {
      s: ""
    }
  }
  attr {
    key: "dtype"
    value {
      type: DT_FLOAT
    }
  }
  attr {
    key: "shape"
    value {
      shape {
        dim {
          size: 256
        }
      }
    }
  }
  attr {
    key: "shared_name"
    value {
      s: "batch_normalization_37/moving_variance"
    }
  }
}
node {
  name: "batch_normalization_28/beta"
  op: "VarHandleOp"
  device: "/job:localhost/replica:0/task:0/device:GPU:0"
  attr {
    key: "container"
    value {
      s: ""
    }
  }
  attr {
    key: "dtype"
    value {
      type: DT_FLOAT
    }
  }
  attr {
    key: "shape"
    value {
      shape {
        dim {
          size: 512
        }
      }
    }
  }
  attr {
    key: "shared_name"
    value {
      s: "batch_normalization_28/beta"
    }
  }
}
node {
  name: "batch_normalization_2/moving_variance"
  op: "VarHandleOp"
  device: "/job:localhost/replica:0/task:0/device:GPU:0"
  attr {
    key: "container"
    value {
      s: ""
    }
  }
  attr {
    key: "dtype"
    value {
      type: DT_FLOAT
    }
  }
  attr {
    key: "shape"
    value {
      shape {
        dim {
          size: 32
        }
      }
    }
  }
  attr {
    key: "shared_name"
    value {
      s: "batch_normalization_2/moving_variance"
    }
  }
}
node {
  name: "conv2d_29/kernel"
  op: "VarHandleOp"
  device: "/job:localhost/replica:0/task:0/device:GPU:0"
  attr {
    key: "container"
    value {
      s: ""
    }
  }
  attr {
    key: "dtype"
    value {
      type: DT_FLOAT
    }
  }
  attr {
    key: "shape"
    value {
      shape {
        dim {
          size: 1
        }
        dim {
          size: 1
        }
        dim {
          size: 512
        }
        dim {
          size: 256
        }
      }
    }
  }
  attr {
    key: "shared_name"
    value {
      s: "conv2d_29/kernel"
    }
  }
}
node {
  name: "batch_normalization_66/moving_mean"
  op: "VarHandleOp"
  device: "/job:localhost/replica:0/task:0/device:GPU:0"
  attr {
    key: "container"
    value {
      s: ""
    }
  }
  attr {
    key: "dtype"
    value {
      type: DT_FLOAT
    }
  }
  attr {
    key: "shape"
    value {
      shape {
        dim {
          size: 128
        }
      }
    }
  }
  attr {
    key: "shared_name"
    value {
      s: "batch_normalization_66/moving_mean"
    }
  }
}
node {
  name: "batch_normalization_29/gamma"
  op: "VarHandleOp"
  device: "/job:localhost/replica:0/task:0/device:GPU:0"
  attr {
    key: "container"
    value {
      s: ""
    }
  }
  attr {
    key: "dtype"
    value {
      type: DT_FLOAT
    }
  }
  attr {
    key: "shape"
    value {
      shape {
        dim {
          size: 256
        }
      }
    }
  }
  attr {
    key: "shared_name"
    value {
      s: "batch_normalization_29/gamma"
    }
  }
}
node {
  name: "batch_normalization_3/moving_mean"
  op: "VarHandleOp"
  device: "/job:localhost/replica:0/task:0/device:GPU:0"
  attr {
    key: "container"
    value {
      s: ""
    }
  }
  attr {
    key: "dtype"
    value {
      type: DT_FLOAT
    }
  }
  attr {
    key: "shape"
    value {
      shape {
        dim {
          size: 64
        }
      }
    }
  }
  attr {
    key: "shared_name"
    value {
      s: "batch_normalization_3/moving_mean"
    }
  }
}
node {
  name: "batch_normalization_29/beta"
  op: "VarHandleOp"
  device: "/job:localhost/replica:0/task:0/device:GPU:0"
  attr {
    key: "container"
    value {
      s: ""
    }
  }
  attr {
    key: "dtype"
    value {
      type: DT_FLOAT
    }
  }
  attr {
    key: "shape"
    value {
      shape {
        dim {
          size: 256
        }
      }
    }
  }
  attr {
    key: "shared_name"
    value {
      s: "batch_normalization_29/beta"
    }
  }
}
node {
  name: "batch_normalization_38/moving_mean"
  op: "VarHandleOp"
  device: "/job:localhost/replica:0/task:0/device:GPU:0"
  attr {
    key: "container"
    value {
      s: ""
    }
  }
  attr {
    key: "dtype"
    value {
      type: DT_FLOAT
    }
  }
  attr {
    key: "shape"
    value {
      shape {
        dim {
          size: 512
        }
      }
    }
  }
  attr {
    key: "shared_name"
    value {
      s: "batch_normalization_38/moving_mean"
    }
  }
}
node {
  name: "conv2d_30/kernel"
  op: "VarHandleOp"
  device: "/job:localhost/replica:0/task:0/device:GPU:0"
  attr {
    key: "container"
    value {
      s: ""
    }
  }
  attr {
    key: "dtype"
    value {
      type: DT_FLOAT
    }
  }
  attr {
    key: "shape"
    value {
      shape {
        dim {
          size: 3
        }
        dim {
          size: 3
        }
        dim {
          size: 256
        }
        dim {
          size: 512
        }
      }
    }
  }
  attr {
    key: "shared_name"
    value {
      s: "conv2d_30/kernel"
    }
  }
}
node {
  name: "batch_normalization_3/moving_variance"
  op: "VarHandleOp"
  device: "/job:localhost/replica:0/task:0/device:GPU:0"
  attr {
    key: "container"
    value {
      s: ""
    }
  }
  attr {
    key: "dtype"
    value {
      type: DT_FLOAT
    }
  }
  attr {
    key: "shape"
    value {
      shape {
        dim {
          size: 64
        }
      }
    }
  }
  attr {
    key: "shared_name"
    value {
      s: "batch_normalization_3/moving_variance"
    }
  }
}
node {
  name: "batch_normalization_30/gamma"
  op: "VarHandleOp"
  device: "/job:localhost/replica:0/task:0/device:GPU:0"
  attr {
    key: "container"
    value {
      s: ""
    }
  }
  attr {
    key: "dtype"
    value {
      type: DT_FLOAT
    }
  }
  attr {
    key: "shape"
    value {
      shape {
        dim {
          size: 512
        }
      }
    }
  }
  attr {
    key: "shared_name"
    value {
      s: "batch_normalization_30/gamma"
    }
  }
}
node {
  name: "batch_normalization_55/moving_variance"
  op: "VarHandleOp"
  device: "/job:localhost/replica:0/task:0/device:GPU:0"
  attr {
    key: "container"
    value {
      s: ""
    }
  }
  attr {
    key: "dtype"
    value {
      type: DT_FLOAT
    }
  }
  attr {
    key: "shape"
    value {
      shape {
        dim {
          size: 1024
        }
      }
    }
  }
  attr {
    key: "shared_name"
    value {
      s: "batch_normalization_55/moving_variance"
    }
  }
}
node {
  name: "batch_normalization_30/beta"
  op: "VarHandleOp"
  device: "/job:localhost/replica:0/task:0/device:GPU:0"
  attr {
    key: "container"
    value {
      s: ""
    }
  }
  attr {
    key: "dtype"
    value {
      type: DT_FLOAT
    }
  }
  attr {
    key: "shape"
    value {
      shape {
        dim {
          size: 512
        }
      }
    }
  }
  attr {
    key: "shared_name"
    value {
      s: "batch_normalization_30/beta"
    }
  }
}
node {
  name: "batch_normalization_4/moving_mean"
  op: "VarHandleOp"
  device: "/job:localhost/replica:0/task:0/device:GPU:0"
  attr {
    key: "container"
    value {
      s: ""
    }
  }
  attr {
    key: "dtype"
    value {
      type: DT_FLOAT
    }
  }
  attr {
    key: "shape"
    value {
      shape {
        dim {
          size: 128
        }
      }
    }
  }
  attr {
    key: "shared_name"
    value {
      s: "batch_normalization_4/moving_mean"
    }
  }
}
node {
  name: "conv2d_31/kernel"
  op: "VarHandleOp"
  device: "/job:localhost/replica:0/task:0/device:GPU:0"
  attr {
    key: "container"
    value {
      s: ""
    }
  }
  attr {
    key: "dtype"
    value {
      type: DT_FLOAT
    }
  }
  attr {
    key: "shape"
    value {
      shape {
        dim {
          size: 1
        }
        dim {
          size: 1
        }
        dim {
          size: 512
        }
        dim {
          size: 256
        }
      }
    }
  }
  attr {
    key: "shared_name"
    value {
      s: "conv2d_31/kernel"
    }
  }
}
node {
  name: "batch_normalization_38/moving_variance"
  op: "VarHandleOp"
  device: "/job:localhost/replica:0/task:0/device:GPU:0"
  attr {
    key: "container"
    value {
      s: ""
    }
  }
  attr {
    key: "dtype"
    value {
      type: DT_FLOAT
    }
  }
  attr {
    key: "shape"
    value {
      shape {
        dim {
          size: 512
        }
      }
    }
  }
  attr {
    key: "shared_name"
    value {
      s: "batch_normalization_38/moving_variance"
    }
  }
}
node {
  name: "batch_normalization_31/gamma"
  op: "VarHandleOp"
  device: "/job:localhost/replica:0/task:0/device:GPU:0"
  attr {
    key: "container"
    value {
      s: ""
    }
  }
  attr {
    key: "dtype"
    value {
      type: DT_FLOAT
    }
  }
  attr {
    key: "shape"
    value {
      shape {
        dim {
          size: 256
        }
      }
    }
  }
  attr {
    key: "shared_name"
    value {
      s: "batch_normalization_31/gamma"
    }
  }
}
node {
  name: "batch_normalization_4/moving_variance"
  op: "VarHandleOp"
  device: "/job:localhost/replica:0/task:0/device:GPU:0"
  attr {
    key: "container"
    value {
      s: ""
    }
  }
  attr {
    key: "dtype"
    value {
      type: DT_FLOAT
    }
  }
  attr {
    key: "shape"
    value {
      shape {
        dim {
          size: 128
        }
      }
    }
  }
  attr {
    key: "shared_name"
    value {
      s: "batch_normalization_4/moving_variance"
    }
  }
}
node {
  name: "batch_normalization_31/beta"
  op: "VarHandleOp"
  device: "/job:localhost/replica:0/task:0/device:GPU:0"
  attr {
    key: "container"
    value {
      s: ""
    }
  }
  attr {
    key: "dtype"
    value {
      type: DT_FLOAT
    }
  }
  attr {
    key: "shape"
    value {
      shape {
        dim {
          size: 256
        }
      }
    }
  }
  attr {
    key: "shared_name"
    value {
      s: "batch_normalization_31/beta"
    }
  }
}
node {
  name: "batch_normalization_70/moving_variance"
  op: "VarHandleOp"
  device: "/job:localhost/replica:0/task:0/device:GPU:0"
  attr {
    key: "container"
    value {
      s: ""
    }
  }
  attr {
    key: "dtype"
    value {
      type: DT_FLOAT
    }
  }
  attr {
    key: "shape"
    value {
      shape {
        dim {
          size: 128
        }
      }
    }
  }
  attr {
    key: "shared_name"
    value {
      s: "batch_normalization_70/moving_variance"
    }
  }
}
node {
  name: "conv2d_32/kernel"
  op: "VarHandleOp"
  device: "/job:localhost/replica:0/task:0/device:GPU:0"
  attr {
    key: "container"
    value {
      s: ""
    }
  }
  attr {
    key: "dtype"
    value {
      type: DT_FLOAT
    }
  }
  attr {
    key: "shape"
    value {
      shape {
        dim {
          size: 3
        }
        dim {
          size: 3
        }
        dim {
          size: 256
        }
        dim {
          size: 512
        }
      }
    }
  }
  attr {
    key: "shared_name"
    value {
      s: "conv2d_32/kernel"
    }
  }
}
node {
  name: "batch_normalization_5/moving_mean"
  op: "VarHandleOp"
  device: "/job:localhost/replica:0/task:0/device:GPU:0"
  attr {
    key: "container"
    value {
      s: ""
    }
  }
  attr {
    key: "dtype"
    value {
      type: DT_FLOAT
    }
  }
  attr {
    key: "shape"
    value {
      shape {
        dim {
          size: 64
        }
      }
    }
  }
  attr {
    key: "shared_name"
    value {
      s: "batch_normalization_5/moving_mean"
    }
  }
}
node {
  name: "batch_normalization_32/gamma"
  op: "VarHandleOp"
  device: "/job:localhost/replica:0/task:0/device:GPU:0"
  attr {
    key: "container"
    value {
      s: ""
    }
  }
  attr {
    key: "dtype"
    value {
      type: DT_FLOAT
    }
  }
  attr {
    key: "shape"
    value {
      shape {
        dim {
          size: 512
        }
      }
    }
  }
  attr {
    key: "shared_name"
    value {
      s: "batch_normalization_32/gamma"
    }
  }
}
node {
  name: "batch_normalization_39/moving_mean"
  op: "VarHandleOp"
  device: "/job:localhost/replica:0/task:0/device:GPU:0"
  attr {
    key: "container"
    value {
      s: ""
    }
  }
  attr {
    key: "dtype"
    value {
      type: DT_FLOAT
    }
  }
  attr {
    key: "shape"
    value {
      shape {
        dim {
          size: 256
        }
      }
    }
  }
  attr {
    key: "shared_name"
    value {
      s: "batch_normalization_39/moving_mean"
    }
  }
}
node {
  name: "batch_normalization_32/beta"
  op: "VarHandleOp"
  device: "/job:localhost/replica:0/task:0/device:GPU:0"
  attr {
    key: "container"
    value {
      s: ""
    }
  }
  attr {
    key: "dtype"
    value {
      type: DT_FLOAT
    }
  }
  attr {
    key: "shape"
    value {
      shape {
        dim {
          size: 512
        }
      }
    }
  }
  attr {
    key: "shared_name"
    value {
      s: "batch_normalization_32/beta"
    }
  }
}
node {
  name: "batch_normalization_5/moving_variance"
  op: "VarHandleOp"
  device: "/job:localhost/replica:0/task:0/device:GPU:0"
  attr {
    key: "container"
    value {
      s: ""
    }
  }
  attr {
    key: "dtype"
    value {
      type: DT_FLOAT
    }
  }
  attr {
    key: "shape"
    value {
      shape {
        dim {
          size: 64
        }
      }
    }
  }
  attr {
    key: "shared_name"
    value {
      s: "batch_normalization_5/moving_variance"
    }
  }
}
node {
  name: "conv2d_33/kernel"
  op: "VarHandleOp"
  device: "/job:localhost/replica:0/task:0/device:GPU:0"
  attr {
    key: "container"
    value {
      s: ""
    }
  }
  attr {
    key: "dtype"
    value {
      type: DT_FLOAT
    }
  }
  attr {
    key: "shape"
    value {
      shape {
        dim {
          size: 1
        }
        dim {
          size: 1
        }
        dim {
          size: 512
        }
        dim {
          size: 256
        }
      }
    }
  }
  attr {
    key: "shared_name"
    value {
      s: "conv2d_33/kernel"
    }
  }
}
node {
  name: "batch_normalization_56/moving_mean"
  op: "VarHandleOp"
  device: "/job:localhost/replica:0/task:0/device:GPU:0"
  attr {
    key: "container"
    value {
      s: ""
    }
  }
  attr {
    key: "dtype"
    value {
      type: DT_FLOAT
    }
  }
  attr {
    key: "shape"
    value {
      shape {
        dim {
          size: 512
        }
      }
    }
  }
  attr {
    key: "shared_name"
    value {
      s: "batch_normalization_56/moving_mean"
    }
  }
}
node {
  name: "batch_normalization_33/gamma"
  op: "VarHandleOp"
  device: "/job:localhost/replica:0/task:0/device:GPU:0"
  attr {
    key: "container"
    value {
      s: ""
    }
  }
  attr {
    key: "dtype"
    value {
      type: DT_FLOAT
    }
  }
  attr {
    key: "shape"
    value {
      shape {
        dim {
          size: 256
        }
      }
    }
  }
  attr {
    key: "shared_name"
    value {
      s: "batch_normalization_33/gamma"
    }
  }
}
node {
  name: "batch_normalization_6/moving_mean"
  op: "VarHandleOp"
  device: "/job:localhost/replica:0/task:0/device:GPU:0"
  attr {
    key: "container"
    value {
      s: ""
    }
  }
  attr {
    key: "dtype"
    value {
      type: DT_FLOAT
    }
  }
  attr {
    key: "shape"
    value {
      shape {
        dim {
          size: 128
        }
      }
    }
  }
  attr {
    key: "shared_name"
    value {
      s: "batch_normalization_6/moving_mean"
    }
  }
}
node {
  name: "batch_normalization_33/beta"
  op: "VarHandleOp"
  device: "/job:localhost/replica:0/task:0/device:GPU:0"
  attr {
    key: "container"
    value {
      s: ""
    }
  }
  attr {
    key: "dtype"
    value {
      type: DT_FLOAT
    }
  }
  attr {
    key: "shape"
    value {
      shape {
        dim {
          size: 256
        }
      }
    }
  }
  attr {
    key: "shared_name"
    value {
      s: "batch_normalization_33/beta"
    }
  }
}
node {
  name: "batch_normalization_39/moving_variance"
  op: "VarHandleOp"
  device: "/job:localhost/replica:0/task:0/device:GPU:0"
  attr {
    key: "container"
    value {
      s: ""
    }
  }
  attr {
    key: "dtype"
    value {
      type: DT_FLOAT
    }
  }
  attr {
    key: "shape"
    value {
      shape {
        dim {
          size: 256
        }
      }
    }
  }
  attr {
    key: "shared_name"
    value {
      s: "batch_normalization_39/moving_variance"
    }
  }
}
node {
  name: "conv2d_34/kernel"
  op: "VarHandleOp"
  device: "/job:localhost/replica:0/task:0/device:GPU:0"
  attr {
    key: "container"
    value {
      s: ""
    }
  }
  attr {
    key: "dtype"
    value {
      type: DT_FLOAT
    }
  }
  attr {
    key: "shape"
    value {
      shape {
        dim {
          size: 3
        }
        dim {
          size: 3
        }
        dim {
          size: 256
        }
        dim {
          size: 512
        }
      }
    }
  }
  attr {
    key: "shared_name"
    value {
      s: "conv2d_34/kernel"
    }
  }
}
node {
  name: "batch_normalization_6/moving_variance"
  op: "VarHandleOp"
  device: "/job:localhost/replica:0/task:0/device:GPU:0"
  attr {
    key: "container"
    value {
      s: ""
    }
  }
  attr {
    key: "dtype"
    value {
      type: DT_FLOAT
    }
  }
  attr {
    key: "shape"
    value {
      shape {
        dim {
          size: 128
        }
      }
    }
  }
  attr {
    key: "shared_name"
    value {
      s: "batch_normalization_6/moving_variance"
    }
  }
}
node {
  name: "batch_normalization_34/gamma"
  op: "VarHandleOp"
  device: "/job:localhost/replica:0/task:0/device:GPU:0"
  attr {
    key: "container"
    value {
      s: ""
    }
  }
  attr {
    key: "dtype"
    value {
      type: DT_FLOAT
    }
  }
  attr {
    key: "shape"
    value {
      shape {
        dim {
          size: 512
        }
      }
    }
  }
  attr {
    key: "shared_name"
    value {
      s: "batch_normalization_34/gamma"
    }
  }
}
node {
  name: "batch_normalization_66/moving_variance"
  op: "VarHandleOp"
  device: "/job:localhost/replica:0/task:0/device:GPU:0"
  attr {
    key: "container"
    value {
      s: ""
    }
  }
  attr {
    key: "dtype"
    value {
      type: DT_FLOAT
    }
  }
  attr {
    key: "shape"
    value {
      shape {
        dim {
          size: 128
        }
      }
    }
  }
  attr {
    key: "shared_name"
    value {
      s: "batch_normalization_66/moving_variance"
    }
  }
}
node {
  name: "batch_normalization_34/beta"
  op: "VarHandleOp"
  device: "/job:localhost/replica:0/task:0/device:GPU:0"
  attr {
    key: "container"
    value {
      s: ""
    }
  }
  attr {
    key: "dtype"
    value {
      type: DT_FLOAT
    }
  }
  attr {
    key: "shape"
    value {
      shape {
        dim {
          size: 512
        }
      }
    }
  }
  attr {
    key: "shared_name"
    value {
      s: "batch_normalization_34/beta"
    }
  }
}
node {
  name: "batch_normalization_7/moving_mean"
  op: "VarHandleOp"
  device: "/job:localhost/replica:0/task:0/device:GPU:0"
  attr {
    key: "container"
    value {
      s: ""
    }
  }
  attr {
    key: "dtype"
    value {
      type: DT_FLOAT
    }
  }
  attr {
    key: "shape"
    value {
      shape {
        dim {
          size: 64
        }
      }
    }
  }
  attr {
    key: "shared_name"
    value {
      s: "batch_normalization_7/moving_mean"
    }
  }
}
node {
  name: "conv2d_35/kernel"
  op: "VarHandleOp"
  device: "/job:localhost/replica:0/task:0/device:GPU:0"
  attr {
    key: "container"
    value {
      s: ""
    }
  }
  attr {
    key: "dtype"
    value {
      type: DT_FLOAT
    }
  }
  attr {
    key: "shape"
    value {
      shape {
        dim {
          size: 1
        }
        dim {
          size: 1
        }
        dim {
          size: 512
        }
        dim {
          size: 256
        }
      }
    }
  }
  attr {
    key: "shared_name"
    value {
      s: "conv2d_35/kernel"
    }
  }
}
node {
  name: "batch_normalization_40/moving_mean"
  op: "VarHandleOp"
  device: "/job:localhost/replica:0/task:0/device:GPU:0"
  attr {
    key: "container"
    value {
      s: ""
    }
  }
  attr {
    key: "dtype"
    value {
      type: DT_FLOAT
    }
  }
  attr {
    key: "shape"
    value {
      shape {
        dim {
          size: 512
        }
      }
    }
  }
  attr {
    key: "shared_name"
    value {
      s: "batch_normalization_40/moving_mean"
    }
  }
}
node {
  name: "batch_normalization_35/gamma"
  op: "VarHandleOp"
  device: "/job:localhost/replica:0/task:0/device:GPU:0"
  attr {
    key: "container"
    value {
      s: ""
    }
  }
  attr {
    key: "dtype"
    value {
      type: DT_FLOAT
    }
  }
  attr {
    key: "shape"
    value {
      shape {
        dim {
          size: 256
        }
      }
    }
  }
  attr {
    key: "shared_name"
    value {
      s: "batch_normalization_35/gamma"
    }
  }
}
node {
  name: "batch_normalization_7/moving_variance"
  op: "VarHandleOp"
  device: "/job:localhost/replica:0/task:0/device:GPU:0"
  attr {
    key: "container"
    value {
      s: ""
    }
  }
  attr {
    key: "dtype"
    value {
      type: DT_FLOAT
    }
  }
  attr {
    key: "shape"
    value {
      shape {
        dim {
          size: 64
        }
      }
    }
  }
  attr {
    key: "shared_name"
    value {
      s: "batch_normalization_7/moving_variance"
    }
  }
}
node {
  name: "batch_normalization_35/beta"
  op: "VarHandleOp"
  device: "/job:localhost/replica:0/task:0/device:GPU:0"
  attr {
    key: "container"
    value {
      s: ""
    }
  }
  attr {
    key: "dtype"
    value {
      type: DT_FLOAT
    }
  }
  attr {
    key: "shape"
    value {
      shape {
        dim {
          size: 256
        }
      }
    }
  }
  attr {
    key: "shared_name"
    value {
      s: "batch_normalization_35/beta"
    }
  }
}
node {
  name: "batch_normalization_56/moving_variance"
  op: "VarHandleOp"
  device: "/job:localhost/replica:0/task:0/device:GPU:0"
  attr {
    key: "container"
    value {
      s: ""
    }
  }
  attr {
    key: "dtype"
    value {
      type: DT_FLOAT
    }
  }
  attr {
    key: "shape"
    value {
      shape {
        dim {
          size: 512
        }
      }
    }
  }
  attr {
    key: "shared_name"
    value {
      s: "batch_normalization_56/moving_variance"
    }
  }
}
node {
  name: "conv2d_36/kernel"
  op: "VarHandleOp"
  device: "/job:localhost/replica:0/task:0/device:GPU:0"
  attr {
    key: "container"
    value {
      s: ""
    }
  }
  attr {
    key: "dtype"
    value {
      type: DT_FLOAT
    }
  }
  attr {
    key: "shape"
    value {
      shape {
        dim {
          size: 3
        }
        dim {
          size: 3
        }
        dim {
          size: 256
        }
        dim {
          size: 512
        }
      }
    }
  }
  attr {
    key: "shared_name"
    value {
      s: "conv2d_36/kernel"
    }
  }
}
node {
  name: "batch_normalization_8/moving_mean"
  op: "VarHandleOp"
  device: "/job:localhost/replica:0/task:0/device:GPU:0"
  attr {
    key: "container"
    value {
      s: ""
    }
  }
  attr {
    key: "dtype"
    value {
      type: DT_FLOAT
    }
  }
  attr {
    key: "shape"
    value {
      shape {
        dim {
          size: 128
        }
      }
    }
  }
  attr {
    key: "shared_name"
    value {
      s: "batch_normalization_8/moving_mean"
    }
  }
}
node {
  name: "batch_normalization_36/gamma"
  op: "VarHandleOp"
  device: "/job:localhost/replica:0/task:0/device:GPU:0"
  attr {
    key: "container"
    value {
      s: ""
    }
  }
  attr {
    key: "dtype"
    value {
      type: DT_FLOAT
    }
  }
  attr {
    key: "shape"
    value {
      shape {
        dim {
          size: 512
        }
      }
    }
  }
  attr {
    key: "shared_name"
    value {
      s: "batch_normalization_36/gamma"
    }
  }
}
node {
  name: "batch_normalization_40/moving_variance"
  op: "VarHandleOp"
  device: "/job:localhost/replica:0/task:0/device:GPU:0"
  attr {
    key: "container"
    value {
      s: ""
    }
  }
  attr {
    key: "dtype"
    value {
      type: DT_FLOAT
    }
  }
  attr {
    key: "shape"
    value {
      shape {
        dim {
          size: 512
        }
      }
    }
  }
  attr {
    key: "shared_name"
    value {
      s: "batch_normalization_40/moving_variance"
    }
  }
}
node {
  name: "batch_normalization_36/beta"
  op: "VarHandleOp"
  device: "/job:localhost/replica:0/task:0/device:GPU:0"
  attr {
    key: "container"
    value {
      s: ""
    }
  }
  attr {
    key: "dtype"
    value {
      type: DT_FLOAT
    }
  }
  attr {
    key: "shape"
    value {
      shape {
        dim {
          size: 512
        }
      }
    }
  }
  attr {
    key: "shared_name"
    value {
      s: "batch_normalization_36/beta"
    }
  }
}
node {
  name: "batch_normalization_8/moving_variance"
  op: "VarHandleOp"
  device: "/job:localhost/replica:0/task:0/device:GPU:0"
  attr {
    key: "container"
    value {
      s: ""
    }
  }
  attr {
    key: "dtype"
    value {
      type: DT_FLOAT
    }
  }
  attr {
    key: "shape"
    value {
      shape {
        dim {
          size: 128
        }
      }
    }
  }
  attr {
    key: "shared_name"
    value {
      s: "batch_normalization_8/moving_variance"
    }
  }
}
node {
  name: "conv2d_37/kernel"
  op: "VarHandleOp"
  device: "/job:localhost/replica:0/task:0/device:GPU:0"
  attr {
    key: "container"
    value {
      s: ""
    }
  }
  attr {
    key: "dtype"
    value {
      type: DT_FLOAT
    }
  }
  attr {
    key: "shape"
    value {
      shape {
        dim {
          size: 1
        }
        dim {
          size: 1
        }
        dim {
          size: 512
        }
        dim {
          size: 256
        }
      }
    }
  }
  attr {
    key: "shared_name"
    value {
      s: "conv2d_37/kernel"
    }
  }
}
node {
  name: "batch_normalization_37/gamma"
  op: "VarHandleOp"
  device: "/job:localhost/replica:0/task:0/device:GPU:0"
  attr {
    key: "container"
    value {
      s: ""
    }
  }
  attr {
    key: "dtype"
    value {
      type: DT_FLOAT
    }
  }
  attr {
    key: "shape"
    value {
      shape {
        dim {
          size: 256
        }
      }
    }
  }
  attr {
    key: "shared_name"
    value {
      s: "batch_normalization_37/gamma"
    }
  }
}
node {
  name: "batch_normalization_9/moving_mean"
  op: "VarHandleOp"
  device: "/job:localhost/replica:0/task:0/device:GPU:0"
  attr {
    key: "container"
    value {
      s: ""
    }
  }
  attr {
    key: "dtype"
    value {
      type: DT_FLOAT
    }
  }
  attr {
    key: "shape"
    value {
      shape {
        dim {
          size: 256
        }
      }
    }
  }
  attr {
    key: "shared_name"
    value {
      s: "batch_normalization_9/moving_mean"
    }
  }
}
node {
  name: "batch_normalization_37/beta"
  op: "VarHandleOp"
  device: "/job:localhost/replica:0/task:0/device:GPU:0"
  attr {
    key: "container"
    value {
      s: ""
    }
  }
  attr {
    key: "dtype"
    value {
      type: DT_FLOAT
    }
  }
  attr {
    key: "shape"
    value {
      shape {
        dim {
          size: 256
        }
      }
    }
  }
  attr {
    key: "shared_name"
    value {
      s: "batch_normalization_37/beta"
    }
  }
}
node {
  name: "batch_normalization_41/moving_mean"
  op: "VarHandleOp"
  device: "/job:localhost/replica:0/task:0/device:GPU:0"
  attr {
    key: "container"
    value {
      s: ""
    }
  }
  attr {
    key: "dtype"
    value {
      type: DT_FLOAT
    }
  }
  attr {
    key: "shape"
    value {
      shape {
        dim {
          size: 256
        }
      }
    }
  }
  attr {
    key: "shared_name"
    value {
      s: "batch_normalization_41/moving_mean"
    }
  }
}
node {
  name: "conv2d_38/kernel"
  op: "VarHandleOp"
  device: "/job:localhost/replica:0/task:0/device:GPU:0"
  attr {
    key: "container"
    value {
      s: ""
    }
  }
  attr {
    key: "dtype"
    value {
      type: DT_FLOAT
    }
  }
  attr {
    key: "shape"
    value {
      shape {
        dim {
          size: 3
        }
        dim {
          size: 3
        }
        dim {
          size: 256
        }
        dim {
          size: 512
        }
      }
    }
  }
  attr {
    key: "shared_name"
    value {
      s: "conv2d_38/kernel"
    }
  }
}
node {
  name: "batch_normalization_9/moving_variance"
  op: "VarHandleOp"
  device: "/job:localhost/replica:0/task:0/device:GPU:0"
  attr {
    key: "container"
    value {
      s: ""
    }
  }
  attr {
    key: "dtype"
    value {
      type: DT_FLOAT
    }
  }
  attr {
    key: "shape"
    value {
      shape {
        dim {
          size: 256
        }
      }
    }
  }
  attr {
    key: "shared_name"
    value {
      s: "batch_normalization_9/moving_variance"
    }
  }
}
node {
  name: "batch_normalization_38/gamma"
  op: "VarHandleOp"
  device: "/job:localhost/replica:0/task:0/device:GPU:0"
  attr {
    key: "container"
    value {
      s: ""
    }
  }
  attr {
    key: "dtype"
    value {
      type: DT_FLOAT
    }
  }
  attr {
    key: "shape"
    value {
      shape {
        dim {
          size: 512
        }
      }
    }
  }
  attr {
    key: "shared_name"
    value {
      s: "batch_normalization_38/gamma"
    }
  }
}
node {
  name: "batch_normalization_58/moving_mean"
  op: "VarHandleOp"
  device: "/job:localhost/replica:0/task:0/device:GPU:0"
  attr {
    key: "container"
    value {
      s: ""
    }
  }
  attr {
    key: "dtype"
    value {
      type: DT_FLOAT
    }
  }
  attr {
    key: "shape"
    value {
      shape {
        dim {
          size: 256
        }
      }
    }
  }
  attr {
    key: "shared_name"
    value {
      s: "batch_normalization_58/moving_mean"
    }
  }
}
node {
  name: "batch_normalization_38/beta"
  op: "VarHandleOp"
  device: "/job:localhost/replica:0/task:0/device:GPU:0"
  attr {
    key: "container"
    value {
      s: ""
    }
  }
  attr {
    key: "dtype"
    value {
      type: DT_FLOAT
    }
  }
  attr {
    key: "shape"
    value {
      shape {
        dim {
          size: 512
        }
      }
    }
  }
  attr {
    key: "shared_name"
    value {
      s: "batch_normalization_38/beta"
    }
  }
}
node {
  name: "batch_normalization_10/moving_mean"
  op: "VarHandleOp"
  device: "/job:localhost/replica:0/task:0/device:GPU:0"
  attr {
    key: "container"
    value {
      s: ""
    }
  }
  attr {
    key: "dtype"
    value {
      type: DT_FLOAT
    }
  }
  attr {
    key: "shape"
    value {
      shape {
        dim {
          size: 128
        }
      }
    }
  }
  attr {
    key: "shared_name"
    value {
      s: "batch_normalization_10/moving_mean"
    }
  }
}
node {
  name: "conv2d_39/kernel"
  op: "VarHandleOp"
  device: "/job:localhost/replica:0/task:0/device:GPU:0"
  attr {
    key: "container"
    value {
      s: ""
    }
  }
  attr {
    key: "dtype"
    value {
      type: DT_FLOAT
    }
  }
  attr {
    key: "shape"
    value {
      shape {
        dim {
          size: 1
        }
        dim {
          size: 1
        }
        dim {
          size: 512
        }
        dim {
          size: 256
        }
      }
    }
  }
  attr {
    key: "shared_name"
    value {
      s: "conv2d_39/kernel"
    }
  }
}
node {
  name: "batch_normalization_41/moving_variance"
  op: "VarHandleOp"
  device: "/job:localhost/replica:0/task:0/device:GPU:0"
  attr {
    key: "container"
    value {
      s: ""
    }
  }
  attr {
    key: "dtype"
    value {
      type: DT_FLOAT
    }
  }
  attr {
    key: "shape"
    value {
      shape {
        dim {
          size: 256
        }
      }
    }
  }
  attr {
    key: "shared_name"
    value {
      s: "batch_normalization_41/moving_variance"
    }
  }
}
node {
  name: "batch_normalization_39/gamma"
  op: "VarHandleOp"
  device: "/job:localhost/replica:0/task:0/device:GPU:0"
  attr {
    key: "container"
    value {
      s: ""
    }
  }
  attr {
    key: "dtype"
    value {
      type: DT_FLOAT
    }
  }
  attr {
    key: "shape"
    value {
      shape {
        dim {
          size: 256
        }
      }
    }
  }
  attr {
    key: "shared_name"
    value {
      s: "batch_normalization_39/gamma"
    }
  }
}
node {
  name: "batch_normalization_10/moving_variance"
  op: "VarHandleOp"
  device: "/job:localhost/replica:0/task:0/device:GPU:0"
  attr {
    key: "container"
    value {
      s: ""
    }
  }
  attr {
    key: "dtype"
    value {
      type: DT_FLOAT
    }
  }
  attr {
    key: "shape"
    value {
      shape {
        dim {
          size: 128
        }
      }
    }
  }
  attr {
    key: "shared_name"
    value {
      s: "batch_normalization_10/moving_variance"
    }
  }
}
node {
  name: "batch_normalization_39/beta"
  op: "VarHandleOp"
  device: "/job:localhost/replica:0/task:0/device:GPU:0"
  attr {
    key: "container"
    value {
      s: ""
    }
  }
  attr {
    key: "dtype"
    value {
      type: DT_FLOAT
    }
  }
  attr {
    key: "shape"
    value {
      shape {
        dim {
          size: 256
        }
      }
    }
  }
  attr {
    key: "shared_name"
    value {
      s: "batch_normalization_39/beta"
    }
  }
}
node {
  name: "batch_normalization_67/moving_mean"
  op: "VarHandleOp"
  device: "/job:localhost/replica:0/task:0/device:GPU:0"
  attr {
    key: "container"
    value {
      s: ""
    }
  }
  attr {
    key: "dtype"
    value {
      type: DT_FLOAT
    }
  }
  attr {
    key: "shape"
    value {
      shape {
        dim {
          size: 256
        }
      }
    }
  }
  attr {
    key: "shared_name"
    value {
      s: "batch_normalization_67/moving_mean"
    }
  }
}
node {
  name: "conv2d_40/kernel"
  op: "VarHandleOp"
  device: "/job:localhost/replica:0/task:0/device:GPU:0"
  attr {
    key: "container"
    value {
      s: ""
    }
  }
  attr {
    key: "dtype"
    value {
      type: DT_FLOAT
    }
  }
  attr {
    key: "shape"
    value {
      shape {
        dim {
          size: 3
        }
        dim {
          size: 3
        }
        dim {
          size: 256
        }
        dim {
          size: 512
        }
      }
    }
  }
  attr {
    key: "shared_name"
    value {
      s: "conv2d_40/kernel"
    }
  }
}
node {
  name: "batch_normalization_11/moving_mean"
  op: "VarHandleOp"
  device: "/job:localhost/replica:0/task:0/device:GPU:0"
  attr {
    key: "container"
    value {
      s: ""
    }
  }
  attr {
    key: "dtype"
    value {
      type: DT_FLOAT
    }
  }
  attr {
    key: "shape"
    value {
      shape {
        dim {
          size: 256
        }
      }
    }
  }
  attr {
    key: "shared_name"
    value {
      s: "batch_normalization_11/moving_mean"
    }
  }
}
node {
  name: "batch_normalization_40/gamma"
  op: "VarHandleOp"
  device: "/job:localhost/replica:0/task:0/device:GPU:0"
  attr {
    key: "container"
    value {
      s: ""
    }
  }
  attr {
    key: "dtype"
    value {
      type: DT_FLOAT
    }
  }
  attr {
    key: "shape"
    value {
      shape {
        dim {
          size: 512
        }
      }
    }
  }
  attr {
    key: "shared_name"
    value {
      s: "batch_normalization_40/gamma"
    }
  }
}
node {
  name: "batch_normalization_42/moving_mean"
  op: "VarHandleOp"
  device: "/job:localhost/replica:0/task:0/device:GPU:0"
  attr {
    key: "container"
    value {
      s: ""
    }
  }
  attr {
    key: "dtype"
    value {
      type: DT_FLOAT
    }
  }
  attr {
    key: "shape"
    value {
      shape {
        dim {
          size: 512
        }
      }
    }
  }
  attr {
    key: "shared_name"
    value {
      s: "batch_normalization_42/moving_mean"
    }
  }
}
node {
  name: "batch_normalization_40/beta"
  op: "VarHandleOp"
  device: "/job:localhost/replica:0/task:0/device:GPU:0"
  attr {
    key: "container"
    value {
      s: ""
    }
  }
  attr {
    key: "dtype"
    value {
      type: DT_FLOAT
    }
  }
  attr {
    key: "shape"
    value {
      shape {
        dim {
          size: 512
        }
      }
    }
  }
  attr {
    key: "shared_name"
    value {
      s: "batch_normalization_40/beta"
    }
  }
}
node {
  name: "batch_normalization_11/moving_variance"
  op: "VarHandleOp"
  device: "/job:localhost/replica:0/task:0/device:GPU:0"
  attr {
    key: "container"
    value {
      s: ""
    }
  }
  attr {
    key: "dtype"
    value {
      type: DT_FLOAT
    }
  }
  attr {
    key: "shape"
    value {
      shape {
        dim {
          size: 256
        }
      }
    }
  }
  attr {
    key: "shared_name"
    value {
      s: "batch_normalization_11/moving_variance"
    }
  }
}
node {
  name: "conv2d_41/kernel"
  op: "VarHandleOp"
  device: "/job:localhost/replica:0/task:0/device:GPU:0"
  attr {
    key: "container"
    value {
      s: ""
    }
  }
  attr {
    key: "dtype"
    value {
      type: DT_FLOAT
    }
  }
  attr {
    key: "shape"
    value {
      shape {
        dim {
          size: 1
        }
        dim {
          size: 1
        }
        dim {
          size: 512
        }
        dim {
          size: 256
        }
      }
    }
  }
  attr {
    key: "shared_name"
    value {
      s: "conv2d_41/kernel"
    }
  }
}
node {
  name: "batch_normalization_58/moving_variance"
  op: "VarHandleOp"
  device: "/job:localhost/replica:0/task:0/device:GPU:0"
  attr {
    key: "container"
    value {
      s: ""
    }
  }
  attr {
    key: "dtype"
    value {
      type: DT_FLOAT
    }
  }
  attr {
    key: "shape"
    value {
      shape {
        dim {
          size: 256
        }
      }
    }
  }
  attr {
    key: "shared_name"
    value {
      s: "batch_normalization_58/moving_variance"
    }
  }
}
node {
  name: "batch_normalization_41/gamma"
  op: "VarHandleOp"
  device: "/job:localhost/replica:0/task:0/device:GPU:0"
  attr {
    key: "container"
    value {
      s: ""
    }
  }
  attr {
    key: "dtype"
    value {
      type: DT_FLOAT
    }
  }
  attr {
    key: "shape"
    value {
      shape {
        dim {
          size: 256
        }
      }
    }
  }
  attr {
    key: "shared_name"
    value {
      s: "batch_normalization_41/gamma"
    }
  }
}
node {
  name: "batch_normalization_12/moving_mean"
  op: "VarHandleOp"
  device: "/job:localhost/replica:0/task:0/device:GPU:0"
  attr {
    key: "container"
    value {
      s: ""
    }
  }
  attr {
    key: "dtype"
    value {
      type: DT_FLOAT
    }
  }
  attr {
    key: "shape"
    value {
      shape {
        dim {
          size: 128
        }
      }
    }
  }
  attr {
    key: "shared_name"
    value {
      s: "batch_normalization_12/moving_mean"
    }
  }
}
node {
  name: "batch_normalization_41/beta"
  op: "VarHandleOp"
  device: "/job:localhost/replica:0/task:0/device:GPU:0"
  attr {
    key: "container"
    value {
      s: ""
    }
  }
  attr {
    key: "dtype"
    value {
      type: DT_FLOAT
    }
  }
  attr {
    key: "shape"
    value {
      shape {
        dim {
          size: 256
        }
      }
    }
  }
  attr {
    key: "shared_name"
    value {
      s: "batch_normalization_41/beta"
    }
  }
}
node {
  name: "batch_normalization_42/moving_variance"
  op: "VarHandleOp"
  device: "/job:localhost/replica:0/task:0/device:GPU:0"
  attr {
    key: "container"
    value {
      s: ""
    }
  }
  attr {
    key: "dtype"
    value {
      type: DT_FLOAT
    }
  }
  attr {
    key: "shape"
    value {
      shape {
        dim {
          size: 512
        }
      }
    }
  }
  attr {
    key: "shared_name"
    value {
      s: "batch_normalization_42/moving_variance"
    }
  }
}
node {
  name: "conv2d_42/kernel"
  op: "VarHandleOp"
  device: "/job:localhost/replica:0/task:0/device:GPU:0"
  attr {
    key: "container"
    value {
      s: ""
    }
  }
  attr {
    key: "dtype"
    value {
      type: DT_FLOAT
    }
  }
  attr {
    key: "shape"
    value {
      shape {
        dim {
          size: 3
        }
        dim {
          size: 3
        }
        dim {
          size: 256
        }
        dim {
          size: 512
        }
      }
    }
  }
  attr {
    key: "shared_name"
    value {
      s: "conv2d_42/kernel"
    }
  }
}
node {
  name: "batch_normalization_12/moving_variance"
  op: "VarHandleOp"
  device: "/job:localhost/replica:0/task:0/device:GPU:0"
  attr {
    key: "container"
    value {
      s: ""
    }
  }
  attr {
    key: "dtype"
    value {
      type: DT_FLOAT
    }
  }
  attr {
    key: "shape"
    value {
      shape {
        dim {
          size: 128
        }
      }
    }
  }
  attr {
    key: "shared_name"
    value {
      s: "batch_normalization_12/moving_variance"
    }
  }
}
node {
  name: "batch_normalization_42/gamma"
  op: "VarHandleOp"
  device: "/job:localhost/replica:0/task:0/device:GPU:0"
  attr {
    key: "container"
    value {
      s: ""
    }
  }
  attr {
    key: "dtype"
    value {
      type: DT_FLOAT
    }
  }
  attr {
    key: "shape"
    value {
      shape {
        dim {
          size: 512
        }
      }
    }
  }
  attr {
    key: "shared_name"
    value {
      s: "batch_normalization_42/gamma"
    }
  }
}
node {
  name: "batch_normalization_57/moving_mean"
  op: "VarHandleOp"
  device: "/job:localhost/replica:0/task:0/device:GPU:0"
  attr {
    key: "container"
    value {
      s: ""
    }
  }
  attr {
    key: "dtype"
    value {
      type: DT_FLOAT
    }
  }
  attr {
    key: "shape"
    value {
      shape {
        dim {
          size: 1024
        }
      }
    }
  }
  attr {
    key: "shared_name"
    value {
      s: "batch_normalization_57/moving_mean"
    }
  }
}
node {
  name: "batch_normalization_42/beta"
  op: "VarHandleOp"
  device: "/job:localhost/replica:0/task:0/device:GPU:0"
  attr {
    key: "container"
    value {
      s: ""
    }
  }
  attr {
    key: "dtype"
    value {
      type: DT_FLOAT
    }
  }
  attr {
    key: "shape"
    value {
      shape {
        dim {
          size: 512
        }
      }
    }
  }
  attr {
    key: "shared_name"
    value {
      s: "batch_normalization_42/beta"
    }
  }
}
node {
  name: "batch_normalization_13/moving_mean"
  op: "VarHandleOp"
  device: "/job:localhost/replica:0/task:0/device:GPU:0"
  attr {
    key: "container"
    value {
      s: ""
    }
  }
  attr {
    key: "dtype"
    value {
      type: DT_FLOAT
    }
  }
  attr {
    key: "shape"
    value {
      shape {
        dim {
          size: 256
        }
      }
    }
  }
  attr {
    key: "shared_name"
    value {
      s: "batch_normalization_13/moving_mean"
    }
  }
}
node {
  name: "conv2d_43/kernel"
  op: "VarHandleOp"
  device: "/job:localhost/replica:0/task:0/device:GPU:0"
  attr {
    key: "container"
    value {
      s: ""
    }
  }
  attr {
    key: "dtype"
    value {
      type: DT_FLOAT
    }
  }
  attr {
    key: "shape"
    value {
      shape {
        dim {
          size: 3
        }
        dim {
          size: 3
        }
        dim {
          size: 512
        }
        dim {
          size: 1024
        }
      }
    }
  }
  attr {
    key: "shared_name"
    value {
      s: "conv2d_43/kernel"
    }
  }
}
node {
  name: "batch_normalization_43/moving_mean"
  op: "VarHandleOp"
  device: "/job:localhost/replica:0/task:0/device:GPU:0"
  attr {
    key: "container"
    value {
      s: ""
    }
  }
  attr {
    key: "dtype"
    value {
      type: DT_FLOAT
    }
  }
  attr {
    key: "shape"
    value {
      shape {
        dim {
          size: 1024
        }
      }
    }
  }
  attr {
    key: "shared_name"
    value {
      s: "batch_normalization_43/moving_mean"
    }
  }
}
node {
  name: "batch_normalization_43/gamma"
  op: "VarHandleOp"
  device: "/job:localhost/replica:0/task:0/device:GPU:0"
  attr {
    key: "container"
    value {
      s: ""
    }
  }
  attr {
    key: "dtype"
    value {
      type: DT_FLOAT
    }
  }
  attr {
    key: "shape"
    value {
      shape {
        dim {
          size: 1024
        }
      }
    }
  }
  attr {
    key: "shared_name"
    value {
      s: "batch_normalization_43/gamma"
    }
  }
}
node {
  name: "batch_normalization_13/moving_variance"
  op: "VarHandleOp"
  device: "/job:localhost/replica:0/task:0/device:GPU:0"
  attr {
    key: "container"
    value {
      s: ""
    }
  }
  attr {
    key: "dtype"
    value {
      type: DT_FLOAT
    }
  }
  attr {
    key: "shape"
    value {
      shape {
        dim {
          size: 256
        }
      }
    }
  }
  attr {
    key: "shared_name"
    value {
      s: "batch_normalization_13/moving_variance"
    }
  }
}
node {
  name: "batch_normalization_43/beta"
  op: "VarHandleOp"
  device: "/job:localhost/replica:0/task:0/device:GPU:0"
  attr {
    key: "container"
    value {
      s: ""
    }
  }
  attr {
    key: "dtype"
    value {
      type: DT_FLOAT
    }
  }
  attr {
    key: "shape"
    value {
      shape {
        dim {
          size: 1024
        }
      }
    }
  }
  attr {
    key: "shared_name"
    value {
      s: "batch_normalization_43/beta"
    }
  }
}
node {
  name: "batch_normalization_59/moving_mean"
  op: "VarHandleOp"
  device: "/job:localhost/replica:0/task:0/device:GPU:0"
  attr {
    key: "container"
    value {
      s: ""
    }
  }
  attr {
    key: "dtype"
    value {
      type: DT_FLOAT
    }
  }
  attr {
    key: "shape"
    value {
      shape {
        dim {
          size: 256
        }
      }
    }
  }
  attr {
    key: "shared_name"
    value {
      s: "batch_normalization_59/moving_mean"
    }
  }
}
node {
  name: "conv2d_44/kernel"
  op: "VarHandleOp"
  device: "/job:localhost/replica:0/task:0/device:GPU:0"
  attr {
    key: "container"
    value {
      s: ""
    }
  }
  attr {
    key: "dtype"
    value {
      type: DT_FLOAT
    }
  }
  attr {
    key: "shape"
    value {
      shape {
        dim {
          size: 1
        }
        dim {
          size: 1
        }
        dim {
          size: 1024
        }
        dim {
          size: 512
        }
      }
    }
  }
  attr {
    key: "shared_name"
    value {
      s: "conv2d_44/kernel"
    }
  }
}
node {
  name: "batch_normalization_14/moving_mean"
  op: "VarHandleOp"
  device: "/job:localhost/replica:0/task:0/device:GPU:0"
  attr {
    key: "container"
    value {
      s: ""
    }
  }
  attr {
    key: "dtype"
    value {
      type: DT_FLOAT
    }
  }
  attr {
    key: "shape"
    value {
      shape {
        dim {
          size: 128
        }
      }
    }
  }
  attr {
    key: "shared_name"
    value {
      s: "batch_normalization_14/moving_mean"
    }
  }
}
node {
  name: "batch_normalization_44/gamma"
  op: "VarHandleOp"
  device: "/job:localhost/replica:0/task:0/device:GPU:0"
  attr {
    key: "container"
    value {
      s: ""
    }
  }
  attr {
    key: "dtype"
    value {
      type: DT_FLOAT
    }
  }
  attr {
    key: "shape"
    value {
      shape {
        dim {
          size: 512
        }
      }
    }
  }
  attr {
    key: "shared_name"
    value {
      s: "batch_normalization_44/gamma"
    }
  }
}
node {
  name: "batch_normalization_43/moving_variance"
  op: "VarHandleOp"
  device: "/job:localhost/replica:0/task:0/device:GPU:0"
  attr {
    key: "container"
    value {
      s: ""
    }
  }
  attr {
    key: "dtype"
    value {
      type: DT_FLOAT
    }
  }
  attr {
    key: "shape"
    value {
      shape {
        dim {
          size: 1024
        }
      }
    }
  }
  attr {
    key: "shared_name"
    value {
      s: "batch_normalization_43/moving_variance"
    }
  }
}
node {
  name: "batch_normalization_44/beta"
  op: "VarHandleOp"
  device: "/job:localhost/replica:0/task:0/device:GPU:0"
  attr {
    key: "container"
    value {
      s: ""
    }
  }
  attr {
    key: "dtype"
    value {
      type: DT_FLOAT
    }
  }
  attr {
    key: "shape"
    value {
      shape {
        dim {
          size: 512
        }
      }
    }
  }
  attr {
    key: "shared_name"
    value {
      s: "batch_normalization_44/beta"
    }
  }
}
node {
  name: "batch_normalization_14/moving_variance"
  op: "VarHandleOp"
  device: "/job:localhost/replica:0/task:0/device:GPU:0"
  attr {
    key: "container"
    value {
      s: ""
    }
  }
  attr {
    key: "dtype"
    value {
      type: DT_FLOAT
    }
  }
  attr {
    key: "shape"
    value {
      shape {
        dim {
          size: 128
        }
      }
    }
  }
  attr {
    key: "shared_name"
    value {
      s: "batch_normalization_14/moving_variance"
    }
  }
}
node {
  name: "conv2d_45/kernel"
  op: "VarHandleOp"
  device: "/job:localhost/replica:0/task:0/device:GPU:0"
  attr {
    key: "container"
    value {
      s: ""
    }
  }
  attr {
    key: "dtype"
    value {
      type: DT_FLOAT
    }
  }
  attr {
    key: "shape"
    value {
      shape {
        dim {
          size: 3
        }
        dim {
          size: 3
        }
        dim {
          size: 512
        }
        dim {
          size: 1024
        }
      }
    }
  }
  attr {
    key: "shared_name"
    value {
      s: "conv2d_45/kernel"
    }
  }
}
node {
  name: "batch_normalization_67/moving_variance"
  op: "VarHandleOp"
  device: "/job:localhost/replica:0/task:0/device:GPU:0"
  attr {
    key: "container"
    value {
      s: ""
    }
  }
  attr {
    key: "dtype"
    value {
      type: DT_FLOAT
    }
  }
  attr {
    key: "shape"
    value {
      shape {
        dim {
          size: 256
        }
      }
    }
  }
  attr {
    key: "shared_name"
    value {
      s: "batch_normalization_67/moving_variance"
    }
  }
}
node {
  name: "batch_normalization_45/gamma"
  op: "VarHandleOp"
  device: "/job:localhost/replica:0/task:0/device:GPU:0"
  attr {
    key: "container"
    value {
      s: ""
    }
  }
  attr {
    key: "dtype"
    value {
      type: DT_FLOAT
    }
  }
  attr {
    key: "shape"
    value {
      shape {
        dim {
          size: 1024
        }
      }
    }
  }
  attr {
    key: "shared_name"
    value {
      s: "batch_normalization_45/gamma"
    }
  }
}
node {
  name: "batch_normalization_15/moving_mean"
  op: "VarHandleOp"
  device: "/job:localhost/replica:0/task:0/device:GPU:0"
  attr {
    key: "container"
    value {
      s: ""
    }
  }
  attr {
    key: "dtype"
    value {
      type: DT_FLOAT
    }
  }
  attr {
    key: "shape"
    value {
      shape {
        dim {
          size: 256
        }
      }
    }
  }
  attr {
    key: "shared_name"
    value {
      s: "batch_normalization_15/moving_mean"
    }
  }
}
node {
  name: "batch_normalization_45/beta"
  op: "VarHandleOp"
  device: "/job:localhost/replica:0/task:0/device:GPU:0"
  attr {
    key: "container"
    value {
      s: ""
    }
  }
  attr {
    key: "dtype"
    value {
      type: DT_FLOAT
    }
  }
  attr {
    key: "shape"
    value {
      shape {
        dim {
          size: 1024
        }
      }
    }
  }
  attr {
    key: "shared_name"
    value {
      s: "batch_normalization_45/beta"
    }
  }
}
node {
  name: "batch_normalization_44/moving_mean"
  op: "VarHandleOp"
  device: "/job:localhost/replica:0/task:0/device:GPU:0"
  attr {
    key: "container"
    value {
      s: ""
    }
  }
  attr {
    key: "dtype"
    value {
      type: DT_FLOAT
    }
  }
  attr {
    key: "shape"
    value {
      shape {
        dim {
          size: 512
        }
      }
    }
  }
  attr {
    key: "shared_name"
    value {
      s: "batch_normalization_44/moving_mean"
    }
  }
}
node {
  name: "conv2d_46/kernel"
  op: "VarHandleOp"
  device: "/job:localhost/replica:0/task:0/device:GPU:0"
  attr {
    key: "container"
    value {
      s: ""
    }
  }
  attr {
    key: "dtype"
    value {
      type: DT_FLOAT
    }
  }
  attr {
    key: "shape"
    value {
      shape {
        dim {
          size: 1
        }
        dim {
          size: 1
        }
        dim {
          size: 1024
        }
        dim {
          size: 512
        }
      }
    }
  }
  attr {
    key: "shared_name"
    value {
      s: "conv2d_46/kernel"
    }
  }
}
node {
  name: "batch_normalization_15/moving_variance"
  op: "VarHandleOp"
  device: "/job:localhost/replica:0/task:0/device:GPU:0"
  attr {
    key: "container"
    value {
      s: ""
    }
  }
  attr {
    key: "dtype"
    value {
      type: DT_FLOAT
    }
  }
  attr {
    key: "shape"
    value {
      shape {
        dim {
          size: 256
        }
      }
    }
  }
  attr {
    key: "shared_name"
    value {
      s: "batch_normalization_15/moving_variance"
    }
  }
}
node {
  name: "batch_normalization_46/gamma"
  op: "VarHandleOp"
  device: "/job:localhost/replica:0/task:0/device:GPU:0"
  attr {
    key: "container"
    value {
      s: ""
    }
  }
  attr {
    key: "dtype"
    value {
      type: DT_FLOAT
    }
  }
  attr {
    key: "shape"
    value {
      shape {
        dim {
          size: 512
        }
      }
    }
  }
  attr {
    key: "shared_name"
    value {
      s: "batch_normalization_46/gamma"
    }
  }
}
node {
  name: "batch_normalization_59/moving_variance"
  op: "VarHandleOp"
  device: "/job:localhost/replica:0/task:0/device:GPU:0"
  attr {
    key: "container"
    value {
      s: ""
    }
  }
  attr {
    key: "dtype"
    value {
      type: DT_FLOAT
    }
  }
  attr {
    key: "shape"
    value {
      shape {
        dim {
          size: 256
        }
      }
    }
  }
  attr {
    key: "shared_name"
    value {
      s: "batch_normalization_59/moving_variance"
    }
  }
}
node {
  name: "batch_normalization_46/beta"
  op: "VarHandleOp"
  device: "/job:localhost/replica:0/task:0/device:GPU:0"
  attr {
    key: "container"
    value {
      s: ""
    }
  }
  attr {
    key: "dtype"
    value {
      type: DT_FLOAT
    }
  }
  attr {
    key: "shape"
    value {
      shape {
        dim {
          size: 512
        }
      }
    }
  }
  attr {
    key: "shared_name"
    value {
      s: "batch_normalization_46/beta"
    }
  }
}
node {
  name: "batch_normalization_16/moving_mean"
  op: "VarHandleOp"
  device: "/job:localhost/replica:0/task:0/device:GPU:0"
  attr {
    key: "container"
    value {
      s: ""
    }
  }
  attr {
    key: "dtype"
    value {
      type: DT_FLOAT
    }
  }
  attr {
    key: "shape"
    value {
      shape {
        dim {
          size: 128
        }
      }
    }
  }
  attr {
    key: "shared_name"
    value {
      s: "batch_normalization_16/moving_mean"
    }
  }
}
node {
  name: "conv2d_47/kernel"
  op: "VarHandleOp"
  device: "/job:localhost/replica:0/task:0/device:GPU:0"
  attr {
    key: "container"
    value {
      s: ""
    }
  }
  attr {
    key: "dtype"
    value {
      type: DT_FLOAT
    }
  }
  attr {
    key: "shape"
    value {
      shape {
        dim {
          size: 3
        }
        dim {
          size: 3
        }
        dim {
          size: 512
        }
        dim {
          size: 1024
        }
      }
    }
  }
  attr {
    key: "shared_name"
    value {
      s: "conv2d_47/kernel"
    }
  }
}
node {
  name: "batch_normalization_44/moving_variance"
  op: "VarHandleOp"
  device: "/job:localhost/replica:0/task:0/device:GPU:0"
  attr {
    key: "container"
    value {
      s: ""
    }
  }
  attr {
    key: "dtype"
    value {
      type: DT_FLOAT
    }
  }
  attr {
    key: "shape"
    value {
      shape {
        dim {
          size: 512
        }
      }
    }
  }
  attr {
    key: "shared_name"
    value {
      s: "batch_normalization_44/moving_variance"
    }
  }
}
node {
  name: "batch_normalization_47/gamma"
  op: "VarHandleOp"
  device: "/job:localhost/replica:0/task:0/device:GPU:0"
  attr {
    key: "container"
    value {
      s: ""
    }
  }
  attr {
    key: "dtype"
    value {
      type: DT_FLOAT
    }
  }
  attr {
    key: "shape"
    value {
      shape {
        dim {
          size: 1024
        }
      }
    }
  }
  attr {
    key: "shared_name"
    value {
      s: "batch_normalization_47/gamma"
    }
  }
}
node {
  name: "batch_normalization_16/moving_variance"
  op: "VarHandleOp"
  device: "/job:localhost/replica:0/task:0/device:GPU:0"
  attr {
    key: "container"
    value {
      s: ""
    }
  }
  attr {
    key: "dtype"
    value {
      type: DT_FLOAT
    }
  }
  attr {
    key: "shape"
    value {
      shape {
        dim {
          size: 128
        }
      }
    }
  }
  attr {
    key: "shared_name"
    value {
      s: "batch_normalization_16/moving_variance"
    }
  }
}
node {
  name: "batch_normalization_47/beta"
  op: "VarHandleOp"
  device: "/job:localhost/replica:0/task:0/device:GPU:0"
  attr {
    key: "container"
    value {
      s: ""
    }
  }
  attr {
    key: "dtype"
    value {
      type: DT_FLOAT
    }
  }
  attr {
    key: "shape"
    value {
      shape {
        dim {
          size: 1024
        }
      }
    }
  }
  attr {
    key: "shared_name"
    value {
      s: "batch_normalization_47/beta"
    }
  }
}
node {
  name: "batch_normalization_71/moving_mean"
  op: "VarHandleOp"
  device: "/job:localhost/replica:0/task:0/device:GPU:0"
  attr {
    key: "container"
    value {
      s: ""
    }
  }
  attr {
    key: "dtype"
    value {
      type: DT_FLOAT
    }
  }
  attr {
    key: "shape"
    value {
      shape {
        dim {
          size: 256
        }
      }
    }
  }
  attr {
    key: "shared_name"
    value {
      s: "batch_normalization_71/moving_mean"
    }
  }
}
node {
  name: "conv2d_48/kernel"
  op: "VarHandleOp"
  device: "/job:localhost/replica:0/task:0/device:GPU:0"
  attr {
    key: "container"
    value {
      s: ""
    }
  }
  attr {
    key: "dtype"
    value {
      type: DT_FLOAT
    }
  }
  attr {
    key: "shape"
    value {
      shape {
        dim {
          size: 1
        }
        dim {
          size: 1
        }
        dim {
          size: 1024
        }
        dim {
          size: 512
        }
      }
    }
  }
  attr {
    key: "shared_name"
    value {
      s: "conv2d_48/kernel"
    }
  }
}
node {
  name: "batch_normalization_17/moving_mean"
  op: "VarHandleOp"
  device: "/job:localhost/replica:0/task:0/device:GPU:0"
  attr {
    key: "container"
    value {
      s: ""
    }
  }
  attr {
    key: "dtype"
    value {
      type: DT_FLOAT
    }
  }
  attr {
    key: "shape"
    value {
      shape {
        dim {
          size: 256
        }
      }
    }
  }
  attr {
    key: "shared_name"
    value {
      s: "batch_normalization_17/moving_mean"
    }
  }
}
node {
  name: "batch_normalization_48/gamma"
  op: "VarHandleOp"
  device: "/job:localhost/replica:0/task:0/device:GPU:0"
  attr {
    key: "container"
    value {
      s: ""
    }
  }
  attr {
    key: "dtype"
    value {
      type: DT_FLOAT
    }
  }
  attr {
    key: "shape"
    value {
      shape {
        dim {
          size: 512
        }
      }
    }
  }
  attr {
    key: "shared_name"
    value {
      s: "batch_normalization_48/gamma"
    }
  }
}
node {
  name: "batch_normalization_45/moving_mean"
  op: "VarHandleOp"
  device: "/job:localhost/replica:0/task:0/device:GPU:0"
  attr {
    key: "container"
    value {
      s: ""
    }
  }
  attr {
    key: "dtype"
    value {
      type: DT_FLOAT
    }
  }
  attr {
    key: "shape"
    value {
      shape {
        dim {
          size: 1024
        }
      }
    }
  }
  attr {
    key: "shared_name"
    value {
      s: "batch_normalization_45/moving_mean"
    }
  }
}
node {
  name: "batch_normalization_48/beta"
  op: "VarHandleOp"
  device: "/job:localhost/replica:0/task:0/device:GPU:0"
  attr {
    key: "container"
    value {
      s: ""
    }
  }
  attr {
    key: "dtype"
    value {
      type: DT_FLOAT
    }
  }
  attr {
    key: "shape"
    value {
      shape {
        dim {
          size: 512
        }
      }
    }
  }
  attr {
    key: "shared_name"
    value {
      s: "batch_normalization_48/beta"
    }
  }
}
node {
  name: "batch_normalization_17/moving_variance"
  op: "VarHandleOp"
  device: "/job:localhost/replica:0/task:0/device:GPU:0"
  attr {
    key: "container"
    value {
      s: ""
    }
  }
  attr {
    key: "dtype"
    value {
      type: DT_FLOAT
    }
  }
  attr {
    key: "shape"
    value {
      shape {
        dim {
          size: 256
        }
      }
    }
  }
  attr {
    key: "shared_name"
    value {
      s: "batch_normalization_17/moving_variance"
    }
  }
}
node {
  name: "conv2d_49/kernel"
  op: "VarHandleOp"
  device: "/job:localhost/replica:0/task:0/device:GPU:0"
  attr {
    key: "container"
    value {
      s: ""
    }
  }
  attr {
    key: "dtype"
    value {
      type: DT_FLOAT
    }
  }
  attr {
    key: "shape"
    value {
      shape {
        dim {
          size: 3
        }
        dim {
          size: 3
        }
        dim {
          size: 512
        }
        dim {
          size: 1024
        }
      }
    }
  }
  attr {
    key: "shared_name"
    value {
      s: "conv2d_49/kernel"
    }
  }
}
node {
  name: "batch_normalization_60/moving_mean"
  op: "VarHandleOp"
  device: "/job:localhost/replica:0/task:0/device:GPU:0"
  attr {
    key: "container"
    value {
      s: ""
    }
  }
  attr {
    key: "dtype"
    value {
      type: DT_FLOAT
    }
  }
  attr {
    key: "shape"
    value {
      shape {
        dim {
          size: 512
        }
      }
    }
  }
  attr {
    key: "shared_name"
    value {
      s: "batch_normalization_60/moving_mean"
    }
  }
}
node {
  name: "batch_normalization_49/gamma"
  op: "VarHandleOp"
  device: "/job:localhost/replica:0/task:0/device:GPU:0"
  attr {
    key: "container"
    value {
      s: ""
    }
  }
  attr {
    key: "dtype"
    value {
      type: DT_FLOAT
    }
  }
  attr {
    key: "shape"
    value {
      shape {
        dim {
          size: 1024
        }
      }
    }
  }
  attr {
    key: "shared_name"
    value {
      s: "batch_normalization_49/gamma"
    }
  }
}
node {
  name: "batch_normalization_18/moving_mean"
  op: "VarHandleOp"
  device: "/job:localhost/replica:0/task:0/device:GPU:0"
  attr {
    key: "container"
    value {
      s: ""
    }
  }
  attr {
    key: "dtype"
    value {
      type: DT_FLOAT
    }
  }
  attr {
    key: "shape"
    value {
      shape {
        dim {
          size: 128
        }
      }
    }
  }
  attr {
    key: "shared_name"
    value {
      s: "batch_normalization_18/moving_mean"
    }
  }
}
node {
  name: "batch_normalization_49/beta"
  op: "VarHandleOp"
  device: "/job:localhost/replica:0/task:0/device:GPU:0"
  attr {
    key: "container"
    value {
      s: ""
    }
  }
  attr {
    key: "dtype"
    value {
      type: DT_FLOAT
    }
  }
  attr {
    key: "shape"
    value {
      shape {
        dim {
          size: 1024
        }
      }
    }
  }
  attr {
    key: "shared_name"
    value {
      s: "batch_normalization_49/beta"
    }
  }
}
node {
  name: "batch_normalization_45/moving_variance"
  op: "VarHandleOp"
  device: "/job:localhost/replica:0/task:0/device:GPU:0"
  attr {
    key: "container"
    value {
      s: ""
    }
  }
  attr {
    key: "dtype"
    value {
      type: DT_FLOAT
    }
  }
  attr {
    key: "shape"
    value {
      shape {
        dim {
          size: 1024
        }
      }
    }
  }
  attr {
    key: "shared_name"
    value {
      s: "batch_normalization_45/moving_variance"
    }
  }
}
node {
  name: "conv2d_50/kernel"
  op: "VarHandleOp"
  device: "/job:localhost/replica:0/task:0/device:GPU:0"
  attr {
    key: "container"
    value {
      s: ""
    }
  }
  attr {
    key: "dtype"
    value {
      type: DT_FLOAT
    }
  }
  attr {
    key: "shape"
    value {
      shape {
        dim {
          size: 1
        }
        dim {
          size: 1
        }
        dim {
          size: 1024
        }
        dim {
          size: 512
        }
      }
    }
  }
  attr {
    key: "shared_name"
    value {
      s: "conv2d_50/kernel"
    }
  }
}
node {
  name: "batch_normalization_18/moving_variance"
  op: "VarHandleOp"
  device: "/job:localhost/replica:0/task:0/device:GPU:0"
  attr {
    key: "container"
    value {
      s: ""
    }
  }
  attr {
    key: "dtype"
    value {
      type: DT_FLOAT
    }
  }
  attr {
    key: "shape"
    value {
      shape {
        dim {
          size: 128
        }
      }
    }
  }
  attr {
    key: "shared_name"
    value {
      s: "batch_normalization_18/moving_variance"
    }
  }
}
node {
  name: "batch_normalization_50/gamma"
  op: "VarHandleOp"
  device: "/job:localhost/replica:0/task:0/device:GPU:0"
  attr {
    key: "container"
    value {
      s: ""
    }
  }
  attr {
    key: "dtype"
    value {
      type: DT_FLOAT
    }
  }
  attr {
    key: "shape"
    value {
      shape {
        dim {
          size: 512
        }
      }
    }
  }
  attr {
    key: "shared_name"
    value {
      s: "batch_normalization_50/gamma"
    }
  }
}
node {
  name: "batch_normalization_68/moving_mean"
  op: "VarHandleOp"
  device: "/job:localhost/replica:0/task:0/device:GPU:0"
  attr {
    key: "container"
    value {
      s: ""
    }
  }
  attr {
    key: "dtype"
    value {
      type: DT_FLOAT
    }
  }
  attr {
    key: "shape"
    value {
      shape {
        dim {
          size: 128
        }
      }
    }
  }
  attr {
    key: "shared_name"
    value {
      s: "batch_normalization_68/moving_mean"
    }
  }
}
node {
  name: "batch_normalization_50/beta"
  op: "VarHandleOp"
  device: "/job:localhost/replica:0/task:0/device:GPU:0"
  attr {
    key: "container"
    value {
      s: ""
    }
  }
  attr {
    key: "dtype"
    value {
      type: DT_FLOAT
    }
  }
  attr {
    key: "shape"
    value {
      shape {
        dim {
          size: 512
        }
      }
    }
  }
  attr {
    key: "shared_name"
    value {
      s: "batch_normalization_50/beta"
    }
  }
}
node {
  name: "batch_normalization_19/moving_mean"
  op: "VarHandleOp"
  device: "/job:localhost/replica:0/task:0/device:GPU:0"
  attr {
    key: "container"
    value {
      s: ""
    }
  }
  attr {
…
    key: "_grappler_relax_allocator_constraints"
    value {
      b: true
    }
  }
  attr {
    key: "dtype"
    value {
      type: DT_FLOAT
    }
  }
  experimental_debug_info {
    original_node_names: "AssignVariableOp_316"
    original_func_names: "__inference__traced_restore_83438"
  }
}
node {
  name: "StatefulPartitionedCall_2/AssignVariableOp_317"
  op: "AssignVariableOp"
  input: "Func/StatefulPartitionedCall_2/input/_319"
  input: "StatefulPartitionedCall_2/RestoreV2:317"
  device: "/job:localhost/replica:0/task:0/device:GPU:0"
  attr {
    key: "_grappler_relax_allocator_constraints"
    value {
      b: true
    }
  }
  attr {
    key: "dtype"
    value {
      type: DT_FLOAT
    }
  }
  experimental_debug_info {
    original_node_names: "AssignVariableOp_317"
    original_func_names: "__inference__traced_restore_83438"
  }
}
node {
  name: "StatefulPartitionedCall_2/AssignVariableOp_318"
  op: "AssignVariableOp"
  input: "Func/StatefulPartitionedCall_2/input/_320"
  input: "StatefulPartitionedCall_2/RestoreV2:318"
  device: "/job:localhost/replica:0/task:0/device:GPU:0"
  attr {
    key: "_grappler_relax_allocator_constraints"
    value {
      b: true
    }
  }
  attr {
    key: "dtype"
    value {
      type: DT_FLOAT
    }
  }
  experimental_debug_info {
    original_node_names: "AssignVariableOp_318"
    original_func_names: "__inference__traced_restore_83438"
  }
}
node {
  name: "StatefulPartitionedCall_2/AssignVariableOp_319"
  op: "AssignVariableOp"
  input: "Func/StatefulPartitionedCall_2/input/_321"
  input: "StatefulPartitionedCall_2/RestoreV2:319"
  device: "/job:localhost/replica:0/task:0/device:GPU:0"
  attr {
    key: "_grappler_relax_allocator_constraints"
    value {
      b: true
    }
  }
  attr {
    key: "dtype"
    value {
      type: DT_FLOAT
    }
  }
  experimental_debug_info {
    original_node_names: "AssignVariableOp_319"
    original_func_names: "__inference__traced_restore_83438"
  }
}
node {
  name: "StatefulPartitionedCall_2/AssignVariableOp_320"
  op: "AssignVariableOp"
  input: "Func/StatefulPartitionedCall_2/input/_322"
  input: "StatefulPartitionedCall_2/RestoreV2:320"
  device: "/job:localhost/replica:0/task:0/device:GPU:0"
  attr {
    key: "_grappler_relax_allocator_constraints"
    value {
      b: true
    }
  }
  attr {
    key: "dtype"
    value {
      type: DT_FLOAT
    }
  }
  experimental_debug_info {
    original_node_names: "AssignVariableOp_320"
    original_func_names: "__inference__traced_restore_83438"
  }
}
node {
  name: "StatefulPartitionedCall_2/AssignVariableOp_321"
  op: "AssignVariableOp"
  input: "Func/StatefulPartitionedCall_2/input/_323"
  input: "StatefulPartitionedCall_2/RestoreV2:321"
  device: "/job:localhost/replica:0/task:0/device:GPU:0"
  attr {
    key: "_grappler_relax_allocator_constraints"
    value {
      b: true
    }
  }
  attr {
    key: "dtype"
    value {
      type: DT_FLOAT
    }
  }
  experimental_debug_info {
    original_node_names: "AssignVariableOp_321"
    original_func_names: "__inference__traced_restore_83438"
  }
}
node {
  name: "StatefulPartitionedCall_2/AssignVariableOp_322"
  op: "AssignVariableOp"
  input: "Func/StatefulPartitionedCall_2/input/_324"
  input: "StatefulPartitionedCall_2/RestoreV2:322"
  device: "/job:localhost/replica:0/task:0/device:GPU:0"
  attr {
    key: "_grappler_relax_allocator_constraints"
    value {
      b: true
    }
  }
  attr {
    key: "dtype"
    value {
      type: DT_FLOAT
    }
  }
  experimental_debug_info {
    original_node_names: "AssignVariableOp_322"
    original_func_names: "__inference__traced_restore_83438"
  }
}
node {
  name: "StatefulPartitionedCall_2/AssignVariableOp_323"
  op: "AssignVariableOp"
  input: "Func/StatefulPartitionedCall_2/input/_325"
  input: "StatefulPartitionedCall_2/RestoreV2:323"
  device: "/job:localhost/replica:0/task:0/device:GPU:0"
  attr {
    key: "_grappler_relax_allocator_constraints"
    value {
      b: true
    }
  }
  attr {
    key: "dtype"
    value {
      type: DT_FLOAT
    }
  }
  experimental_debug_info {
    original_node_names: "AssignVariableOp_323"
    original_func_names: "__inference__traced_restore_83438"
  }
}
node {
  name: "StatefulPartitionedCall_2/AssignVariableOp_324"
  op: "AssignVariableOp"
  input: "Func/StatefulPartitionedCall_2/input/_326"
  input: "StatefulPartitionedCall_2/RestoreV2:324"
  device: "/job:localhost/replica:0/task:0/device:GPU:0"
  attr {
    key: "_grappler_relax_allocator_constraints"
    value {
      b: true
    }
  }
  attr {
    key: "dtype"
    value {
      type: DT_FLOAT
    }
  }
  experimental_debug_info {
    original_node_names: "AssignVariableOp_324"
    original_func_names: "__inference__traced_restore_83438"
  }
}
node {
  name: "StatefulPartitionedCall_2/AssignVariableOp_325"
  op: "AssignVariableOp"
  input: "Func/StatefulPartitionedCall_2/input/_327"
  input: "StatefulPartitionedCall_2/RestoreV2:325"
  device: "/job:localhost/replica:0/task:0/device:GPU:0"
  attr {
    key: "_grappler_relax_allocator_constraints"
    value {
      b: true
    }
  }
  attr {
    key: "dtype"
    value {
      type: DT_FLOAT
    }
  }
  experimental_debug_info {
    original_node_names: "AssignVariableOp_325"
    original_func_names: "__inference__traced_restore_83438"
  }
}
node {
  name: "StatefulPartitionedCall_2/AssignVariableOp_326"
  op: "AssignVariableOp"
  input: "Func/StatefulPartitionedCall_2/input/_328"
  input: "StatefulPartitionedCall_2/RestoreV2:326"
  device: "/job:localhost/replica:0/task:0/device:GPU:0"
  attr {
    key: "_grappler_relax_allocator_constraints"
    value {
      b: true
    }
  }
  attr {
    key: "dtype"
    value {
      type: DT_FLOAT
    }
  }
  experimental_debug_info {
    original_node_names: "AssignVariableOp_326"
    original_func_names: "__inference__traced_restore_83438"
  }
}
node {
  name: "StatefulPartitionedCall_2/AssignVariableOp_327"
  op: "AssignVariableOp"
  input: "Func/StatefulPartitionedCall_2/input/_329"
  input: "StatefulPartitionedCall_2/RestoreV2:327"
  device: "/job:localhost/replica:0/task:0/device:GPU:0"
  attr {
    key: "_grappler_relax_allocator_constraints"
    value {
      b: true
    }
  }
  attr {
    key: "dtype"
    value {
      type: DT_FLOAT
    }
  }
  experimental_debug_info {
    original_node_names: "AssignVariableOp_327"
    original_func_names: "__inference__traced_restore_83438"
  }
}
node {
  name: "StatefulPartitionedCall_2/AssignVariableOp_328"
  op: "AssignVariableOp"
  input: "Func/StatefulPartitionedCall_2/input/_330"
  input: "StatefulPartitionedCall_2/RestoreV2:328"
  device: "/job:localhost/replica:0/task:0/device:GPU:0"
  attr {
    key: "_grappler_relax_allocator_constraints"
    value {
      b: true
    }
  }
  attr {
    key: "dtype"
    value {
      type: DT_FLOAT
    }
  }
  experimental_debug_info {
    original_node_names: "AssignVariableOp_328"
    original_func_names: "__inference__traced_restore_83438"
  }
}
node {
  name: "StatefulPartitionedCall_2/AssignVariableOp_329"
  op: "AssignVariableOp"
  input: "Func/StatefulPartitionedCall_2/input/_331"
  input: "StatefulPartitionedCall_2/RestoreV2:329"
  device: "/job:localhost/replica:0/task:0/device:GPU:0"
  attr {
    key: "_grappler_relax_allocator_constraints"
    value {
      b: true
    }
  }
  attr {
    key: "dtype"
    value {
      type: DT_FLOAT
    }
  }
  experimental_debug_info {
    original_node_names: "AssignVariableOp_329"
    original_func_names: "__inference__traced_restore_83438"
  }
}
node {
  name: "StatefulPartitionedCall_2/AssignVariableOp_330"
  op: "AssignVariableOp"
  input: "Func/StatefulPartitionedCall_2/input/_332"
  input: "StatefulPartitionedCall_2/RestoreV2:330"
  device: "/job:localhost/replica:0/task:0/device:GPU:0"
  attr {
    key: "_grappler_relax_allocator_constraints"
    value {
      b: true
    }
  }
  attr {
    key: "dtype"
    value {
      type: DT_FLOAT
    }
  }
  experimental_debug_info {
    original_node_names: "AssignVariableOp_330"
    original_func_names: "__inference__traced_restore_83438"
  }
}
node {
  name: "StatefulPartitionedCall_2/AssignVariableOp_331"
  op: "AssignVariableOp"
  input: "Func/StatefulPartitionedCall_2/input/_333"
  input: "StatefulPartitionedCall_2/RestoreV2:331"
  device: "/job:localhost/replica:0/task:0/device:GPU:0"
  attr {
    key: "_grappler_relax_allocator_constraints"
    value {
      b: true
    }
  }
  attr {
    key: "dtype"
    value {
      type: DT_FLOAT
    }
  }
  experimental_debug_info {
    original_node_names: "AssignVariableOp_331"
    original_func_names: "__inference__traced_restore_83438"
  }
}
node {
  name: "StatefulPartitionedCall_2/AssignVariableOp_332"
  op: "AssignVariableOp"
  input: "Func/StatefulPartitionedCall_2/input/_334"
  input: "StatefulPartitionedCall_2/RestoreV2:332"
  device: "/job:localhost/replica:0/task:0/device:GPU:0"
  attr {
    key: "_grappler_relax_allocator_constraints"
    value {
      b: true
    }
  }
  attr {
    key: "dtype"
    value {
      type: DT_FLOAT
    }
  }
  experimental_debug_info {
    original_node_names: "AssignVariableOp_332"
    original_func_names: "__inference__traced_restore_83438"
  }
}
node {
  name: "StatefulPartitionedCall_2/AssignVariableOp_333"
  op: "AssignVariableOp"
  input: "Func/StatefulPartitionedCall_2/input/_335"
  input: "StatefulPartitionedCall_2/RestoreV2:333"
  device: "/job:localhost/replica:0/task:0/device:GPU:0"
  attr {
    key: "_grappler_relax_allocator_constraints"
    value {
      b: true
    }
  }
  attr {
    key: "dtype"
    value {
      type: DT_FLOAT
    }
  }
  experimental_debug_info {
    original_node_names: "AssignVariableOp_333"
    original_func_names: "__inference__traced_restore_83438"
  }
}
node {
  name: "StatefulPartitionedCall_2/AssignVariableOp_334"
  op: "AssignVariableOp"
  input: "Func/StatefulPartitionedCall_2/input/_336"
  input: "StatefulPartitionedCall_2/RestoreV2:334"
  device: "/job:localhost/replica:0/task:0/device:GPU:0"
  attr {
    key: "_grappler_relax_allocator_constraints"
    value {
      b: true
    }
  }
  attr {
    key: "dtype"
    value {
      type: DT_FLOAT
    }
  }
  experimental_debug_info {
    original_node_names: "AssignVariableOp_334"
    original_func_names: "__inference__traced_restore_83438"
  }
}
node {
  name: "StatefulPartitionedCall_2/AssignVariableOp_335"
  op: "AssignVariableOp"
  input: "Func/StatefulPartitionedCall_2/input/_337"
  input: "StatefulPartitionedCall_2/RestoreV2:335"
  device: "/job:localhost/replica:0/task:0/device:GPU:0"
  attr {
    key: "_grappler_relax_allocator_constraints"
    value {
      b: true
    }
  }
  attr {
    key: "dtype"
    value {
      type: DT_FLOAT
    }
  }
  experimental_debug_info {
    original_node_names: "AssignVariableOp_335"
    original_func_names: "__inference__traced_restore_83438"
  }
}
node {
  name: "StatefulPartitionedCall_2/AssignVariableOp_336"
  op: "AssignVariableOp"
  input: "Func/StatefulPartitionedCall_2/input/_338"
  input: "StatefulPartitionedCall_2/RestoreV2:336"
  device: "/job:localhost/replica:0/task:0/device:GPU:0"
  attr {
    key: "_grappler_relax_allocator_constraints"
    value {
      b: true
    }
  }
  attr {
    key: "dtype"
    value {
      type: DT_FLOAT
    }
  }
  experimental_debug_info {
    original_node_names: "AssignVariableOp_336"
    original_func_names: "__inference__traced_restore_83438"
  }
}
node {
  name: "StatefulPartitionedCall_2/AssignVariableOp_337"
  op: "AssignVariableOp"
  input: "Func/StatefulPartitionedCall_2/input/_339"
  input: "StatefulPartitionedCall_2/RestoreV2:337"
  device: "/job:localhost/replica:0/task:0/device:GPU:0"
  attr {
    key: "_grappler_relax_allocator_constraints"
    value {
      b: true
    }
  }
  attr {
    key: "dtype"
    value {
      type: DT_FLOAT
    }
  }
  experimental_debug_info {
    original_node_names: "AssignVariableOp_337"
    original_func_names: "__inference__traced_restore_83438"
  }
}
node {
  name: "StatefulPartitionedCall_2/AssignVariableOp_338"
  op: "AssignVariableOp"
  input: "Func/StatefulPartitionedCall_2/input/_340"
  input: "StatefulPartitionedCall_2/RestoreV2:338"
  device: "/job:localhost/replica:0/task:0/device:GPU:0"
  attr {
    key: "_grappler_relax_allocator_constraints"
    value {
      b: true
    }
  }
  attr {
    key: "dtype"
    value {
      type: DT_FLOAT
    }
  }
  experimental_debug_info {
    original_node_names: "AssignVariableOp_338"
    original_func_names: "__inference__traced_restore_83438"
  }
}
node {
  name: "StatefulPartitionedCall_2/AssignVariableOp_339"
  op: "AssignVariableOp"
  input: "Func/StatefulPartitionedCall_2/input/_341"
  input: "StatefulPartitionedCall_2/RestoreV2:339"
  device: "/job:localhost/replica:0/task:0/device:GPU:0"
  attr {
    key: "_grappler_relax_allocator_constraints"
    value {
      b: true
    }
  }
  attr {
    key: "dtype"
    value {
      type: DT_FLOAT
    }
  }
  experimental_debug_info {
    original_node_names: "AssignVariableOp_339"
    original_func_names: "__inference__traced_restore_83438"
  }
}
node {
  name: "StatefulPartitionedCall_2/AssignVariableOp_340"
  op: "AssignVariableOp"
  input: "Func/StatefulPartitionedCall_2/input/_342"
  input: "StatefulPartitionedCall_2/RestoreV2:340"
  device: "/job:localhost/replica:0/task:0/device:GPU:0"
  attr {
    key: "_grappler_relax_allocator_constraints"
    value {
      b: true
    }
  }
  attr {
    key: "dtype"
    value {
      type: DT_FLOAT
    }
  }
  experimental_debug_info {
    original_node_names: "AssignVariableOp_340"
    original_func_names: "__inference__traced_restore_83438"
  }
}
node {
  name: "StatefulPartitionedCall_2/AssignVariableOp_341"
  op: "AssignVariableOp"
  input: "Func/StatefulPartitionedCall_2/input/_343"
  input: "StatefulPartitionedCall_2/RestoreV2:341"
  device: "/job:localhost/replica:0/task:0/device:GPU:0"
  attr {
    key: "_grappler_relax_allocator_constraints"
    value {
      b: true
    }
  }
  attr {
    key: "dtype"
    value {
      type: DT_FLOAT
    }
  }
  experimental_debug_info {
    original_node_names: "AssignVariableOp_341"
    original_func_names: "__inference__traced_restore_83438"
  }
}
node {
  name: "StatefulPartitionedCall_2/AssignVariableOp_342"
  op: "AssignVariableOp"
  input: "Func/StatefulPartitionedCall_2/input/_344"
  input: "StatefulPartitionedCall_2/RestoreV2:342"
  device: "/job:localhost/replica:0/task:0/device:GPU:0"
  attr {
    key: "_grappler_relax_allocator_constraints"
    value {
      b: true
    }
  }
  attr {
    key: "dtype"
    value {
      type: DT_FLOAT
    }
  }
  experimental_debug_info {
    original_node_names: "AssignVariableOp_342"
    original_func_names: "__inference__traced_restore_83438"
  }
}
node {
  name: "StatefulPartitionedCall_2/AssignVariableOp_343"
  op: "AssignVariableOp"
  input: "Func/StatefulPartitionedCall_2/input/_345"
  input: "StatefulPartitionedCall_2/RestoreV2:343"
  device: "/job:localhost/replica:0/task:0/device:GPU:0"
  attr {
    key: "_grappler_relax_allocator_constraints"
    value {
      b: true
    }
  }
  attr {
    key: "dtype"
    value {
      type: DT_FLOAT
    }
  }
  experimental_debug_info {
    original_node_names: "AssignVariableOp_343"
    original_func_names: "__inference__traced_restore_83438"
  }
}
node {
  name: "StatefulPartitionedCall_2/AssignVariableOp_344"
  op: "AssignVariableOp"
  input: "Func/StatefulPartitionedCall_2/input/_346"
  input: "StatefulPartitionedCall_2/RestoreV2:344"
  device: "/job:localhost/replica:0/task:0/device:GPU:0"
  attr {
    key: "_grappler_relax_allocator_constraints"
    value {
      b: true
    }
  }
  attr {
    key: "dtype"
    value {
      type: DT_FLOAT
    }
  }
  experimental_debug_info {
    original_node_names: "AssignVariableOp_344"
    original_func_names: "__inference__traced_restore_83438"
  }
}
node {
  name: "StatefulPartitionedCall_2/AssignVariableOp_345"
  op: "AssignVariableOp"
  input: "Func/StatefulPartitionedCall_2/input/_347"
  input: "StatefulPartitionedCall_2/RestoreV2:345"
  device: "/job:localhost/replica:0/task:0/device:GPU:0"
  attr {
    key: "_grappler_relax_allocator_constraints"
    value {
      b: true
    }
  }
  attr {
    key: "dtype"
    value {
      type: DT_FLOAT
    }
  }
  experimental_debug_info {
    original_node_names: "AssignVariableOp_345"
    original_func_names: "__inference__traced_restore_83438"
  }
}
node {
  name: "StatefulPartitionedCall_2/AssignVariableOp_346"
  op: "AssignVariableOp"
  input: "Func/StatefulPartitionedCall_2/input/_348"
  input: "StatefulPartitionedCall_2/RestoreV2:346"
  device: "/job:localhost/replica:0/task:0/device:GPU:0"
  attr {
    key: "_grappler_relax_allocator_constraints"
    value {
      b: true
    }
  }
  attr {
    key: "dtype"
    value {
      type: DT_FLOAT
    }
  }
  experimental_debug_info {
    original_node_names: "AssignVariableOp_346"
    original_func_names: "__inference__traced_restore_83438"
  }
}
node {
  name: "StatefulPartitionedCall_2/AssignVariableOp_347"
  op: "AssignVariableOp"
  input: "Func/StatefulPartitionedCall_2/input/_349"
  input: "StatefulPartitionedCall_2/RestoreV2:347"
  device: "/job:localhost/replica:0/task:0/device:GPU:0"
  attr {
    key: "_grappler_relax_allocator_constraints"
    value {
      b: true
    }
  }
  attr {
    key: "dtype"
    value {
      type: DT_FLOAT
    }
  }
  experimental_debug_info {
    original_node_names: "AssignVariableOp_347"
    original_func_names: "__inference__traced_restore_83438"
  }
}
node {
  name: "StatefulPartitionedCall_2/AssignVariableOp_348"
  op: "AssignVariableOp"
  input: "Func/StatefulPartitionedCall_2/input/_350"
  input: "StatefulPartitionedCall_2/RestoreV2:348"
  device: "/job:localhost/replica:0/task:0/device:GPU:0"
  attr {
    key: "_grappler_relax_allocator_constraints"
    value {
      b: true
    }
  }
  attr {
    key: "dtype"
    value {
      type: DT_FLOAT
    }
  }
  experimental_debug_info {
    original_node_names: "AssignVariableOp_348"
    original_func_names: "__inference__traced_restore_83438"
  }
}
node {
  name: "StatefulPartitionedCall_2/AssignVariableOp_349"
  op: "AssignVariableOp"
  input: "Func/StatefulPartitionedCall_2/input/_351"
  input: "StatefulPartitionedCall_2/RestoreV2:349"
  device: "/job:localhost/replica:0/task:0/device:GPU:0"
  attr {
    key: "_grappler_relax_allocator_constraints"
    value {
      b: true
    }
  }
  attr {
    key: "dtype"
    value {
      type: DT_FLOAT
    }
  }
  experimental_debug_info {
    original_node_names: "AssignVariableOp_349"
    original_func_names: "__inference__traced_restore_83438"
  }
}
node {
  name: "StatefulPartitionedCall_2/AssignVariableOp_350"
  op: "AssignVariableOp"
  input: "Func/StatefulPartitionedCall_2/input/_352"
  input: "StatefulPartitionedCall_2/RestoreV2:350"
  device: "/job:localhost/replica:0/task:0/device:GPU:0"
  attr {
    key: "_grappler_relax_allocator_constraints"
    value {
      b: true
    }
  }
  attr {
    key: "dtype"
    value {
      type: DT_FLOAT
    }
  }
  experimental_debug_info {
    original_node_names: "AssignVariableOp_350"
    original_func_names: "__inference__traced_restore_83438"
  }
}
node {
  name: "StatefulPartitionedCall_2/AssignVariableOp_351"
  op: "AssignVariableOp"
  input: "Func/StatefulPartitionedCall_2/input/_353"
  input: "StatefulPartitionedCall_2/RestoreV2:351"
  device: "/job:localhost/replica:0/task:0/device:GPU:0"
  attr {
    key: "_grappler_relax_allocator_constraints"
    value {
      b: true
    }
  }
  attr {
    key: "dtype"
    value {
      type: DT_FLOAT
    }
  }
  experimental_debug_info {
    original_node_names: "AssignVariableOp_351"
    original_func_names: "__inference__traced_restore_83438"
  }
}
node {
  name: "StatefulPartitionedCall_2/AssignVariableOp_352"
  op: "AssignVariableOp"
  input: "Func/StatefulPartitionedCall_2/input/_354"
  input: "StatefulPartitionedCall_2/RestoreV2:352"
  device: "/job:localhost/replica:0/task:0/device:GPU:0"
  attr {
    key: "_grappler_relax_allocator_constraints"
    value {
      b: true
    }
  }
  attr {
    key: "dtype"
    value {
      type: DT_FLOAT
    }
  }
  experimental_debug_info {
    original_node_names: "AssignVariableOp_352"
    original_func_names: "__inference__traced_restore_83438"
  }
}
node {
  name: "StatefulPartitionedCall_2/AssignVariableOp_353"
  op: "AssignVariableOp"
  input: "Func/StatefulPartitionedCall_2/input/_355"
  input: "StatefulPartitionedCall_2/RestoreV2:353"
  device: "/job:localhost/replica:0/task:0/device:GPU:0"
  attr {
    key: "_grappler_relax_allocator_constraints"
    value {
      b: true
    }
  }
  attr {
    key: "dtype"
    value {
      type: DT_FLOAT
    }
  }
  experimental_debug_info {
    original_node_names: "AssignVariableOp_353"
    original_func_names: "__inference__traced_restore_83438"
  }
}
node {
  name: "StatefulPartitionedCall_2/AssignVariableOp_354"
  op: "AssignVariableOp"
  input: "Func/StatefulPartitionedCall_2/input/_356"
  input: "StatefulPartitionedCall_2/RestoreV2:354"
  device: "/job:localhost/replica:0/task:0/device:GPU:0"
  attr {
    key: "_grappler_relax_allocator_constraints"
    value {
      b: true
    }
  }
  attr {
    key: "dtype"
    value {
      type: DT_FLOAT
    }
  }
  experimental_debug_info {
    original_node_names: "AssignVariableOp_354"
    original_func_names: "__inference__traced_restore_83438"
  }
}
node {
  name: "StatefulPartitionedCall_2/AssignVariableOp_355"
  op: "AssignVariableOp"
  input: "Func/StatefulPartitionedCall_2/input/_357"
  input: "StatefulPartitionedCall_2/RestoreV2:355"
  device: "/job:localhost/replica:0/task:0/device:GPU:0"
  attr {
    key: "_grappler_relax_allocator_constraints"
    value {
      b: true
    }
  }
  attr {
    key: "dtype"
    value {
      type: DT_FLOAT
    }
  }
  experimental_debug_info {
    original_node_names: "AssignVariableOp_355"
    original_func_names: "__inference__traced_restore_83438"
  }
}
node {
  name: "StatefulPartitionedCall_2/AssignVariableOp_356"
  op: "AssignVariableOp"
  input: "Func/StatefulPartitionedCall_2/input/_358"
  input: "StatefulPartitionedCall_2/RestoreV2:356"
  device: "/job:localhost/replica:0/task:0/device:GPU:0"
  attr {
    key: "_grappler_relax_allocator_constraints"
    value {
      b: true
    }
  }
  attr {
    key: "dtype"
    value {
      type: DT_FLOAT
    }
  }
  experimental_debug_info {
    original_node_names: "AssignVariableOp_356"
    original_func_names: "__inference__traced_restore_83438"
  }
}
node {
  name: "StatefulPartitionedCall_2/AssignVariableOp_357"
  op: "AssignVariableOp"
  input: "Func/StatefulPartitionedCall_2/input/_359"
  input: "StatefulPartitionedCall_2/RestoreV2:357"
  device: "/job:localhost/replica:0/task:0/device:GPU:0"
  attr {
    key: "_grappler_relax_allocator_constraints"
    value {
      b: true
    }
  }
  attr {
    key: "dtype"
    value {
      type: DT_FLOAT
    }
  }
  experimental_debug_info {
    original_node_names: "AssignVariableOp_357"
    original_func_names: "__inference__traced_restore_83438"
  }
}
node {
  name: "StatefulPartitionedCall_2/AssignVariableOp_358"
  op: "AssignVariableOp"
  input: "Func/StatefulPartitionedCall_2/input/_360"
  input: "StatefulPartitionedCall_2/RestoreV2:358"
  device: "/job:localhost/replica:0/task:0/device:GPU:0"
  attr {
    key: "_grappler_relax_allocator_constraints"
    value {
      b: true
    }
  }
  attr {
    key: "dtype"
    value {
      type: DT_FLOAT
    }
  }
  experimental_debug_info {
    original_node_names: "AssignVariableOp_358"
    original_func_names: "__inference__traced_restore_83438"
  }
}
node {
  name: "StatefulPartitionedCall_2/AssignVariableOp_359"
  op: "AssignVariableOp"
  input: "Func/StatefulPartitionedCall_2/input/_361"
  input: "StatefulPartitionedCall_2/RestoreV2:359"
  device: "/job:localhost/replica:0/task:0/device:GPU:0"
  attr {
    key: "_grappler_relax_allocator_constraints"
    value {
      b: true
    }
  }
  attr {
    key: "dtype"
    value {
      type: DT_FLOAT
    }
  }
  experimental_debug_info {
    original_node_names: "AssignVariableOp_359"
    original_func_names: "__inference__traced_restore_83438"
  }
}
node {
  name: "StatefulPartitionedCall_2/AssignVariableOp_360"
  op: "AssignVariableOp"
  input: "Func/StatefulPartitionedCall_2/input/_362"
  input: "StatefulPartitionedCall_2/RestoreV2:360"
  device: "/job:localhost/replica:0/task:0/device:GPU:0"
  attr {
    key: "_grappler_relax_allocator_constraints"
    value {
      b: true
    }
  }
  attr {
    key: "dtype"
    value {
      type: DT_FLOAT
    }
  }
  experimental_debug_info {
    original_node_names: "AssignVariableOp_360"
    original_func_names: "__inference__traced_restore_83438"
  }
}
node {
  name: "StatefulPartitionedCall_2/AssignVariableOp_361"
  op: "AssignVariableOp"
  input: "Func/StatefulPartitionedCall_2/input/_363"
  input: "StatefulPartitionedCall_2/RestoreV2:361"
  device: "/job:localhost/replica:0/task:0/device:GPU:0"
  attr {
    key: "_grappler_relax_allocator_constraints"
    value {
      b: true
    }
  }
  attr {
    key: "dtype"
    value {
      type: DT_FLOAT
    }
  }
  experimental_debug_info {
    original_node_names: "AssignVariableOp_361"
    original_func_names: "__inference__traced_restore_83438"
  }
}
node {
  name: "StatefulPartitionedCall_2/AssignVariableOp_362"
  op: "AssignVariableOp"
  input: "Func/StatefulPartitionedCall_2/input/_364"
  input: "StatefulPartitionedCall_2/RestoreV2:362"
  device: "/job:localhost/replica:0/task:0/device:GPU:0"
  attr {
    key: "_grappler_relax_allocator_constraints"
    value {
      b: true
    }
  }
  attr {
    key: "dtype"
    value {
      type: DT_FLOAT
    }
  }
  experimental_debug_info {
    original_node_names: "AssignVariableOp_362"
    original_func_names: "__inference__traced_restore_83438"
  }
}
node {
  name: "StatefulPartitionedCall_2/AssignVariableOp_363"
  op: "AssignVariableOp"
  input: "Func/StatefulPartitionedCall_2/input/_365"
  input: "StatefulPartitionedCall_2/RestoreV2:363"
  device: "/job:localhost/replica:0/task:0/device:GPU:0"
  attr {
    key: "_grappler_relax_allocator_constraints"
    value {
      b: true
    }
  }
  attr {
    key: "dtype"
    value {
      type: DT_FLOAT
    }
  }
  experimental_debug_info {
    original_node_names: "AssignVariableOp_363"
    original_func_names: "__inference__traced_restore_83438"
  }
}
node {
  name: "StatefulPartitionedCall_2/AssignVariableOp_364"
  op: "AssignVariableOp"
  input: "Func/StatefulPartitionedCall_2/input/_366"
  input: "StatefulPartitionedCall_2/RestoreV2:364"
  device: "/job:localhost/replica:0/task:0/device:GPU:0"
  attr {
    key: "_grappler_relax_allocator_constraints"
    value {
      b: true
    }
  }
  attr {
    key: "dtype"
    value {
      type: DT_FLOAT
    }
  }
  experimental_debug_info {
    original_node_names: "AssignVariableOp_364"
    original_func_names: "__inference__traced_restore_83438"
  }
}
node {
  name: "StatefulPartitionedCall_2/AssignVariableOp_365"
  op: "AssignVariableOp"
  input: "Func/StatefulPartitionedCall_2/input/_367"
  input: "StatefulPartitionedCall_2/RestoreV2:365"
  device: "/job:localhost/replica:0/task:0/device:GPU:0"
  attr {
    key: "_grappler_relax_allocator_constraints"
    value {
      b: true
    }
  }
  attr {
    key: "dtype"
    value {
      type: DT_FLOAT
    }
  }
  experimental_debug_info {
    original_node_names: "AssignVariableOp_365"
    original_func_names: "__inference__traced_restore_83438"
  }
}
node {
  name: "GroupCrossDeviceControlEdges_0/StatefulPartitionedCall_2/Identity_366"
  op: "NoOp"
  input: "^StatefulPartitionedCall_2/AssignVariableOp"
  input: "^StatefulPartitionedCall_2/AssignVariableOp_1"
  input: "^StatefulPartitionedCall_2/AssignVariableOp_10"
  input: "^StatefulPartitionedCall_2/AssignVariableOp_100"
  input: "^StatefulPartitionedCall_2/AssignVariableOp_101"
  input: "^StatefulPartitionedCall_2/AssignVariableOp_102"
  input: "^StatefulPartitionedCall_2/AssignVariableOp_103"
  input: "^StatefulPartitionedCall_2/AssignVariableOp_104"
  input: "^StatefulPartitionedCall_2/AssignVariableOp_105"
  input: "^StatefulPartitionedCall_2/AssignVariableOp_106"
  input: "^StatefulPartitionedCall_2/AssignVariableOp_107"
  input: "^StatefulPartitionedCall_2/AssignVariableOp_108"
  input: "^StatefulPartitionedCall_2/AssignVariableOp_109"
  input: "^StatefulPartitionedCall_2/AssignVariableOp_11"
  input: "^StatefulPartitionedCall_2/AssignVariableOp_110"
  input: "^StatefulPartitionedCall_2/AssignVariableOp_111"
  input: "^StatefulPartitionedCall_2/AssignVariableOp_112"
  input: "^StatefulPartitionedCall_2/AssignVariableOp_113"
  input: "^StatefulPartitionedCall_2/AssignVariableOp_114"
  input: "^StatefulPartitionedCall_2/AssignVariableOp_115"
  input: "^StatefulPartitionedCall_2/AssignVariableOp_116"
  input: "^StatefulPartitionedCall_2/AssignVariableOp_117"
  input: "^StatefulPartitionedCall_2/AssignVariableOp_118"
  input: "^StatefulPartitionedCall_2/AssignVariableOp_119"
  input: "^StatefulPartitionedCall_2/AssignVariableOp_12"
  input: "^StatefulPartitionedCall_2/AssignVariableOp_120"
  input: "^StatefulPartitionedCall_2/AssignVariableOp_121"
  input: "^StatefulPartitionedCall_2/AssignVariableOp_122"
  input: "^StatefulPartitionedCall_2/AssignVariableOp_123"
  input: "^StatefulPartitionedCall_2/AssignVariableOp_124"
  input: "^StatefulPartitionedCall_2/AssignVariableOp_125"
  input: "^StatefulPartitionedCall_2/AssignVariableOp_126"
  input: "^StatefulPartitionedCall_2/AssignVariableOp_127"
  input: "^StatefulPartitionedCall_2/AssignVariableOp_128"
  input: "^StatefulPartitionedCall_2/AssignVariableOp_129"
  input: "^StatefulPartitionedCall_2/AssignVariableOp_13"
  input: "^StatefulPartitionedCall_2/AssignVariableOp_130"
  input: "^StatefulPartitionedCall_2/AssignVariableOp_131"
  input: "^StatefulPartitionedCall_2/AssignVariableOp_132"
  input: "^StatefulPartitionedCall_2/AssignVariableOp_133"
  input: "^StatefulPartitionedCall_2/AssignVariableOp_134"
  input: "^StatefulPartitionedCall_2/AssignVariableOp_135"
  input: "^StatefulPartitionedCall_2/AssignVariableOp_136"
  input: "^StatefulPartitionedCall_2/AssignVariableOp_137"
  input: "^StatefulPartitionedCall_2/AssignVariableOp_138"
  input: "^StatefulPartitionedCall_2/AssignVariableOp_139"
  input: "^StatefulPartitionedCall_2/AssignVariableOp_14"
  input: "^StatefulPartitionedCall_2/AssignVariableOp_140"
  input: "^StatefulPartitionedCall_2/AssignVariableOp_141"
  input: "^StatefulPartitionedCall_2/AssignVariableOp_142"
  input: "^StatefulPartitionedCall_2/AssignVariableOp_143"
  input: "^StatefulPartitionedCall_2/AssignVariableOp_144"
  input: "^StatefulPartitionedCall_2/AssignVariableOp_145"
  input: "^StatefulPartitionedCall_2/AssignVariableOp_146"
  input: "^StatefulPartitionedCall_2/AssignVariableOp_147"
  input: "^StatefulPartitionedCall_2/AssignVariableOp_148"
  input: "^StatefulPartitionedCall_2/AssignVariableOp_149"
  input: "^StatefulPartitionedCall_2/AssignVariableOp_15"
  input: "^StatefulPartitionedCall_2/AssignVariableOp_150"
  input: "^StatefulPartitionedCall_2/AssignVariableOp_151"
  input: "^StatefulPartitionedCall_2/AssignVariableOp_152"
  input: "^StatefulPartitionedCall_2/AssignVariableOp_153"
  input: "^StatefulPartitionedCall_2/AssignVariableOp_154"
  input: "^StatefulPartitionedCall_2/AssignVariableOp_155"
  input: "^StatefulPartitionedCall_2/AssignVariableOp_156"
  input: "^StatefulPartitionedCall_2/AssignVariableOp_157"
  input: "^StatefulPartitionedCall_2/AssignVariableOp_158"
  input: "^StatefulPartitionedCall_2/AssignVariableOp_159"
  input: "^StatefulPartitionedCall_2/AssignVariableOp_16"
  input: "^StatefulPartitionedCall_2/AssignVariableOp_160"
  input: "^StatefulPartitionedCall_2/AssignVariableOp_161"
  input: "^StatefulPartitionedCall_2/AssignVariableOp_162"
  input: "^StatefulPartitionedCall_2/AssignVariableOp_163"
  input: "^StatefulPartitionedCall_2/AssignVariableOp_164"
  input: "^StatefulPartitionedCall_2/AssignVariableOp_165"
  input: "^StatefulPartitionedCall_2/AssignVariableOp_166"
  input: "^StatefulPartitionedCall_2/AssignVariableOp_167"
  input: "^StatefulPartitionedCall_2/AssignVariableOp_168"
  input: "^StatefulPartitionedCall_2/AssignVariableOp_169"
  input: "^StatefulPartitionedCall_2/AssignVariableOp_17"
  input: "^StatefulPartitionedCall_2/AssignVariableOp_170"
  input: "^StatefulPartitionedCall_2/AssignVariableOp_171"
  input: "^StatefulPartitionedCall_2/AssignVariableOp_172"
  input: "^StatefulPartitionedCall_2/AssignVariableOp_173"
  input: "^StatefulPartitionedCall_2/AssignVariableOp_174"
  input: "^StatefulPartitionedCall_2/AssignVariableOp_175"
  input: "^StatefulPartitionedCall_2/AssignVariableOp_176"
  input: "^StatefulPartitionedCall_2/AssignVariableOp_177"
  input: "^StatefulPartitionedCall_2/AssignVariableOp_178"
  input: "^StatefulPartitionedCall_2/AssignVariableOp_179"
  input: "^StatefulPartitionedCall_2/AssignVariableOp_18"
  input: "^StatefulPartitionedCall_2/AssignVariableOp_180"
  input: "^StatefulPartitionedCall_2/AssignVariableOp_181"
  input: "^StatefulPartitionedCall_2/AssignVariableOp_182"
  input: "^StatefulPartitionedCall_2/AssignVariableOp_183"
  input: "^StatefulPartitionedCall_2/AssignVariableOp_184"
  input: "^StatefulPartitionedCall_2/AssignVariableOp_185"
  input: "^StatefulPartitionedCall_2/AssignVariableOp_186"
  input: "^StatefulPartitionedCall_2/AssignVariableOp_187"
  input: "^StatefulPartitionedCall_2/AssignVariableOp_188"
  input: "^StatefulPartitionedCall_2/AssignVariableOp_189"
  input: "^StatefulPartitionedCall_2/AssignVariableOp_19"
  input: "^StatefulPartitionedCall_2/AssignVariableOp_190"
  input: "^StatefulPartitionedCall_2/AssignVariableOp_191"
  input: "^StatefulPartitionedCall_2/AssignVariableOp_192"
  input: "^StatefulPartitionedCall_2/AssignVariableOp_193"
  input: "^StatefulPartitionedCall_2/AssignVariableOp_194"
  input: "^StatefulPartitionedCall_2/AssignVariableOp_195"
  input: "^StatefulPartitionedCall_2/AssignVariableOp_196"
  input: "^StatefulPartitionedCall_2/AssignVariableOp_197"
  input: "^StatefulPartitionedCall_2/AssignVariableOp_198"
  input: "^StatefulPartitionedCall_2/AssignVariableOp_199"
  input: "^StatefulPartitionedCall_2/AssignVariableOp_2"
  input: "^StatefulPartitionedCall_2/AssignVariableOp_20"
  input: "^StatefulPartitionedCall_2/AssignVariableOp_200"
  input: "^StatefulPartitionedCall_2/AssignVariableOp_201"
  input: "^StatefulPartitionedCall_2/AssignVariableOp_202"
  input: "^StatefulPartitionedCall_2/AssignVariableOp_203"
  input: "^StatefulPartitionedCall_2/AssignVariableOp_204"
  input: "^StatefulPartitionedCall_2/AssignVariableOp_205"
  input: "^StatefulPartitionedCall_2/AssignVariableOp_206"
  input: "^StatefulPartitionedCall_2/AssignVariableOp_207"
  input: "^StatefulPartitionedCall_2/AssignVariableOp_208"
  input: "^StatefulPartitionedCall_2/AssignVariableOp_209"
  input: "^StatefulPartitionedCall_2/AssignVariableOp_21"
  input: "^StatefulPartitionedCall_2/AssignVariableOp_210"
  input: "^StatefulPartitionedCall_2/AssignVariableOp_211"
  input: "^StatefulPartitionedCall_2/AssignVariableOp_212"
  input: "^StatefulPartitionedCall_2/AssignVariableOp_213"
  input: "^StatefulPartitionedCall_2/AssignVariableOp_214"
  input: "^StatefulPartitionedCall_2/AssignVariableOp_215"
  input: "^StatefulPartitionedCall_2/AssignVariableOp_216"
  input: "^StatefulPartitionedCall_2/AssignVariableOp_217"
  input: "^StatefulPartitionedCall_2/AssignVariableOp_218"
  input: "^StatefulPartitionedCall_2/AssignVariableOp_219"
  input: "^StatefulPartitionedCall_2/AssignVariableOp_22"
  input: "^StatefulPartitionedCall_2/AssignVariableOp_220"
  input: "^StatefulPartitionedCall_2/AssignVariableOp_221"
  input: "^StatefulPartitionedCall_2/AssignVariableOp_222"
  input: "^StatefulPartitionedCall_2/AssignVariableOp_223"
  input: "^StatefulPartitionedCall_2/AssignVariableOp_224"
  input: "^StatefulPartitionedCall_2/AssignVariableOp_225"
  input: "^StatefulPartitionedCall_2/AssignVariableOp_226"
  input: "^StatefulPartitionedCall_2/AssignVariableOp_227"
  input: "^StatefulPartitionedCall_2/AssignVariableOp_228"
  input: "^StatefulPartitionedCall_2/AssignVariableOp_229"
  input: "^StatefulPartitionedCall_2/AssignVariableOp_23"
  input: "^StatefulPartitionedCall_2/AssignVariableOp_230"
  input: "^StatefulPartitionedCall_2/AssignVariableOp_231"
  input: "^StatefulPartitionedCall_2/AssignVariableOp_232"
  input: "^StatefulPartitionedCall_2/AssignVariableOp_233"
  input: "^StatefulPartitionedCall_2/AssignVariableOp_234"
  input: "^StatefulPartitionedCall_2/AssignVariableOp_235"
  input: "^StatefulPartitionedCall_2/AssignVariableOp_236"
  input: "^StatefulPartitionedCall_2/AssignVariableOp_237"
  input: "^StatefulPartitionedCall_2/AssignVariableOp_238"
  input: "^StatefulPartitionedCall_2/AssignVariableOp_239"
  input: "^StatefulPartitionedCall_2/AssignVariableOp_24"
  input: "^StatefulPartitionedCall_2/AssignVariableOp_240"
  input: "^StatefulPartitionedCall_2/AssignVariableOp_241"
  input: "^StatefulPartitionedCall_2/AssignVariableOp_242"
  input: "^StatefulPartitionedCall_2/AssignVariableOp_243"
  input: "^StatefulPartitionedCall_2/AssignVariableOp_244"
  input: "^StatefulPartitionedCall_2/AssignVariableOp_245"
  input: "^StatefulPartitionedCall_2/AssignVariableOp_246"
  input: "^StatefulPartitionedCall_2/AssignVariableOp_247"
  input: "^StatefulPartitionedCall_2/AssignVariableOp_248"
  input: "^StatefulPartitionedCall_2/AssignVariableOp_249"
  input: "^StatefulPartitionedCall_2/AssignVariableOp_25"
  input: "^StatefulPartitionedCall_2/AssignVariableOp_250"
  input: "^StatefulPartitionedCall_2/AssignVariableOp_251"
  input: "^StatefulPartitionedCall_2/AssignVariableOp_252"
  input: "^StatefulPartitionedCall_2/AssignVariableOp_253"
  input: "^StatefulPartitionedCall_2/AssignVariableOp_254"
  input: "^StatefulPartitionedCall_2/AssignVariableOp_255"
  input: "^StatefulPartitionedCall_2/AssignVariableOp_256"
  input: "^StatefulPartitionedCall_2/AssignVariableOp_257"
  input: "^StatefulPartitionedCall_2/AssignVariableOp_258"
  input: "^StatefulPartitionedCall_2/AssignVariableOp_259"
  input: "^StatefulPartitionedCall_2/AssignVariableOp_26"
  input: "^StatefulPartitionedCall_2/AssignVariableOp_260"
  input: "^StatefulPartitionedCall_2/AssignVariableOp_261"
  input: "^StatefulPartitionedCall_2/AssignVariableOp_262"
  input: "^StatefulPartitionedCall_2/AssignVariableOp_263"
  input: "^StatefulPartitionedCall_2/AssignVariableOp_264"
  input: "^StatefulPartitionedCall_2/AssignVariableOp_265"
  input: "^StatefulPartitionedCall_2/AssignVariableOp_266"
  input: "^StatefulPartitionedCall_2/AssignVariableOp_267"
  input: "^StatefulPartitionedCall_2/AssignVariableOp_268"
  input: "^StatefulPartitionedCall_2/AssignVariableOp_269"
  input: "^StatefulPartitionedCall_2/AssignVariableOp_27"
  input: "^StatefulPartitionedCall_2/AssignVariableOp_270"
  input: "^StatefulPartitionedCall_2/AssignVariableOp_271"
  input: "^StatefulPartitionedCall_2/AssignVariableOp_272"
  input: "^StatefulPartitionedCall_2/AssignVariableOp_273"
  input: "^StatefulPartitionedCall_2/AssignVariableOp_274"
  input: "^StatefulPartitionedCall_2/AssignVariableOp_275"
  input: "^StatefulPartitionedCall_2/AssignVariableOp_276"
  input: "^StatefulPartitionedCall_2/AssignVariableOp_277"
  input: "^StatefulPartitionedCall_2/AssignVariableOp_278"
  input: "^StatefulPartitionedCall_2/AssignVariableOp_279"
  input: "^StatefulPartitionedCall_2/AssignVariableOp_28"
  input: "^StatefulPartitionedCall_2/AssignVariableOp_280"
  input: "^StatefulPartitionedCall_2/AssignVariableOp_281"
  input: "^StatefulPartitionedCall_2/AssignVariableOp_282"
  input: "^StatefulPartitionedCall_2/AssignVariableOp_283"
  input: "^StatefulPartitionedCall_2/AssignVariableOp_284"
  input: "^StatefulPartitionedCall_2/AssignVariableOp_285"
  input: "^StatefulPartitionedCall_2/AssignVariableOp_286"
  input: "^StatefulPartitionedCall_2/AssignVariableOp_287"
  input: "^StatefulPartitionedCall_2/AssignVariableOp_288"
  input: "^StatefulPartitionedCall_2/AssignVariableOp_289"
  input: "^StatefulPartitionedCall_2/AssignVariableOp_29"
  input: "^StatefulPartitionedCall_2/AssignVariableOp_290"
  input: "^StatefulPartitionedCall_2/AssignVariableOp_291"
  input: "^StatefulPartitionedCall_2/AssignVariableOp_292"
  input: "^StatefulPartitionedCall_2/AssignVariableOp_293"
  input: "^StatefulPartitionedCall_2/AssignVariableOp_294"
  input: "^StatefulPartitionedCall_2/AssignVariableOp_295"
  input: "^StatefulPartitionedCall_2/AssignVariableOp_296"
  input: "^StatefulPartitionedCall_2/AssignVariableOp_297"
  input: "^StatefulPartitionedCall_2/AssignVariableOp_298"
  input: "^StatefulPartitionedCall_2/AssignVariableOp_299"
  input: "^StatefulPartitionedCall_2/AssignVariableOp_3"
  input: "^StatefulPartitionedCall_2/AssignVariableOp_30"
  input: "^StatefulPartitionedCall_2/AssignVariableOp_300"
  input: "^StatefulPartitionedCall_2/AssignVariableOp_301"
  input: "^StatefulPartitionedCall_2/AssignVariableOp_302"
  input: "^StatefulPartitionedCall_2/AssignVariableOp_303"
  input: "^StatefulPartitionedCall_2/AssignVariableOp_304"
  input: "^StatefulPartitionedCall_2/AssignVariableOp_305"
  input: "^StatefulPartitionedCall_2/AssignVariableOp_306"
  input: "^StatefulPartitionedCall_2/AssignVariableOp_307"
  input: "^StatefulPartitionedCall_2/AssignVariableOp_308"
  input: "^StatefulPartitionedCall_2/AssignVariableOp_309"
  input: "^StatefulPartitionedCall_2/AssignVariableOp_31"
  input: "^StatefulPartitionedCall_2/AssignVariableOp_310"
  input: "^StatefulPartitionedCall_2/AssignVariableOp_311"
  input: "^StatefulPartitionedCall_2/AssignVariableOp_312"
  input: "^StatefulPartitionedCall_2/AssignVariableOp_313"
  input: "^StatefulPartitionedCall_2/AssignVariableOp_314"
  input: "^StatefulPartitionedCall_2/AssignVariableOp_315"
  input: "^StatefulPartitionedCall_2/AssignVariableOp_316"
  input: "^StatefulPartitionedCall_2/AssignVariableOp_317"
  input: "^StatefulPartitionedCall_2/AssignVariableOp_318"
  input: "^StatefulPartitionedCall_2/AssignVariableOp_319"
  input: "^StatefulPartitionedCall_2/AssignVariableOp_32"
  input: "^StatefulPartitionedCall_2/AssignVariableOp_320"
  input: "^StatefulPartitionedCall_2/AssignVariableOp_321"
  input: "^StatefulPartitionedCall_2/AssignVariableOp_322"
  input: "^StatefulPartitionedCall_2/AssignVariableOp_323"
  input: "^StatefulPartitionedCall_2/AssignVariableOp_324"
  input: "^StatefulPartitionedCall_2/AssignVariableOp_325"
  input: "^StatefulPartitionedCall_2/AssignVariableOp_326"
  input: "^StatefulPartitionedCall_2/AssignVariableOp_327"
  input: "^StatefulPartitionedCall_2/AssignVariableOp_328"
  input: "^StatefulPartitionedCall_2/AssignVariableOp_329"
  input: "^StatefulPartitionedCall_2/AssignVariableOp_33"
  input: "^StatefulPartitionedCall_2/AssignVariableOp_330"
  input: "^StatefulPartitionedCall_2/AssignVariableOp_331"
  input: "^StatefulPartitionedCall_2/AssignVariableOp_332"
  input: "^StatefulPartitionedCall_2/AssignVariableOp_333"
  input: "^StatefulPartitionedCall_2/AssignVariableOp_334"
  input: "^StatefulPartitionedCall_2/AssignVariableOp_335"
  input: "^StatefulPartitionedCall_2/AssignVariableOp_336"
  input: "^StatefulPartitionedCall_2/AssignVariableOp_337"
  input: "^StatefulPartitionedCall_2/AssignVariableOp_338"
  input: "^StatefulPartitionedCall_2/AssignVariableOp_339"
  input: "^StatefulPartitionedCall_2/AssignVariableOp_34"
  input: "^StatefulPartitionedCall_2/AssignVariableOp_340"
  input: "^StatefulPartitionedCall_2/AssignVariableOp_341"
  input: "^StatefulPartitionedCall_2/AssignVariableOp_342"
  input: "^StatefulPartitionedCall_2/AssignVariableOp_343"
  input: "^StatefulPartitionedCall_2/AssignVariableOp_344"
  input: "^StatefulPartitionedCall_2/AssignVariableOp_345"
  input: "^StatefulPartitionedCall_2/AssignVariableOp_346"
  input: "^StatefulPartitionedCall_2/AssignVariableOp_347"
  input: "^StatefulPartitionedCall_2/AssignVariableOp_348"
  input: "^StatefulPartitionedCall_2/AssignVariableOp_349"
  input: "^StatefulPartitionedCall_2/AssignVariableOp_35"
  input: "^StatefulPartitionedCall_2/AssignVariableOp_350"
  input: "^StatefulPartitionedCall_2/AssignVariableOp_351"
  input: "^StatefulPartitionedCall_2/AssignVariableOp_352"
  input: "^StatefulPartitionedCall_2/AssignVariableOp_353"
  input: "^StatefulPartitionedCall_2/AssignVariableOp_354"
  input: "^StatefulPartitionedCall_2/AssignVariableOp_355"
  input: "^StatefulPartitionedCall_2/AssignVariableOp_356"
  input: "^StatefulPartitionedCall_2/AssignVariableOp_357"
  input: "^StatefulPartitionedCall_2/AssignVariableOp_358"
  input: "^StatefulPartitionedCall_2/AssignVariableOp_359"
  input: "^StatefulPartitionedCall_2/AssignVariableOp_36"
  input: "^StatefulPartitionedCall_2/AssignVariableOp_360"
  input: "^StatefulPartitionedCall_2/AssignVariableOp_361"
  input: "^StatefulPartitionedCall_2/AssignVariableOp_362"
  input: "^StatefulPartitionedCall_2/AssignVariableOp_363"
  input: "^StatefulPartitionedCall_2/AssignVariableOp_364"
  input: "^StatefulPartitionedCall_2/AssignVariableOp_365"
  input: "^StatefulPartitionedCall_2/AssignVariableOp_37"
  input: "^StatefulPartitionedCall_2/AssignVariableOp_38"
  input: "^StatefulPartitionedCall_2/AssignVariableOp_39"
  input: "^StatefulPartitionedCall_2/AssignVariableOp_4"
  input: "^StatefulPartitionedCall_2/AssignVariableOp_40"
  input: "^StatefulPartitionedCall_2/AssignVariableOp_41"
  input: "^StatefulPartitionedCall_2/AssignVariableOp_42"
  input: "^StatefulPartitionedCall_2/AssignVariableOp_43"
  input: "^StatefulPartitionedCall_2/AssignVariableOp_44"
  input: "^StatefulPartitionedCall_2/AssignVariableOp_45"
  input: "^StatefulPartitionedCall_2/AssignVariableOp_46"
  input: "^StatefulPartitionedCall_2/AssignVariableOp_47"
  input: "^StatefulPartitionedCall_2/AssignVariableOp_48"
  input: "^StatefulPartitionedCall_2/AssignVariableOp_49"
  input: "^StatefulPartitionedCall_2/AssignVariableOp_5"
  input: "^StatefulPartitionedCall_2/AssignVariableOp_50"
  input: "^StatefulPartitionedCall_2/AssignVariableOp_51"
  input: "^StatefulPartitionedCall_2/AssignVariableOp_52"
  input: "^StatefulPartitionedCall_2/AssignVariableOp_53"
  input: "^StatefulPartitionedCall_2/AssignVariableOp_54"
  input: "^StatefulPartitionedCall_2/AssignVariableOp_55"
  input: "^StatefulPartitionedCall_2/AssignVariableOp_56"
  input: "^StatefulPartitionedCall_2/AssignVariableOp_57"
  input: "^StatefulPartitionedCall_2/AssignVariableOp_58"
  input: "^StatefulPartitionedCall_2/AssignVariableOp_59"
  input: "^StatefulPartitionedCall_2/AssignVariableOp_6"
  input: "^StatefulPartitionedCall_2/AssignVariableOp_60"
  input: "^StatefulPartitionedCall_2/AssignVariableOp_61"
  input: "^StatefulPartitionedCall_2/AssignVariableOp_62"
  input: "^StatefulPartitionedCall_2/AssignVariableOp_63"
  input: "^StatefulPartitionedCall_2/AssignVariableOp_64"
  input: "^StatefulPartitionedCall_2/AssignVariableOp_65"
  input: "^StatefulPartitionedCall_2/AssignVariableOp_66"
  input: "^StatefulPartitionedCall_2/AssignVariableOp_67"
  input: "^StatefulPartitionedCall_2/AssignVariableOp_68"
  input: "^StatefulPartitionedCall_2/AssignVariableOp_69"
  input: "^StatefulPartitionedCall_2/AssignVariableOp_7"
  input: "^StatefulPartitionedCall_2/AssignVariableOp_70"
  input: "^StatefulPartitionedCall_2/AssignVariableOp_71"
  input: "^StatefulPartitionedCall_2/AssignVariableOp_72"
  input: "^StatefulPartitionedCall_2/AssignVariableOp_73"
  input: "^StatefulPartitionedCall_2/AssignVariableOp_74"
  input: "^StatefulPartitionedCall_2/AssignVariableOp_75"
  input: "^StatefulPartitionedCall_2/AssignVariableOp_76"
  input: "^StatefulPartitionedCall_2/AssignVariableOp_77"
  input: "^StatefulPartitionedCall_2/AssignVariableOp_78"
  input: "^StatefulPartitionedCall_2/AssignVariableOp_79"
  input: "^StatefulPartitionedCall_2/AssignVariableOp_8"
  input: "^StatefulPartitionedCall_2/AssignVariableOp_80"
  input: "^StatefulPartitionedCall_2/AssignVariableOp_81"
  input: "^StatefulPartitionedCall_2/AssignVariableOp_82"
  input: "^StatefulPartitionedCall_2/AssignVariableOp_83"
  input: "^StatefulPartitionedCall_2/AssignVariableOp_84"
  input: "^StatefulPartitionedCall_2/AssignVariableOp_85"
  input: "^StatefulPartitionedCall_2/AssignVariableOp_86"
  input: "^StatefulPartitionedCall_2/AssignVariableOp_87"
  input: "^StatefulPartitionedCall_2/AssignVariableOp_88"
  input: "^StatefulPartitionedCall_2/AssignVariableOp_89"
  input: "^StatefulPartitionedCall_2/AssignVariableOp_9"
  input: "^StatefulPartitionedCall_2/AssignVariableOp_90"
  input: "^StatefulPartitionedCall_2/AssignVariableOp_91"
  input: "^StatefulPartitionedCall_2/AssignVariableOp_92"
  input: "^StatefulPartitionedCall_2/AssignVariableOp_93"
  input: "^StatefulPartitionedCall_2/AssignVariableOp_94"
  input: "^StatefulPartitionedCall_2/AssignVariableOp_95"
  input: "^StatefulPartitionedCall_2/AssignVariableOp_96"
  input: "^StatefulPartitionedCall_2/AssignVariableOp_97"
  input: "^StatefulPartitionedCall_2/AssignVariableOp_98"
  input: "^StatefulPartitionedCall_2/AssignVariableOp_99"
  device: "/job:localhost/replica:0/task:0/device:GPU:0"
}
node {
  name: "StatefulPartitionedCall_2/Identity_366"
  op: "Identity"
  input: "Func/StatefulPartitionedCall_2/input/_1"
  input: "^GroupCrossDeviceControlEdges_0/StatefulPartitionedCall_2/Identity_366"
  device: "/job:localhost/replica:0/task:0/device:CPU:0"
  attr {
    key: "T"
    value {
      type: DT_STRING
    }
  }
  experimental_debug_info {
    original_node_names: "Identity_366"
    original_func_names: "__inference__traced_restore_83438"
  }
}
node {
  name: "StatefulPartitionedCall_2"
  op: "IdentityN"
  input: "StatefulPartitionedCall_2/Identity_366"
  input: "^StatefulPartitionedCall_2/RestoreV2_1"
  device: "/job:localhost/replica:0/task:0/device:GPU:0"
  attr {
    key: "T"
    value {
      list {
        type: DT_STRING
      }
    }
  }
}
library {
}
versions {
  producer: 119
  min_consumer: 12
}
